trained_models/28_12.pth (torch, 185495 bytes, 10 tensors)

conv1.weight f4 [6, 3, 3, 3]
00000000: d664 1b3e f08e 763d 06f2 aebc 4f94 273e
00000010: 21da b83c 1974 21be 9393 babd 986b 933d
00000020: 2927 a23d 9c55 27bd e6ab 0e3e f11e 2d3e
00000030: e8d0 c33d 1285 91bd 75b9 0a3e f3e3 2e3e
00000040: 2fa9 0b3d 1442 32bd 80bd 1b3e ce12 f23c
00000050: b543 9dbd c4d6 95bb 26f7 393b 14a6 c73c
00000060: 925d 3abe 2e39 0bbd ba5a 823d 4ae8 5c3f
00000070: 899e 74be a4e1 57bf 91cb 693f a464 6dbe
00000080: c12e 3fbf 6e29 953f a0ad 9abe bb54 46bf
00000090: bda6 823f b5d5 cebd 52ed 66bf 5bfc 993f
000000a0: a7c1 1cbe a404 23bf 1b5c 8d3f 295f e7be
000000b0: 184d 58bf a614 8b3f 5378 8abe 440b 6ebf
000000c0: 8a9f 973f 0417 72bd 08ce 52bf 8fd9 9f3f
000000d0: 6ed8 06bf 1149 45bf ec38 97be 7173 a0be
000000e0: 8383 233f 03cf c4be da02 e4bd aa31 0b3f
000000f0: c368 8cbe 2dcf fdbe 4a7b 043f dabc 06bf
00000100: fe62 45be 3c14 d23e f9e1 b3be e733 eebe
00000110: 4e07 0c3f 406c babe 1238 9bbe f478 1a3f
00000120: 10b7 e2be a2ab 25be 74f5 163f 18bf 0cbf
00000130: 55ce 3dbe 8219 c93e 1ce0 c4be 65b6 c3be
00000140: 2e8d 2e3f 4f67 413e 34aa c0bd 392b 413e
00000150: a142 47bd 24f2 acbd 10e5 c1bc ed76 dcbc
00000160: 5b65 163e 17ed 603d 6bc4 bfbd 2719 28be
00000170: 14b4 4e3b 2a15 0fbe 1fab 9b3c b4c3 693c
00000180: b729 d53d b9ea fb3d a79f bebd 115d 27bc
00000190: cb63 02be 8472 a73d 959d 1a3e 3e77 f6bd
000001a0: b817 1c3e 568b 1a3e fe87 01bd 86b0 24bd
000001b0: 54b1 2dbe 2ba5 383e b381 763e 4552 8d3d
000001c0: 98df 8dbd bcf6 1c3e 9db4 2b3e a292 33be
000001d0: 1e1a a8bc 3b06 5cbd 7b44 79bd cc70 913d
000001e0: 9e04 01be 9b66 c63c bafb 083e bd6b 0bbe
000001f0: 720e 31bb 2900 9abd 1a6d 5dbe f33a eb3d
00000200: d8c0 f83d 92e2 f93d af84 bcbd d5ff 33bd
00000210: bda9 1c3d d11d 65be 1a07 0a3e 84c8 6bbe
00000220: 9c3c 393e ad14 e43b 67bf 6bbd ccd7 193e
00000230: 7c7e fabc 5b66 7cbe 8b4e 83bd 04b3 17be
00000240: a0ed bdbd 108c 8bbd 8065 04bd 3679 52be
00000250: 6c97 1a3b 87e3 18bd 4c1a 2abd 2a17 98bd
00000260: 5195 803d bc61 093d 8ca4 303e bfcc 3d3d
00000270: 778e 49be c94e 19be f5e0 5cbd f95c 79be
00000280: 2963 4fbd 3e4c edbd
0.15175185 0.06019491 -0.02135564 0.16365169 0.02256495 -0.15766944 -0.09110179 0.07198256
0.079176255 -0.040853128 0.13932762 0.16906334 0.0956133 -0.07105459 0.13547309 0.17079143
0.034096893 -0.04352005 0.15209007 0.029549982 -0.0767893 -0.004572721 0.0028376072 0.024371184
-0.18199757 -0.033990078 0.06364961 0.86291945 -0.23888601 -0.84328675 0.9132624 -0.23182923
-0.74680716 1.1653268 -0.3021059 -0.7747304 1.0207134 -0.10099355 -0.9020587 1.2030138
-0.15308248 -0.63678956 1.1043733 -0.4518979 -0.84492636 1.0865676 -0.27044925 -0.9298594
1.1845562 -0.05910398 -0.8234563 1.2488269 -0.52673995 -0.77064615 -0.29535615 -0.31338075
0.63872546 -0.38439187 -0.111333564 0.54372656 -0.27423677 -0.49572125 0.51750624 -0.52631915
-0.19276044 0.41031063 -0.3513334 -0.46523973 0.54698646 -0.36410713 -0.30316216 0.6034081
-0.4428029 -0.16178754 0.5896828 -0.54979086 -0.1853574 0.39277273 -0.38452232 -0.38225093
0.68184173 0.18887065 -0.09407464 0.18864144 -0.048647527 -0.08444622 -0.023668796 -0.026912177
0.14687102 0.054913606 -0.09363636 -0.16415845 0.003154044 -0.13972917 0.019002495 0.014267851
0.10408347 0.12300629 -0.09307795 -0.01021506 -0.1273338 0.08176139 0.15099175 -0.120344624
0.15243423 0.15092215 -0.031623833 -0.04020741 -0.16962177 0.18031757 0.24072914 0.06900457
-0.06927413 0.15328497 0.16768117 -0.17536405 -0.020520266 -0.05371688 -0.060856324 0.071015924
-0.12599418 0.024218848 0.13377276 -0.13615318 -0.0027016667 -0.07519562 -0.2162365 0.11485853
0.12146157 0.12201418 -0.09204995 -0.043945152 0.038247813 -0.22374655 0.13479272 -0.2302571
0.18089527 0.0069604726 -0.057555582 0.15023726 -0.03057789 -0.2464842 -0.06411465 -0.14814383
-0.09273839 -0.06813824 -0.03232336 -0.20554051 0.002358879 -0.037326362 -0.041528985 -0.07426293
0.0627848 0.033540472 0.1725027 0.04633784 -0.19683252 -0.1497146 -0.053925473 -0.24351873
-0.050631676 -0.11586808

conv1.bias f4 [6]
00000000: c4bf 123e c11c c93e f8fd 013e 8f87 dcbd
00000010: 5fdd 1a3e 3092 07bc
0.14330965 0.3927975 0.12694538 -0.10768043 0.15123509 -0.0082746

conv2.weight f4 [16, 6, 2, 2]
00000000: f524 2c3e ed2c 363e 3f2b 0a3c 7c40 593a
00000010: 03d4 7fbe 8956 babb 1133 2cbe 1480 56be
00000020: 4b72 db3e 493f 823e aeee f03e 0595 9f3d
00000030: a964 ed3c 15ac 2c3e 9bf1 13bc d169 b03d
00000040: e779 0c3e b7cc f5bd cef9 3abd b8b4 0b3e
00000050: 70cd d63c ce10 aa3c 5263 16bd 5344 1d3e
00000060: 053a 65bc e964 433e 0624 afbc 455c ab3c
00000070: f6fb 4abd 90b0 443e 069c efbd cacb 15be
00000080: 70b2 22bd 706b b9bb 4773 0abd 9dcb 1b3e
00000090: cdcd 043e 45a4 b6bc cebc 67bd c845 983d
000000a0: 4011 423e 8a0c 07be 5da5 013c d35e d33d
000000b0: b28b c03c e289 dcbc 2518 08be 2f4d 14be
000000c0: 75f1 483d a58f 3b3e 01f9 523c 4b09 f53c
000000d0: 2e2c e5be bfc7 87be 2290 d4be b55f d6be
000000e0: e659 183e 1fe4 533e c453 973e 19f4 4a3e
000000f0: 504f 3c3d b034 403e 87c4 20be cd2c 143e
00000100: 2cea 5c3e 75db d73d 15a2 003e 8886 c43b
00000110: f8f4 07be dbce 323d 928a 7a3e afa3 34be
00000120: 1293 273e fc76 fe3d ef6e 873d 90d9 33be
00000130: 9ca8 8c3e bce6 d83e b670 813e 8e53 6d3e
00000140: 3690 abbc 2ac7 c6bd 0609 00bd c663 023e
00000150: 3ca8 21bd ff65 cebc c89e 023e 867a 0a3d
00000160: 6af3 cd3d 7fbe 35be abad 4a3e 5a89 0a3c
00000170: fae3 9b3d dba9 e7bd 241f 12be f317 a53d
00000180: 942f c7bd 3435 503e 89e3 e0bd 743e 71bd
00000190: c106 283e 3584 19bf 1def a73e 466d 79be
000001a0: e8f0 bcbd e1a7 dcbd 960b 09be 2fe4 b43d
000001b0: 6550 18be 547f 0d3e d652 273e 178c 01be
000001c0: bebd 6abe 4bea 343e 9940 013e fe9f 22bd
000001d0: a924 ef3d 206f 703e 90d9 5c3e 645e ba3d
000001e0: f234 493d eeda efbd 85f3 2e3d 082a f43d
000001f0: 9155 b23c 90bf 53bd 0020 1a3d 90d6 003e
00000200: 7368 1d3e 4bae 35be 0846 b63d cafc 51bc
00000210: 2777 d3bb e0dc 19be d2f1 2c3e 5eeb c5bd
00000220: 71bf cfbd 622d c7bc 4483 e73d 99d4 303e
00000230: 0be4 0c3d 67a2 ea3b c1a7 b93c e402 16be
00000240: 746d f03c e93b 92bc 84db 40be e1ba f53c
00000250: c99f 2b3d 248a 77bd 948d 4c3d 6c25 3c3e
00000260: e1f9 f43c c4c4 0c3d 3594 2f3e 9fd8 fdbd
00000270: c9e3 46be a570 efbd e7a9 abbd 82af 3b3d
00000280: 8636 e13d 8b25 fc3d 9168 433e e470 4ebe
00000290: 17ee 113c 926c 24be b3eb 4fbe 65f4 61bc
000002a0: fd04 2dbe 48b0 813d 613c 31be c46c d43c
000002b0: 0e96 3d3e 3702 be3c e864 24be 55ef debd
000002c0: effb 393e e5ab 94bd da91 db3d fc18 3e3e
000002d0: afdb 043e a268 793d ef0a 2f3e 15c1 743d
000002e0: 0621 55bc 9f65 9f3d 6185 89b9 bd41 563d
000002f0: d4b2 2cbd e745 66bd 8559 28be 1bca 75bd
00000300: 889c d0bd ef65 92bd 8006 cb3c fc19 05be
00000310: 805e 1f3e f0a1 883d 3ef5 3b3d 9fb7 17bc
00000320: adca 00be ea0f 1cbe 920c 303e 810a 40be
00000330: 7e7c 9a3c fd1e 4e3e 145d d33c 4960 143e
00000340: 8e05 673d 4d90 1ebe 756d dcbd a291 05be
00000350: 4bf0 183e 9c2a e5bd 4e7e ffbd 77bd 14be
00000360: 2da0 c8bd be20 3e3d 54b4 4ebd 745f 263e
00000370: cb24 243f 2237 26bf 498a 7c3f 06d4 16bf
00000380: a216 83be 6caf b93e 2ea7 7ebe f754 a53e
00000390: 1bb6 123e f841 57bc eb7b f6bd 9365 f83c
000003a0: d128 79be 5291 2b3e 54de 25be 48d4 de3d
000003b0: b91c d6bd f20a 633e 7607 143e 74f6 e33d
000003c0: 51bd b1bb 8f97 afbd 123c b03d ed5b 39bd
000003d0: c4c6 b8bf 6614 7f3f f885 d3bf c27d 923f
000003e0: ceb7 493f e0a8 c3be c51a 863f ad01 82bd
000003f0: e8dc 4bbd be39 8dbd 71aa 1a3e 3a0b 05be
0.16810973 0.17790575 0.008433162 0.0008287502 -0.2498322 -0.0056865853 -0.16816355 -0.20947295
0.42860636 0.25438908 0.47057098 0.07792095 0.028978663 0.16862519 -0.009029771 0.08613933
0.13718377 -0.12001937 -0.04564839 0.13643157 0.026221007 0.020759966 -0.036715813 0.15358095
-0.013990884 0.19081463 -0.021379482 0.020918021 -0.049556695 0.19207978 -0.11699681 -0.1462852
-0.039720953 -0.0056585595 -0.033801343 0.15214391 0.12969132 -0.022295127 -0.056576543 0.07435185
0.18951893 -0.13188377 0.007912961 0.10320821 0.023504112 -0.026921216 -0.1329046 -0.14482568
0.049058396 0.18316515 0.01287675 0.029911658 -0.4476027 -0.26519582 -0.41516215 -0.41869894
0.14878044 0.2069249 0.29556096 0.19819678 0.045974076 0.18770099 -0.15699969 0.14470215
0.21573704 0.10539905 0.1256183 0.0059974827 -0.13277042 0.043654304 0.24466923 -0.17640565
0.16364697 0.12425038 0.06612956 -0.17563462 0.2747239 0.42363536 0.25281304 0.23176405
-0.020942789 -0.09705956 -0.031258605 0.12733373 -0.03946708 -0.02519512 0.12755883 0.033808254
0.10056193 -0.1774845 0.19792812 0.008455599 0.076118425 -0.11311694 -0.14269692 0.080612086
-0.09725872 0.20332795 -0.10980899 -0.05889745 0.16408826 -0.59967357 0.32799616 -0.24358091
-0.09225637 -0.10774208 -0.13383326 0.08832585 -0.14874418 0.13818103 0.16340193 -0.12651096
-0.22923943 0.176675 0.12622298 -0.03970336 0.11676914 0.23479891 0.21567369 0.09100035
0.04912276 -0.117116794 0.042712707 0.11922079 0.021769317 -0.05169636 0.037628174 0.12581849
0.15371875 -0.17742269 0.08900076 -0.012816617 -0.006453413 -0.15025663 0.16889122 -0.09664033
-0.101439364 -0.024313632 0.11304334 0.172686 0.034397166 0.007160473 0.022663 -0.1464954
0.029349066 -0.017850833 -0.18833739 0.029996337 0.04190043 -0.060434476 0.049939707 0.1837365
0.029904308 0.034367338 0.1714638 -0.12394833 -0.1942283 -0.11691407 -0.08382016 0.045821674
0.10996728 0.12311848 0.19082858 -0.20160252 0.008906863 -0.16057041 -0.20304756 -0.013791178
-0.16896434 0.06332451 -0.17308189 0.02593077 0.18514273 0.023194415 -0.16054118 -0.10885493
0.18162511 -0.07259349 0.10721178 0.18564218 0.12974428 0.0608908 0.17094015 0.05975445
-0.013008362 0.077830546 -0.0002623005 0.052308787 -0.04216273 -0.056219008 -0.16440399 -0.060007196
-0.10186106 -0.071483485 0.024783373 -0.12998194 0.15563393 0.06671512 0.045888178 -0.009260087
-0.12577315 -0.15240446 0.17192295 -0.18754007 0.01885819 0.20129009 0.025801219 0.14489855
0.05640178 -0.15484734 -0.10763065 -0.13043836 0.14935414 -0.11189768 -0.124752626 -0.145254
-0.09796176 0.046417944 -0.050464943 0.1624735 0.6411864 -0.64927876 0.98648506 -0.5891727
-0.25603205 0.3626665 -0.24868461 0.32291386 0.1432728 -0.013138287 -0.12035354 0.030321872
-0.24331976 0.16754654 -0.16198093 0.10880333 -0.10454697 0.22172144 0.14455971 0.111309916
-0.0054241796 -0.085738294 0.086052075 -0.045253683 -1.4435658 0.996405 -1.6525259 1.1444628
0.7879609 -0.3821478 1.047692 -0.06347976 -0.04977122 -0.06895779 0.1510408 -0.12992564

conv2.bias f4 [16]
00000000: 4cb1 91bd 4d6e aabd 7bc0 5dbc 57f7 693c
00000010: f2b6 523d 0579 15be 9dd2 eabd 5e17 3abe
00000020: ce26 933d 24b2 4b3e aeaf 5d3e 4fcb 8bbd
00000030: 474d 003e 8dcc 80bc b295 c4bd 8660 29be
-0.07113895 -0.083218195 -0.01353466 0.014280162 0.051444 -0.14596947 -0.114659525 -0.18172976
0.07185136 0.19892174 0.21649048 -0.068258874 0.12529479 -0.015722537 -0.095988646 -0.16540727

fc1.weight f4 [120, 320]
00000000: 8627 37bd bc91 55bd 30e2 57bd 01b6 b53c
00000010: e6e1 8e3c a7fd 6f3c 4881 c1bc c551 053d
00000020: 4beb e4bc e133 cd3c 76fb 263d a3f0 eabb
00000030: d1ea e43c 05d9 31bd 9855 b7bc 412f 1a3d
00000040: 21ce 7dbc e925 65bb eb38 94bc 255e 263d
00000050: 960c 563d ca09 2c3c 673d b5bc 1876 1abc
00000060: 31a4 35bd 2783 b4bc c485 e1bb 47bd a5bb
00000070: ae1a 6ebc e934 37bc bcc6 c93b 534f 5e3d
00000080: 08d0 023d 0e1d 5ebc ce9a cdbc dd82 893a
00000090: d0d6 903b aaea 8bbc c3ef e5bc a8ee 983c
000000a0: f6a6 80bc 4ad0 f7bc c7ec d53c 2cd7 113d
000000b0: 3215 ae3c fb39 b6bc 2719 503c 24d5 0abd
000000c0: f491 56bd c518 563d db6d 09bd 9855 cebb
000000d0: 6825 023b c0d1 cd3b 2548 25bc d210 41bd
000000e0: 1bc0 ccbc 8421 f6bc 6454 17bd c371 933c
000000f0: fe97 8a3a a9fd 4bbd 9b1d c4bc b36e f3bc
00000100: 9c48 423d 63fd d93c 467e 3c3a 5bf2 20bd
00000110: 62e2 02bd f90b 123d e1bf 233c 9381 90b9
00000120: 01a0 22bd 2633 c0bc eafc 9ebc e520 2f3d
00000130: c2b2 ff3b 265b e13c a0f6 833c bab2 af3b
00000140: 5d58 613c 34cc 44bd bcfc 45bd 2407 e9bc
00000150: 4851 813c d223 be3c 83ae 15bd 0a78 47bd
00000160: 603d f53c a39c 243d 1a2e 02b8 595d 8fbc
00000170: b434 19bd 9beb 52bd 4b42 d83c 0385 073d
00000180: 49f8 43bd c9bf f1ba 9419 143d f349 06bc
00000190: 1fdd 18bc 3192 2ebd 0011 ec3c a6e3 6ebc
000001a0: 72f8 13bd 2c49 283d 74c5 2bbd ae28 c83b
000001b0: 5def a4bc 9621 1fbd d7ec a7bc 8e42 08bd
000001c0: dc33 14bd e580 cebc 048f 783c 61a9 d43c
000001d0: 8391 e43c 8388 00bc caac de3c aaac 2dbd
000001e0: 1d86 c9ba 4a82 d4bc 921a 313c 694b e5bc
000001f0: 115b 1fbd f9c3 353d 2796 24bd 3de2 b93c
00000200: 62ae 4dbd 314a 633d 9a64 603d 7d78 b33b
00000210: 55e5 13bd 1708 4a3d 698e 61bd d9ba 5f3d
00000220: a4e4 573d fa1a 943c b96a 013d 4f50 493d
00000230: 9f0f a33c 587a 183d e632 613d 80c4 5cbd
00000240: 01cb e9bc b9fd ee3c 5c46 513d c169 18bd
00000250: 13a4 303d 59ca bbbc 4922 47bd f66b 203c
00000260: e05c fc3c c7e3 313d ab9e 39bd 09ab 373d
00000270: d2cf 09bd ce76 05bc 705c a03b c88b 50bd
00000280: 64e6 2ebd f8e7 783c 1ca3 5e3d cc85 a7bc
00000290: db0a 2d3b 4477 33bd abfc 3a3d c013 c0bc
000002a0: 3f57 fb3c 3bbf 0c3d f970 e23c 4edf 3a3c
000002b0: f2d7 723b d49c 733a 0113 4cbd 70c9 b53b
000002c0: 5bff 903c 7ea8 843c 2aaa 193c bba6 9a3c
000002d0: 52f1 703d 10ae 0fbd 507a 8d3c 66f6 19bc
000002e0: 1072 543c a599 0dbd 3531 8b3c 4d7d bb3b
000002f0: c5df 183d e5b8 bdbc 9404 80bc b362 55bd
00000300: 6ec9 1abd 41dc d93b 511e 71bd f978 03bd
00000310: 4ee2 9f3b af29 a53c 8330 d13c 5aaa 4e3c
00000320: ecb0 42bd 5ef6 35bd 4dbf 18bd 6306 493d
00000330: c308 823d 2efd 083d 5cda 6ebb 72fb 503d
00000340: 9678 0e3d 338a 443d 91a6 183c e5e0 803c
00000350: c31c 0b3d 71d8 5abc 7a8e 6dbc 52e3 903d
00000360: 875e 053c b930 583d bf48 303d d3b7 3b3d
00000370: c120 483d 9967 2cbd 28db 56bd faf1 313d
00000380: 1b8e b2bc dd28 523c b9c6 52bd 239d 9fbb
00000390: d949 2cbd 84de ec3c 1cc1 97bc ef02 383d
000003a0: 1f5e dbbc e517 11bc 8727 62bc 7868 0f3d
000003b0: 7afd 0fbd 89c8 193c 9781 28bd 63c9 9d3c
000003c0: b6b5 f7ba 1272 d63b fbc9 8a3c 99d8 143c
000003d0: e32c 553c d6b6 6fbd 0a83 92bc bdb7 f4bc
000003e0: 5122 0ebc ad68 323b 8adf f83b 5274 16bd
000003f0: 0e9e 02bd 5525 5e3c cb9f 68bd 9277 053c
-0.044715427 -0.052140936 -0.052705944 0.022181513 0.017441701 0.014647878 -0.023621216 0.032548685
-0.027944228 0.025049152 0.040767156 -0.0071697994 0.027944 -0.043419857 -0.022379681 0.03764272
-0.0154910395 -0.0034965223 -0.018093547 0.040617127 0.052258097 0.010500381 -0.022124005 -0.00942757
-0.04434604 -0.022035195 -0.006882401 -0.005057964 -0.014532728 -0.011182048 0.006157724 0.05427487
0.031936675 -0.013556732 -0.02509823 0.0010491271 0.004420139 -0.01707967 -0.028068429 0.018668488
-0.015704613 -0.030250687 0.02611388 0.035605595 0.021250341 -0.022244444 0.012701309 -0.033894673
-0.052385285 0.052269716 -0.033552032 -0.0062968247 0.0019858722 0.0062811077 -0.010088001 -0.04713518
-0.024993947 -0.030045278 -0.036945716 0.017998582 0.0010573862 -0.049802456 -0.023939898 -0.029715871
0.047432527 0.026610082 0.0007190447 -0.03929363 -0.031954177 0.03565595 0.009994478 -0.0002756236
-0.039703373 -0.02346189 -0.019407708 0.04275598 0.007803292 0.027509283 0.01610881 0.005361882
0.013753978 -0.048046306 -0.04833673 -0.028445788 0.015785828 0.02321044 -0.03654338 -0.048698463
0.029936492 0.040188443 -3.103735e-05 -0.017500566 -0.037403777 -0.051494222 0.026398798 0.033085834
-0.047844205 -0.0018443997 0.036157206 -0.008196342 -0.009330063 -0.042619888 0.0288167 -0.014580643
-0.036125608 0.041085407 -0.041936353 0.006108365 -0.020133669 -0.03885039 -0.020498676 -0.033266596
-0.03618227 -0.025207946 0.015170816 0.025959672 0.027901417 -0.007845047 0.027182002 -0.042400993
-0.0015375052 -0.025941033 0.0108095575 -0.02799006 -0.038905207 0.044376347 -0.04018226 0.022690887
-0.050215133 0.055490676 0.05478344 0.00547701 -0.03610738 0.04932412 -0.055067454 0.05462155
0.052708283 0.01807927 0.03159592 0.049148854 0.01990491 0.03722605 0.05498018 -0.053898335
-0.028539183 0.029173719 0.05109249 -0.03721023 0.043125223 -0.022923635 -0.04861668 0.009791365
0.030806005 0.043430116 -0.045317333 0.044840846 -0.03364546 -0.008146001 0.004893832 -0.050914556
-0.042700186 0.015192024 0.054354772 -0.020449542 0.0026404175 -0.043814912 0.04565112 -0.023446918
0.03068125 0.03436206 0.02764176 0.011405779 0.0037054983 0.00092930836 -0.04982281 0.005547695
0.017699888 0.016193625 0.009378949 0.018878331 0.05882389 -0.03507811 0.017270237 -0.009397125
0.012966648 -0.034570355 0.016991237 0.005721724 0.03732278 -0.023159454 -0.015627183 -0.05209608
-0.037789755 0.0066485708 -0.058866803 -0.03209779 0.0048792725 0.020161478 0.025535828 0.012613857
-0.047532007 -0.044424407 -0.037291814 0.049078356 0.063493274 0.033444576 -0.003644607 0.051021047
0.03478297 0.04798336 0.009317056 0.015732238 0.033962976 -0.013357268 -0.014499301 0.07074608
0.008140213 0.05278084 0.043038126 0.045829605 0.04885936 -0.042090986 -0.052455097 0.043443657
-0.021796277 0.012827125 -0.051459048 -0.004871027 -0.042062614 0.028914697 -0.018524699 0.044924673
-0.026778279 -0.008855795 -0.013803369 0.03501174 -0.035153843 0.00938619 -0.04113921 0.019261068
-0.0018898759 0.00654436 0.016942015 0.009084844 0.01301119 -0.058523975 -0.01788475 -0.02987277
-0.008675174 0.0027223036 0.0075950073 -0.036732025 -0.031889014 0.013558705 -0.056793015 0.008146184

fc1.bias f4 [120]
00000000: 6da2 0abd 96a8 d33b b60b 8a3a 38be a6bc
00000010: 822e 02bd 6a5d 25bd 3773 5ebd 3b6d cebc
00000020: c992 bf3c 6850 14bd 1e8d 353d e1e7 023d
00000030: 6f3f 903c f26c b9bc 2bdd 793c 64ff dbbb
00000040: bf2f d2bc 68af 0a3b 60e6 d53c b902 a23c
00000050: e737 073d f6fe d9bc 95fa 66bd 175a 8c3d
00000060: b662 8dbc 298a d83c 80a8 25bd 400a 41bc
00000070: 60c6 b93c 67d0 723d 6446 80bc 5bcf 24bb
00000080: e540 9db9 5b5d b03c 36aa 42bd 2490 7d3d
00000090: 73dc 42bd 9f64 d7bc e2cd 533d 062d 48bd
000000a0: 7027 3b3d b5e6 98bc b35f 083b 44a0 bc3d
000000b0: ed9c 323c ea13 adbb 0470 f43c e4e4 fdbb
000000c0: 99f0 b83b 623d 413d 1c25 ec3c 66fb 0ebd
000000d0: e71d 393a f470 c0bc 6381 733d 5d12 5f3d
000000e0: 541b 673d 6674 4f3d e9f7 5dbb f424 473d
000000f0: c89c e03c 117b d93b 346e 833c 5282 3bbd
00000100: e98a 193d 77ee 37bc 5cfc 9b3d c0c4 22bd
00000110: d0bb 9fbb 8f01 aebc 0df4 2d3d 8e9f 7f3d
00000120: d56c b43b 1436 5abb ebf5 ba3c b015 f23c
00000130: e1a2 babc 642c df3c ef00 c0bc 15dd 753c
00000140: 7893 a73b 075f c83b 7519 223d 05bc 39bd
00000150: 8d94 bb3b b6b4 a7bc 4757 a9bb 4050 413d
00000160: d2c4 653c 0ca2 8b3a d9e2 ca3d 7327 583d
00000170: 4a2f 143d 59af ae3d 9a9e f43b f866 893d
00000180: b779 493d 3f48 5d3d c1f1 593c 7918 463d
00000190: a48c a13d 3bba 2d3d 044b 63bc c2f2 23bd
000001a0: 0268 213d b1b1 493d 8be6 443d a036 20bd
000001b0: de26 913c acfd a03d ad69 643d 2482 87bd
000001c0: f182 903d e2f1 bcbb 5525 4f3c 230f d93c
000001d0: 3e27 2bbd 77a7 613d 5775 afbc 10ec de3c
-0.033846308 0.006459306 0.0010532055 -0.020354375 -0.031782635 -0.04037229 -0.054309096 -0.02519857
0.023385422 -0.036209494 0.044324033 0.03195942 0.017608372 -0.022634957 0.015250484 -0.0067137945
-0.025657533 0.002116168 0.026110828 0.019776689 0.033012297 -0.026610833 -0.056391317 0.06853121
-0.017258983 0.026433067 -0.040443897 -0.011782229 0.0226776 0.05928078 -0.015658565 -0.0025148008
-0.00029993724 0.02152889 -0.047525607 0.06190504 -0.047573518 -0.026293097 0.051710017 -0.048871063
0.045691907 -0.018664697 0.0020808994 0.09210256 0.010901672 -0.005281915 0.02983857 -0.007748233
0.005643916 0.04717768 0.028826289 -0.03490772 0.0007061646 -0.02349136 0.059449565 0.054460872
0.056422547 0.050648116 -0.003386969 0.048619226 0.02741851 0.006636985 0.01604376 -0.04577858
0.03748599 -0.011226288 0.07616493 -0.039738417 -0.004874684 -0.021240978 0.042469073 0.062408023
0.005506138 -0.0033296393 0.022822341 0.029551357 -0.022782745 0.027242847 -0.023437945 0.015006323
0.005114015 0.0061148438 0.03957506 -0.045345325 0.0057244957 -0.020471912 -0.005167875 0.047195673
0.014023976 0.0010653152 0.09906549 0.052771997 0.03617791 0.08529539 0.007465196 0.06709093
0.049188342 0.054023977 0.0133022675 0.048363183 0.07888153 0.04241393 -0.013872866 -0.040026434
0.03940583 0.049241725 0.048071425 -0.039114594 0.017718729 0.07860884 0.055764843 -0.06616619
0.07056225 -0.0057661394 0.012643178 0.026496476 -0.04178547 0.055091348 -0.021418257 0.027212173

fc2.weight f4 [50, 120]
00000000: 9521 973c 394f 983b af9a 0c3b 4d98 a23d
00000010: adc2 7ebc b3d5 23bd 1aa8 5a3c 93e8 09bd
00000020: e87a fcbd e92e 3dbe 5c79 583d 7e3f 8e3d
00000030: 6bb5 263e 3bb7 873d d221 013e 3689 94bd
00000040: 3300 a23d b8c7 283d 0e78 9abe 0b4f 90bd
00000050: c14f b33d 3aff debc 1d6d 03be 21f2 91bd
00000060: c209 873c 9e49 563d 659f a13d ff6b d3bd
00000070: bc1b 34bd 7c71 843b 2fcf b23c 9cee 9d3c
00000080: 00d2 f83d e9a7 ecbd bd1c 83bd c791 35bd
00000090: d7a9 37bd 1b8d 323e f2a0 cb3d a84a bd3b
000000a0: 7860 29bd 545b 5b3d 1f7e f43d fb8a 293e
000000b0: 7236 b23d 2a9c 893d 4993 533e 917e c43a
000000c0: 23e3 53be fb3a 123c d853 4b3e 2726 1dbe
000000d0: 3004 b7bd 2f5f 9f3d c898 2fbc 3c58 a03b
000000e0: a498 48bd 6e82 973d 36a8 3a3d a532 dd3d
000000f0: 9b80 24bd 38cc 76bd fcdc abbe 8b99 b2bd
00000100: a051 013e d8a9 87bd 87af b93d 7a43 81bd
00000110: 1675 c53c 41aa 8e3d 40cf 9f3d 1dc6 13be
00000120: a745 14bd 8973 083c 732b 41bd 3381 35bd
00000130: f48f e93d fddf 603d b82b 93bd 067a 373e
00000140: 754c 56be 7692 91bb f6da 82be c865 213d
00000150: 171e 1abd 89e5 00bd a82d 22bc 005d 273d
00000160: 72eb 73bc 3c56 33bd fae1 f13d b8b7 3c3c
00000170: 44fd 12be c459 90bc d246 acbd f66c 1c3d
00000180: 0fca 443a a5f0 d8bd 78de 77bd c9b6 ce3c
00000190: d061 31bd 07b4 ef39 541d 7f3d d90a cd3d
000001a0: bd78 bcbd 9df6 3cbd c644 b23d 0cdc 0c3b
000001b0: a7de 513d b095 163d bea4 f7bc 43e7 f0bd
000001c0: 07f3 e23c dbc3 013d 6f7b 413b 0e50 fcbc
000001d0: 6c8f 913c 26d5 313d 0aeb 503d 135e e53d
000001e0: 9ff2 6abd eeb4 a23b d451 a63c 9de0 983d
000001f0: db5b e53b 14a1 693d f3a0 8ebd efee a4bd
00000200: 480b b23d 9f89 823d b75c 833d 8e11 b23d
00000210: e18d 81bc e376 08bd 3aba 77bd d2d9 debc
00000220: 2d06 433d 7258 3ebd 680b 81bc 42f7 4ebc
00000230: 18be 963d cdeb 63bd db1a 973d 99e1 9bbd
00000240: ff10 88bd de2d adbd 74b7 a03d 28c2 91bd
00000250: 4e6a 84bd 6dc3 8abd b656 99bd 6838 a63d
00000260: 77cf 3c3c d280 74bc 1194 573d 5744 293b
00000270: 56e0 6fbd b777 cabb a49e 44bd aaac c7bc
00000280: 01a9 2c3d 3331 2fbd 83fb 86bd b606 8dbd
00000290: 3c44 73bc 99c6 6d3b f442 a7bd a898 81bd
000002a0: 7c7e 633d fb41 83bc 4b58 a9bd 946b dabc
000002b0: 6cae 6e3d 52e7 a53d 1d51 4ebc fe93 a33c
000002c0: cafd 2d3d b1d0 a7bd aae7 b0bd 12e4 943d
000002d0: 29cc 283d 3e01 85bd 24bd 843c a03a 5d3d
000002e0: 0f27 a63c 6d96 72bc 47d5 e1bc a6ba 98bc
000002f0: 05fe 8dbc 55a3 2cbd 392f 95bd 1ba2 3cbd
00000300: 8488 413d 05a6 a0bd 205d b8bd ed4d 26bb
00000310: 6022 20bd 2b0a 7b3d faf7 2b3d 6f9b 4b3d
00000320: 02a6 42bd 8d8e a13c 6fbf 63bd 8704 013d
00000330: 90d6 92ba 6cf5 e03c b747 64bc 51f6 5f3c
00000340: d9e0 b23c 506e 463d 55b5 983b 3c45 bc3c
00000350: 1245 773c d60a 7d3d 8af7 a03d 5a24 443d
00000360: 1c85 0abc d643 653d f3f0 01bd 9eba 97bd
00000370: b4f9 8dbc 05de 95bd 2ab6 34bd d83a 683d
00000380: 55c3 98bd 12ec e23c b0a2 bc3c 8fc4 f9bc
00000390: 19c6 7f3d a5fc 7dbd 930c 62bc 87eb 673c
000003a0: f1d3 083d 13a8 713c 2d6b 273d 8f85 cbbc
000003b0: 7bc3 6cbc 2e31 d7bc b806 2fbd fbd5 47bd
000003c0: 42dd 30bd 66dd 50bd 0ebb c83b fa64 d83d
000003d0: 989e 823d 8383 5a3c f05a eebb e5cc 833d
000003e0: 3047 7c3e e496 523e a3f5 2cbe 3929 213e
000003f0: f4bb 213d 8b4f 9dbd 16b1 6c3d 1a29 cd3c
0.01844863 0.004648116 0.0021454503 0.07939205 -0.015549344 -0.03999872 0.013345743 -0.033669066
-0.1232813 -0.18474926 0.052850112 0.06945704 0.16280143 0.06626745 0.12610558 -0.072527334
0.07910194 0.04120609 -0.3016972 -0.07046326 0.08755446 -0.02722131 -0.12834592 -0.071262605
0.016484145 0.0523163 0.0789173 -0.10323333 -0.043971762 0.0040418487 0.021827308 0.019278817
0.12149429 -0.11555464 -0.06401966 -0.044328477 -0.044839706 0.1743664 0.09942807 0.005776722
-0.041351765 0.053553894 0.11938118 0.16556923 0.08701791 0.06719239 0.20661654 0.0014991333
-0.20692115 0.008925195 0.19856203 -0.15346585 -0.089363456 0.07781827 -0.010717578 0.004893331
-0.048973694 0.07397924 0.045570575 0.10800675 -0.04016171 -0.060253352 -0.33567035 -0.08720692
0.12628794 -0.06624192 0.09066682 -0.06311698 0.024103682 0.06966067 0.07803202 -0.14431043
-0.03619924 0.008328327 -0.047160577 -0.044312667 0.1140441 0.054901112 -0.07186073 0.17917642
-0.20927604 -0.0044425083 -0.2555768 0.039403707 -0.037626352 -0.0314689 -0.009898581 0.040860176
-0.0148876775 -0.04378341 0.1181068 0.011518411 -0.14354426 -0.017620929 -0.084119454 0.03818985
0.0007506916 -0.10592774 -0.060514897 0.025233643 -0.043306172 0.00045719763 0.06228383 0.10011835
-0.092027165 -0.046133626 0.08704524 0.0021493463 0.05123773 0.036763847 -0.030229922 -0.1176286
0.027703775 0.031680923 0.0029523035 -0.030799892 0.017768584 0.043416165 0.0510054 0.11199584
-0.057360288 0.004965416 0.02030269 0.074647166 0.0069994754 0.05703838 -0.069642924 -0.080533855
0.08693558 0.063739054 0.06414168 0.086947545 -0.015814723 -0.033316504 -0.060480334 -0.027203474
0.04761331 -0.046471067 -0.01575251 -0.012632193 0.07360476 -0.0556448 0.07378169 -0.07611389
-0.06643867 -0.08456014 0.07847491 -0.071171105 -0.064655885 -0.06775556 -0.07487242 0.081162274
0.011524073 -0.014923291 0.05263144 0.0025828087 -0.058563553 -0.006178822 -0.048002854 -0.024374325
0.042153362 -0.04277153 -0.06590941 -0.06886046 -0.014847811 0.0036281704 -0.08167067 -0.06327945
0.055540547 -0.016022673 -0.08268794 -0.026662625 0.05827181 0.081007615 -0.012592581 0.01996803
0.04247836 -0.081941016 -0.086379364 0.072700635 0.041210327 -0.064943776 0.01620347 0.054010987
0.020282296 -0.014806372 -0.027567519 -0.018643688 -0.01733304 -0.042147953 -0.07284398 -0.046053033
0.047249332 -0.07844166 -0.09002137 -0.0025376037 -0.039095283 0.061288994 0.041984536 0.04970878
-0.0475216 0.019721294 -0.055602487 0.03149846 -0.0011202861 0.027460776 -0.013933114 0.013669566
0.021835731 0.048445046 0.0046602883 0.022982232 0.015092151 0.061777912 0.07859714 0.04788623
-0.008454587 0.055972897 -0.031723928 -0.07408641 -0.017330982 -0.073177375 -0.044119038 0.056696743
-0.07459132 0.027700458 0.023026794 -0.030489234 0.06244478 -0.06200852 -0.013796943 0.014155275
0.033405248 0.014749545 0.040873695 -0.02484396 -0.014450903 -0.026268568 -0.042731017 -0.048788052
-0.043179758 -0.050992392 0.0061258143 0.10566135 0.063779056 0.013337019 -0.007274024 0.06435565
0.24636531 0.20565373 -0.16890578 0.15738381 0.039485887 -0.07681187 0.05778607 0.025044013

fc2.bias f4 [50]
00000000: 302b 85bd bb47 7e3a 7fc6 d73d 65c8 9fbd
00000010: 2d18 303e 4bc6 a53b e71f 9cbc e5c7 f93c
00000020: f166 8b3d 0423 e93c 2f23 cc3c d715 7cbd
00000030: 0e8f 92bd 9b6f babd 97a1 6bbd 51a0 90bd
00000040: c1a6 8c3d 0ddd 06bc 3db7 c9bc ee50 13bd
00000050: 54cc 2b3e 79e5 16bb 60c6 88bd 809f bcbc
00000060: 5860 073e 655a 643c a5e0 b2bd b468 243e
00000070: e353 5fbc 4d98 09bd b364 393e 954c aebd
00000080: 165e 583d f77e ea3d 193a aa3d 6e9f 1b3d
00000090: 799b 493b 2cfc bc3d 25a4 063e 2ac3 4ebd
000000a0: 7c0b 4b3e 014c c8bc 4233 8ebc a2e8 b6bd
000000b0: 90fb 423d 0f65 0f3e 58b9 5fbd f9ef c8bd
000000c0: 831f 8f3d bf5b 313e
-0.06502378 0.000970002 0.10535907 -0.07801894 0.17196722 0.0050590388 -0.019058181 0.030490825
0.06806744 0.02845908 0.02491912 -0.061544266 -0.07156192 -0.09103318 -0.05752715 -0.07061828
0.06867743 -0.008231414 -0.024623508 -0.035965852 0.16777164 -0.002302496 -0.06678462 -0.023025274
0.13220346 0.013937567 -0.08734254 0.16055566 -0.01363084 -0.03359251 0.1810482 -0.085107006
0.052824102 0.11449998 0.083118625 0.03799384 0.0030762835 0.092277855 0.13148554 -0.05047909
0.198286 -0.024450304 -0.017358426 -0.0893109 0.04760319 0.14003395 -0.054620117 -0.09811396
0.06988432 0.17320155

fc3.weight f4 [10, 50]
00000000: d687 bb3d 628f 823d 0dca 94be 08c5 69bd
00000010: df93 8a3e 350f 4c3d fe67 90bd 4a15 e23e
00000020: a679 98be cc8d 823e 6eec cebe 40e1 043e
00000030: 02d2 b7bb 534a cb3d ab7e d5be f735 f4bd
00000040: f958 483e 9bad d5bc 7503 3b3d 8ff3 233e
00000050: 6ae9 d63e 21fd 0fbe 636c 11be 7edd c7bd
00000060: 1d88 4cbf 2374 cdbd cba9 ea3c 543a 9e3e
00000070: 3b82 01be 394a 34bd 4c6b 6d3e c021 2a3d
00000080: 012b cfbe 8a7a ac3e 8262 bc3c ede7 d93e
00000090: 58f8 d3bd b38c 73bf 4012 643e 4091 9f3d
000000a0: 4fb4 abbe daba 84be bc70 c0bd 5029 03be
000000b0: 1674 333e db3b c83e 6af1 b6bd 047a 9ebd
000000c0: b783 253c 20ef 0ebf a017 56be a182 fabc
000000d0: 8a82 c03e 837f c53d 34b5 273f 01ef 6ebe
000000e0: 4be0 7a3e 966f 4c3e 448d 843e 4b9f 963e
000000f0: d14f 3d3d 1311 fdbc 3ec9 433e 42ff f2bd
00000100: 7895 85be 6d0e ab3d 82c0 8bbe c91e cc3d
00000110: 57cd 05be b4c9 edbd 7bd0 fd3a 4463 5dbe
00000120: 5ce7 4abd 8177 0c3e 5c6f ba3e df42 deba
00000130: d129 d83d 02df 2abf 09b4 c23d ac3c 333d
00000140: 7926 1c3e c479 0cbe 1769 15be 619d 37be
00000150: 5bb1 40bf d893 413e 9f7c e73d cc5f a33d
00000160: 60d3 cbbe 46fa ce3d c26f f23e 9710 60be
00000170: f9c6 3cbd f505 bfbd 2ead 823d da07 36be
00000180: 2649 823d ce8e 1dbe 5198 3ebe 247e 963e
00000190: 8ceb 3bbe 1716 95bd b1b5 b2bd 569a 81be
000001a0: e533 3e3e 5772 82be 75ce 86bd 3b50 e83e
000001b0: 6d79 903c 6adc 503e 18ae 833e 2905 e63c
000001c0: 62de 58be eaf1 613d fcfc 55bd 80aa 7a3b
000001d0: fbd4 ccbe f498 f3bc da20 87bd 0092 62bb
000001e0: 13ae 853c 69b6 033e 5478 12be 858e 82bd
000001f0: e69f 193e 0347 bfbd e234 ae3d 49bf 543e
00000200: 93be 52bc eb90 c63d e471 a9bc 4ede 153d
00000210: 49cd 91bd b1bd 143f d6bc c8bc a8fd 0bbd
00000220: 047a 073d 2c89 503e 57e5 af3d 28d8 ff3c
00000230: 732c 363e dced b83d 4e0a 6cbc 8977 073e
00000240: b707 853e af77 f23d d626 943d f4d1 243e
00000250: e7c0 78be 81be 4fbe 1afd f63e e648 513d
00000260: b763 82be 997b 2dbe 82ee 703e 569b b43d
00000270: 9a17 003f 9a28 a13e 2db4 30be 3813 4bbe
00000280: 627e 233c 20d2 d03d d98f cc3e 83bc d53d
00000290: 1dae eebc e230 a63d 6862 903d 0ff8 bcbd
000002a0: e7fc 4fbd 1d17 48bd 026f c6bd b447 3d3e
000002b0: cd61 78bb 77ee 163d 46d4 963e af91 acbc
000002c0: 73b3 6c3d 7a5f ed3d ee04 f43d a951 4ebd
000002d0: 790c fabd c825 e0bc f29d 623d 1cf5 b53d
000002e0: c310 be3c 22ee debd ef17 58bc a797 8f3e
000002f0: ea20 ac3d 0899 b33d fb42 e93d 2efa 9fbc
00000300: a350 31bc aeaa 3c3b 7573 c43d 07c5 b8bd
00000310: 59eb 9e3e 4da9 ffbe af44 f0bd b445 543e
00000320: 7509 bb3e d00a 8b3d fd4e 34bd fb4d d93c
00000330: 3970 dfbc 68a8 493e 3af5 2dbe d1e8 7cbe
00000340: c9c8 323e 98fb 09bb 8d43 a13d 2ddd 013d
00000350: 8261 1a3e e03e 5abd c056 0d3e 0257 09be
00000360: 01ac 113f e762 d43d a1ff 1abe 8f13 333d
00000370: dc92 f2bb ec61 0c3c 8ccd 913d 36bd d33e
00000380: 7f4c 103f 295a d0bd 77c4 87bd 1488 e5be
00000390: 595e ccbd 13b3 83bd d6b9 84bc 6c84 9dbd
000003a0: 5651 133e e9aa b5be e2cd 233d 2f99 40be
000003b0: 0001 c63d d556 03be 43a9 b43e 2c71 313d
000003c0: 7cd7 dbbe f4a6 36bd d1e2 d0bd 0004 af3d
000003d0: bbed 48bf 8fa2 84be a981 5bbc d960 59bd
000003e0: f04d 373e 3f29 233e e25d f3bd 3cf3 223d
000003f0: 86b7 893c 1bfc 9cbe 289c 53bd 3833 cfbd
0.09156768 0.06375004 -0.29060403 -0.05707267 0.27065942 0.04981919 -0.07051085 0.44156867
-0.2978031 0.25498807 -0.40414757 0.12976551 -0.0056097517 0.099262856 -0.41698202 -0.119243555
0.1956519 -0.026083758 0.045657594 0.16010879 0.41974956 -0.14061405 -0.14201503 -0.09759043
-0.7989519 -0.10031917 0.028645417 0.30903876 -0.12647335 -0.044016097 0.23185462 0.041536093
-0.40462497 0.3368724 0.022996191 0.42559758 -0.10350102 -0.95136565 0.22272587 0.07791376
-0.33536002 -0.25923806 -0.093965024 -0.12808728 0.17524752 0.39108166 -0.08932765 -0.077381164
0.010102204 -0.55833626 -0.2090745 -0.030579867 0.37599593 0.096434616 0.6551087 -0.2333336
0.24499623 0.19964442 0.25889027 0.29418406 0.046218697 -0.03089193 0.19119737 -0.11865093
-0.26090598 0.08352361 -0.2729531 0.09966809 -0.13066612 -0.116107374 0.00193645 -0.21619898
-0.049537048 0.13717462 0.36413085 -0.0016957185 0.10554851 -0.6674653 0.09506995 0.043759033
0.15249051 -0.13718325 -0.1459087 -0.17931129 -0.7527062 0.18904054 0.113030665 0.07977256
-0.39809704 0.101063296 0.4735089 -0.21881329 -0.046088193 -0.09327308 0.06380688 -0.17776433
0.06361608 -0.15386507 -0.18612792 0.29393113 -0.18351573 -0.07279604 -0.08726061 -0.2531306
0.18574484 -0.2547786 -0.06582347 0.4537371 0.017636025 0.20396581 0.2571876 0.028078632
-0.21178582 0.055162348 -0.052243218 0.0038248599 -0.4000624 -0.02973602 -0.06598063 -0.0034571886
0.016318357 0.12862553 -0.14303714 -0.0637484 0.15002403 -0.09339716 0.0850618 0.20776094
-0.012862819 0.0969561 -0.02068419 0.03658896 -0.07119233 0.58101946 -0.024504106 -0.034177452
0.033075348 0.20364827 0.08588665 0.031231001 0.17790394 0.09029743 -0.014406754 0.13229193
0.25982448 0.11839234 0.0723397 0.16095716 -0.24292336 -0.20287515 0.48239976 0.051094912
-0.254667 -0.1694168 0.23528484 0.088186905 0.50036013 0.3147629 -0.17256232 -0.1983155
0.0099788625 0.10196328 0.39953497 0.104363464 -0.029135758 0.081147924 0.070500195 -0.09227001
-0.050778296 -0.048850168 -0.09689142 0.18484384 -0.003790009 0.03684851 0.29458827 -0.021065561
0.057788324 0.11590476 0.11915003 -0.050370846 -0.1220941 -0.027361766 0.05532641 0.088846415
0.023201352 -0.10885264 -0.0131893 0.2804539 0.08404715 0.08769423 0.11389729 -0.019528475
-0.010822448 0.0028788256 0.09592334 -0.09021955 0.3103893 -0.49933854 -0.1173185 0.20729715
0.36530653 0.06789172 -0.04402064 0.026526442 -0.027275192 0.19693148 -0.16988078 -0.24698187
0.17459406 -0.0021054503 0.078742124 0.03170507 0.15076259 -0.05328262 0.13802624 -0.13412097
0.5690308 0.103704266 -0.15136577 0.043719824 -0.007402761 0.008568268 0.07119283 0.41355294
0.56366724 -0.10173447 -0.066292696 -0.44830382 -0.09978933 -0.0643064 -0.016201895 -0.07691273
0.14386496 -0.35481957 0.039991267 -0.18808435 0.096681595 -0.12826093 0.35285386 0.04332082
-0.4293784 -0.044592813 -0.10199512 0.08545685 -0.7848775 -0.25905272 -0.013397613 -0.053070877
0.17900825 0.15933703 -0.11883141 0.039782748 0.016811144 -0.3066109 -0.051662594 -0.10117191

fc3.bias f4 [10]
00000000: d252 963e 8ed4 7ebd 1ca3 cfbc aec2 7b3c
00000010: c3d7 a3bd c64c 813d 0b83 373d 7a54 a9bd
00000020: 1ccc 783d bf79 e5ba
0.29360062 -0.062214427 -0.025346331 0.0153662395 -0.08000138 0.063134715 0.044802707 -0.08268066
0.06074153 -0.0017507597
