cnn.pth (torch, 986503 bytes, 10 tensors)

conv1.weight f4 [128, 3, 3, 3]
0	0x3dbe9e99	0.09307594
1	0x3e0023ce	0.12513658
2	0xbe9fc39e	-0.31203932
3	0x3e8cc896	0.27496785
4	0xbe0c6f84	-0.13714415
5	0xbd6760c5	-0.05648877
6	0x3e9e1461	0.30874923
7	0x3df861d9	0.12128038
8	0xbe40ad14	-0.18816024
9	0x3e14772f	0.1449859
10	0x3c02a698	0.007974289
11	0xbeab765a	-0.33488733
12	0x3e97f386	0.2967798
13	0xbd61f611	-0.055166308
14	0xbd9718d6	-0.07377784
15	0x3d6ece2f	0.0583021
16	0x3de570c3	0.11203148
17	0xbe2a02d2	-0.16602638
18	0x3de0af2b	0.10970911
19	0x3e87e5f5	0.2654263
20	0xbeb6ca02	-0.35700995
21	0x3de26d6c	0.11056027
22	0xbe001b37	-0.12510382
23	0xbeca9b06	-0.39571398
24	0x3d5c07eb	0.05371849
25	0xbd2bc1e1	-0.041932944
26	0xbe8df727	-0.27727625
27	0x3dfe23ba	0.12409158
28	0x3e286705	0.16445549
29	0x3e1ec17d	0.15503497
30	0x3cb5cc88	0.022192255
31	0xbd3a98dc	-0.045555934
32	0x3e2dcbd3	0.16972284
33	0xbd128efc	-0.03578089
34	0x3e3e4707	0.18581782
35	0x3e4314e3	0.19050936
36	0xbdff022d	-0.12451587
37	0xbe352733	-0.17690735
38	0xbe0ecd1a	-0.13945428
39	0x3e4325e3	0.19057421
40	0x3d94306a	0.07235797
41	0xbd54d654	-0.05196221
42	0x3e2bbafd	0.16770549
43	0xbe416ca0	-0.18889093
44	0xbd059038	-0.03260824
45	0x3dd06986	0.10176377
46	0xbdc2b2c8	-0.09506756
47	0x3dd9eb36	0.10640566
48	0x3d85a7b2	0.06526126
49	0xba8c7580	-0.001071617
50	0xbd831d72	-0.064021006
51	0x3de32032	0.11090125
52	0xbde9ef57	-0.114226036
53	0x3e2cfbdf	0.16892956
54	0x3e01f0d3	0.12689523
55	0xbce1bb90	-0.027555257
56	0xbe4f40b4	-0.20239526
57	0x3d8150e9	0.063142605
58	0xbd6f4d09	-0.058423076
59	0xbd4a25e8	-0.049352556
60	0xbdf2c582	-0.11854078
61	0xbde2d11e	-0.11075042
62	0x3cec76fe	0.028865334
63	0x3e13e1a1	0.1444154
64	0x3e4d2d38	0.20036781
65	0x3d507cb6	0.050900184
66	0x3e3d9603	0.18514256
67	0xbdc3cc9c	-0.095605105
68	0xbdc4c68c	-0.09608182
69	0xbd4c9c5e	-0.04995381
70	0x3dcba83c	0.099441975
71	0x3c5c403f	0.013443052
72	0xbdf812b4	-0.12112942
73	0x3e138754	0.14407092
74	0xbe07741b	-0.13227884
75	0x3e3b2f87	0.18279849
76	0xbcc87cea	-0.024473626
77	0xbd0c59c9	-0.034265313
78	0x3e30175a	0.17196408
79	0xbe0f4c8c	-0.13994044
80	0xbe4cb701	-0.19991685
81	0x3e6c14a6	0.23054752
82	0xbddc5ee9	-0.1076029
83	0xbe908a63	-0.2823058
84	0x3b833c43	0.0040049865
85	0xbdc467e5	-0.09590129
86	0xbe56b003	-0.2096558
87	0x3e2db7d1	0.16964652
88	0x3e5c5043	0.21514992
89	0xbe491752	-0.19637802
90	0x3dc42437	0.0957722
91	0xbd65333d	-0.055957068
92	0xbea9a6b5	-0.33135
93	0x3e3f553f	0.18684863
94	0xbdcf0123	-0.10107639
95	0xbe93870b	-0.28813967
96	0x3db451f0	0.08804691
97	0x3d99252e	0.074777946
98	0xbeae2403	-0.3401185
99	0x3e1430ac	0.14471692
100	0x3da060e4	0.078309804
101	0xbe117705	-0.14205559
102	0x3c30d22a	0.0107922945
103	0x3e7c9696	0.24666819
104	0xbebf6ef6	-0.37389344
105	0x3dd6e799	0.104933925
106	0x3e1634de	0.14668605
107	0xbe6e19d6	-0.23252043
108	0x3e0c0479	0.13673581
109	0x3dabc93e	0.08387993
110	0xbea3aa89	-0.31966045
111	0xbd3448b0	-0.044014633
112	0xbce1f42c	-0.02758225
113	0xbeb210a8	-0.34778333
114	0x3e4445fd	0.19167323
115	0x3cfb037e	0.030641314
116	0xbe98a5ed	-0.2981409
117	0x3c9765cc	0.018481158
118	0xbd77c3bb	-0.060489397
119	0xbe856066	-0.2605011
120	0x3c37fbda	0.01122948
121	0x3e636809	0.22207655
122	0xbe525d7a	-0.20543471
123	0x3d131af1	0.035914365
124	0x3e715ca9	0.23570503
125	0xbe3cca65	-0.18436582
126	0xbda1969b	-0.07890054
127	0xbdc6128a	-0.09671505
128	0xbeacc41e	-0.33743376
129	0x3db9e834	0.09077492
130	0x3e467500	0.1938057
131	0xbd607120	-0.054795384
132	0x3ccf8d13	0.025335824
133	0x3d81fe0b	0.06347283
134	0xbe918c05	-0.2842714
135	0xbd8995a7	-0.06717997
136	0xbe2990c0	-0.16559124
137	0x3e2894d2	0.1646302
138	0x3dafed2c	0.08590159
139	0x3d9a10f4	0.07522765
140	0xbdf04fd4	-0.11733976
141	0x3d5b4386	0.053531192
142	0x3de951af	0.11392533
143	0xbe5850e1	-0.21124603
144	0xbe0937e3	-0.13400225
145	0xb8e7e325	-0.00011057247
146	0xbe52e1ae	-0.20593902
147	0x3d862ee4	0.065519124
148	0x3d60a8a4	0.05484833
149	0x3c239b19	0.009985709
150	0xbbab850d	-0.0052343667
151	0xbdb420d2	-0.087953225
152	0x3e2585e1	0.16164352
153	0x3d5c0203	0.053712856
154	0x3d3884e2	0.045048602
155	0x3dfb3a1f	0.12266945
156	0x3e1c267b	0.15249054
157	0xbe02bb04	-0.12766653
158	0xbccd79fb	-0.025082579
159	0x3c81c0d3	0.015839016
160	0x3e0e09ce	0.13870928
161	0xbe0cd0de	-0.13751552
162	0x3c934ea8	0.017981842
163	0x3c8235b0	0.01589474
164	0x3dea303e	0.11434983
165	0xbe1465f8	-0.14492023
166	0x3d851011	0.06497205
167	0xbe1c42d9	-0.15259875
168	0x3e25c828	0.16189635
169	0x3d2c09fc	0.04200171
170	0xbdc00604	-0.093761474
171	0xbda46042	-0.08026172
172	0x3de24292	0.110478535
173	0x3e360539	0.1777543
174	0xbe3b853b	-0.18312542
175	0x3e44fe87	0.1923772
176	0x3da69a24	0.08134869
177	0xbd7179c0	-0.058954
178	0x3e20babe	0.15696236
179	0x3caee1e2	0.021347944
180	0x3e20002f	0.1562507
181	0xbc8c4c70	-0.017126292
182	0x3de2bb02	0.11070825
183	0x3e2ef308	0.17084897
184	0xb8bdb8a2	-9.046613e-05
185	0x3de74590	0.11292565
186	0xbdcea6f0	-0.100904346
187	0xbdf1fceb	-0.118158184
188	0xbc32351d	-0.010876921
189	0x3e03e1ed	0.12879153
190	0x3e5ec431	0.21754529
191	0xbe05716d	-0.1303155
192	0x3de3b6a4	0.1111882
193	0xbd255ba0	-0.040370584
194	0x3c92747e	0.017877813
195	0xbdc83c29	-0.097771
196	0xbde99862	-0.11406018
197	0x3d9d8b31	0.07692564
198	0xbdfa2781	-0.12214566
199	0xbcb41ed1	-0.02198735
200	0xbe56a98e	-0.20963117
201	0xbdbb023b	-0.09131285
202	0xbdae9b3a	-0.08525701
203	0x3d9a40f4	0.0753192
204	0x3e43f8a2	0.19137815
205	0x3dae192b	0.08500894
206	0xbe1753a9	-0.14778008
207	0x3d80b48b	0.06284436
208	0xbdef3a41	-0.11681033
209	0xbe217aa2	-0.15769437
210	0x3e0c4d16	0.13701281
211	0xbdd8ceed	-0.10586343
212	0xbda508c5	-0.08058313
213	0x3deac468	0.11463243
214	0x3da13cb4	0.07872906
215	0xbe41ba0c	-0.18918628
216	0xbe3dfdaa	-0.18553796
217	0x3e04a5bb	0.12953846
218	0xbc6c4010	-0.014419571
219	0x3dd9391e	0.10606597
220	0x3e3df301	0.1854973
221	0xbe3f1a4f	-0.1866238
222	0x3d84f06e	0.06491171
223	0xbe1abe40	-0.15111637
224	0xbdb2603b	-0.08709761
225	0xbae14400	-0.0017186403
226	0x3dd0cae2	0.10194947
227	0xbcdf5fd0	-0.027267367
228	0x3e1277d9	0.14303531
229	0x3e17568f	0.14779113
230	0xbd618984	-0.055062786
231	0x3cb7d729	0.022441464
232	0xbc82368d	-0.015895152
233	0xbd320a58	-0.043466896
234	0x3dd96fea	0.10617049
235	0x3e0013f5	0.12507613
236	0xbd081000	-0.033218384
237	0x3bf6796f	0.0075218
238	0xbd862e73	-0.06551828
239	0x3e0e4c11	0.13896205
240	0xbde0e23c	-0.10980651
241	0xbdfec1bd	-0.124392964
242	0xbe08ef54	-0.13372546
243	0x3d900336	0.070318624
244	0xbe0bdc2f	-0.13658212
245	0xbe6b8b84	-0.2300244
246	0x3d9e6cea	0.077356175
247	0xbdc165f3	-0.094432734
248	0xbdc0518a	-0.09390552
249	0xbdb2aaf6	-0.087240145
250	0x3da63607	0.08115774
251	0x3c90edd5	0.017691532
252	0x3e050889	0.12991537
253	0x3dd3cc9d	0.10341761
254	0xbe7179eb	-0.23581664
255	0x3dd4e4fa	0.10395236

conv1.bias f4 [128]
0	0xbd65dbfc	-0.056117997
1	0xbe028496	-0.1274589
2	0xbe193308	-0.14960873
3	0xbe5f81f1	-0.21826912
4	0xbe7c8e67	-0.24663697
5	0x3cea965b	0.028636148
6	0x3e18eaab	0.14933269
7	0xbd868eae	-0.06570183
8	0xbe32a461	-0.17445518
9	0xbe3c8d9e	-0.18413398
10	0x3c5adc60	0.013358206
11	0x3d53ea0c	0.051736876
12	0xbc05a700	-0.008157492
13	0xbe449ca1	-0.19200374
14	0xbd7dc0ff	-0.061951634
15	0x3d4565d3	0.04819281
16	0xbe2eb6e4	-0.17061955
17	0xbcde1697	-0.027110381
18	0xbc5a0d2d	-0.013308805
19	0xbe417da7	-0.18895589
20	0x3e154f4e	0.14581034
21	0xbdc03b1c	-0.09386274
22	0x3df68b2e	0.12038265
23	0x3e0c1b16	0.13682207
24	0x3c27a3fd	0.010231969
25	0xbcf548fa	-0.029942024
26	0x3c0aacd2	0.008464055
27	0xbe2dc1a7	-0.16968404
28	0xbdcd124f	-0.10013258
29	0xbe406c25	-0.18791254
30	0xbe2935a0	-0.16524363
31	0x3e8c34a5	0.27383915
32	0xbdcc65ed	-0.09980378
33	0xbd509b7c	-0.05092953
34	0xbda018d3	-0.07817235
35	0xbe1af969	-0.15134205
36	0x3c292c49	0.0103255
37	0x3dad556e	0.0846356
38	0x3e44644f	0.1917889
39	0x3da5f2ea	0.08102973
40	0xbc04d996	-0.008108517
41	0x3db4adee	0.08822237
42	0x3da7a509	0.08185775
43	0xbba94f0c	-0.005166894
44	0xbe15084d	-0.14553948
45	0xbe1c990a	-0.15292755
46	0x3dae15ae	0.08500229
47	0xbc9b4687	-0.018954528
48	0xbe03c45c	-0.12867874
49	0xbe49b037	-0.19696127
50	0x3e0f0c60	0.13969564
51	0xbdd77045	-0.105194606
52	0xbbcb4661	-0.006203458
53	0x3e0ff9d8	0.14060152
54	0xbdf185f6	-0.11793129
55	0xbe0fb324	-0.1403318
56	0xbdc8a77a	-0.097975686
57	0xbc5f0f15	-0.013614436
58	0xbe833223	-0.2562419
59	0x3e50d97a	0.2039546
60	0xbd718e7a	-0.058973767
61	0x3da27862	0.079331174
62	0xbe4ebbee	-0.20188877
63	0xbe091c8b	-0.13389795
64	0x3e2a1b35	0.16611941
65	0x3ce48a73	0.027898049
66	0xbd84614b	-0.0646387
67	0x3d204a82	0.039133556
68	0x3d5f593c	0.05452846
69	0xbe3088d9	-0.17239703
70	0xbd20b22c	-0.039232418
71	0x3deb785c	0.11497566
72	0x3e1f4c9f	0.15556572
73	0x3d1f8cb0	0.03895253
74	0x3ccd711f	0.025078354
75	0x3e208dc9	0.15679087
76	0xbd6a5938	-0.057213992
77	0x3df9bb89	0.121939726
78	0xbbb429b8	-0.0054981373
79	0xbcb3c922	-0.021946494
80	0x3bd1e8c6	0.0064059226
81	0xbb8cfd17	-0.0043026316
82	0x3d43250e	0.04764276
83	0x3d8afc26	0.06786375
84	0xbd1642ef	-0.036684927
85	0x3cc51719	0.024058865
86	0xbe16c4ba	-0.14723483
87	0xbdcc032e	-0.09961544
88	0xbd51b06b	-0.051193636
89	0xbd4c1d79	-0.049832795
90	0x3cf304dd	0.029665405
91	0xbe0ed9d5	-0.13950284
92	0x3d3052f3	0.043047857
93	0x3e3e5ec7	0.18590842
94	0xbde1b23b	-0.11020323
95	0xbc82bcf0	-0.015959233
96	0x3d47f753	0.04881985
97	0x3d795285	0.060869712
98	0xbd76fd73	-0.0603003
99	0xbe6ff016	-0.2343143
100	0x3e02d6a0	0.12777185
101	0x3ba4f444	0.0050340015
102	0x3ca4f520	0.020136416
103	0xbd9d4fad	-0.076812126
104	0xbdfea9b6	-0.124347135
105	0xbdc74c54	-0.09731355
106	0xbdcd0861	-0.10011364
107	0xbe33c631	-0.17556073
108	0xbdbd7512	-0.09250845
109	0xbdfa4bba	-0.12221475
110	0xbe2eb391	-0.17060687
111	0x3c443abd	0.011976895
112	0xbdf7d22f	-0.12100636
113	0xbe751f85	-0.23937805
114	0xbdac9f0f	-0.084287755
115	0xbdd2eca6	-0.10299043
116	0xbe32e985	-0.17471893
117	0x3dc54a9a	0.0963337
118	0xbe1a8876	-0.15091118
119	0x3d37faed	0.044917036
120	0xbe0a79bb	-0.13522999
121	0xbdfbd0c4	-0.12295678
122	0x3dcc7db2	0.09984912
123	0x3d58e5b8	0.052953452
124	0x3d23d378	0.039996594
125	0xbd8b3b77	-0.067984514
126	0xbc680d4f	-0.014163329
127	0x3cd70e26	0.026251864

conv2.weight f4 [56, 128, 3, 3]
0	0xbd161175	-0.036637742
1	0x3cb72765	0.022357652
2	0x3d4eec7c	0.050518498
3	0xbca87bce	-0.020566847
4	0x3cf2b7cf	0.029628662
5	0x3ce144b4	0.02749858
6	0xbd306668	-0.043066412
7	0x3c0badf0	0.008525357
8	0xbc3a05a7	-0.011353887
9	0xbb89669c	-0.00419314
10	0x3beafc7c	0.0071712118
11	0xbcb3ac37	-0.021932704
12	0xbc57bc5a	-0.013167465
13	0xbce36f23	-0.027762955
14	0x3cb387bf	0.021915315
15	0xbc69db90	-0.014273539
16	0xba83da30	-0.0010059532
17	0xbc75c200	-0.0149998665
18	0xbaf2c0ea	-0.0018520628
19	0xbcb84d61	-0.022497835
20	0x3ce889ec	0.028386079
21	0xbcceb79b	-0.025234034
22	0xbb00dcae	-0.0019662785
23	0xbce6a39c	-0.028154187
24	0xb9f4a36d	-0.00046661068
25	0x3c98e18b	0.018662235
26	0x3c84462b	0.01614674
27	0xbda3dc98	-0.08001059
28	0x3cf8a0dc	0.030350141
29	0xbabed819	-0.0014560252
30	0xbd950944	-0.07277158
31	0x3c87a3ea	0.016557653
32	0x3d328573	0.0435843
33	0xbd9a61b4	-0.07538167
34	0x3a51edc4	0.0008008147
35	0x3d4b069d	0.049566854
36	0xbd0099fa	-0.031396843
37	0x3c6f0d4e	0.014590574
38	0x3d1739d3	0.03692038
39	0xbd35ac9a	-0.04435406
40	0x39726132	0.00023115127
41	0x3c86c412	0.016450915
42	0xbd94a444	-0.07257894
43	0x3d0c33b3	0.03422899
44	0x3ceb6f15	0.028739491
45	0xbcd89a3f	-0.026440738
46	0xbc9afb72	-0.018918727
47	0xbcb375a0	-0.021906674
48	0xbbd9e82b	-0.006649991
49	0x3ca9cb0c	0.020726703
50	0x3ce415ad	0.027842367
51	0xbbda1c98	-0.0066562407
52	0x3cd81a23	0.02637965
53	0x3ca23fda	0.019805837
54	0x3bdf69d2	0.0068180347
55	0x3c6af5b8	0.0143408105
56	0xbcc7be46	-0.024382722
57	0xbca6d7bf	-0.020366548
58	0xbcb82b6f	-0.022481648
59	0xbc3d91a4	-0.011570368
60	0xbbefd368	-0.0073189028
61	0x39f21080	0.0004617013
62	0x3b5065f8	0.003179906
63	0xbd4a9896	-0.049461924
64	0x3c855ddf	0.016280113
65	0xbb29da5a	-0.0025917501
66	0xbd05bc82	-0.03265048
67	0x3cd7ca90	0.026341707
68	0xbc347546	-0.011014288
69	0x3b8b270b	0.0042465976
70	0x3ceae1c8	0.028672114
71	0x3bdce853	0.0067415624
72	0x3cfdc174	0.030976035
73	0xbc5d4145	-0.013504331
74	0x3c7cda19	0.015432858
75	0xbcbe063a	-0.023196328
76	0xbc5fcd18	-0.013659738
77	0xbcc8b9dd	-0.024502689
78	0x3b5c7c98	0.00336436
79	0x3b9c4eac	0.0047701206
80	0xbcda7b69	-0.026670175
81	0xbd3a7f8b	-0.04553179
82	0x3cdd19ff	0.026989935
83	0x3af4c143	0.0018673319
84	0xbd258978	-0.040414304
85	0xbc1c05fb	-0.00952291
86	0xba3e1c29	-0.0007252121
87	0xbd0946e5	-0.033514876
88	0xbbdd4dd6	-0.0067536635
89	0x3b5e2b55	0.003390034
90	0x3c994677	0.018710358
91	0xbc0f2eb8	-0.008739166
92	0x3c99fc43	0.018797046
93	0xbc8a6456	-0.016893547
94	0xbbc085e8	-0.005875338
95	0xbc9a5114	-0.01883749
96	0x3ae55640	0.0017497018
97	0x3cd9cd81	0.02658725
98	0xbc4e0702	-0.012574913
99	0x3cae0709	0.021243589
100	0xbceb2c53	-0.028707659
101	0x3c406c5e	0.011744587
102	0xbcc5da8e	-0.024152067
103	0xbc86c57c	-0.01645159
104	0x3bcf24b4	0.006321514
105	0x3b2075f8	0.0024484377
106	0xbcc91e68	-0.024550632
107	0xbccbe289	-0.024888294
108	0xbc25c86e	-0.010118587
109	0x3bb2fe74	0.005462462
110	0xbc615c32	-0.013754891
111	0xbb47f500	-0.0030511022
112	0x3cb4f2d7	0.022088451
113	0xbcc99f52	-0.024612103
114	0xbca658fa	-0.0203061
115	0x3b458f38	0.003014518
116	0x3ae45e50	0.0017423127
117	0x3ca2ada3	0.019858187
118	0x3cd0dbb3	0.025495386
119	0x3c57b1c6	0.013164943
120	0xbba4f008	-0.005033497
121	0x3b5844e8	0.0033000056
122	0xbbc00a7c	-0.005860625
123	0xbbc06268	-0.005871106
124	0xbca9eb18	-0.020741984
125	0x3c3b4696	0.011430403
126	0xbd81ae60	-0.063320875
127	0x3c660b7e	0.014040826
128	0x3c872dc5	0.016501317
129	0xbd6b89fd	-0.057504643
130	0xbc7edb20	-0.015555173
131	0x3b40b8f6	0.002940712
132	0xbcf217ca	-0.02955236
133	0x3c41f909	0.01183916
134	0x3cbf6f41	0.02336848
135	0x3901e205	0.00012386598
136	0x3d8607ad	0.06544433
137	0x3cedf25e	0.029046234
138	0x3b48a2e0	0.003061466
139	0x3c87d19f	0.016579447
140	0xbc9b8387	-0.018983616
141	0x3c21d893	0.0098782955
142	0x39b6700f	0.00034797235
143	0x3a65178f	0.0008739167
144	0x3c91b13a	0.017784704
145	0xbc9e5d7a	-0.019331682
146	0x3c2f9618	0.0107169375
147	0x3c2370b5	0.009975602
148	0x3c805473	0.015665269
149	0x3cc3534e	0.023843434
150	0x3d67ee45	0.056623716
151	0xba9c9512	-0.0011946282
152	0x3c265089	0.010151037
153	0xbc304426	-0.010758435
154	0x3d0b17c9	0.03395823
155	0x3b84d6c2	0.0040539214
156	0x3c2df74e	0.010618044
157	0x3ac02060	0.0014658086
158	0xba313883	-0.0006760435
159	0x3cecf169	0.028923707
160	0x3ccf7dc5	0.025328526
161	0x3cc3cd7f	0.0239017
162	0x3ce31ec3	0.02772463
163	0xbcb6f376	-0.022332888
164	0x3ca43743	0.020045882
165	0xbb3aae87	-0.0028485374
166	0xbcc4ab80	-0.024007559
167	0xbc80d158	-0.015724823
168	0x3cb62904	0.022236355
169	0x3bb054bc	0.005381195
170	0xbc129269	-0.00894604
171	0xbbab1884	-0.0052214283
172	0x3c5c861e	0.01345971
173	0x3cba81d3	0.022766983
174	0xbbae4cd4	-0.005319217
175	0x3c85c51d	0.016329342
176	0xbce7c5b3	-0.028292513
177	0xbc1c9750	-0.00955756
178	0x3c80615f	0.01567143
179	0xbbcaf798	-0.0061940663
180	0xbce43ff8	-0.027862534
181	0x3cc973a5	0.024591276
182	0xbcb6414f	-0.022247938
183	0xbcad7ea3	-0.02117855
184	0xbcacbba1	-0.021085562
185	0x3c645bc2	0.013937892
186	0xbc87a6a2	-0.016558949
187	0xbcc78a36	-0.024357896
188	0x3a359bcb	0.0006927817
189	0xbbd3c40a	-0.0064625787
190	0xbc0a703f	-0.008449613
191	0x3d31e3c5	0.04343011
192	0xbcc8ab84	-0.024495848
193	0x3c7688f4	0.015047301
194	0x3d0d92d4	0.034563854
195	0xbc644b9e	-0.013934044
196	0x3cf632ed	0.03005358
197	0x3cf0c9b8	0.029393062
198	0xbd7dd06a	-0.061966337
199	0x3bac01a8	0.005249221
200	0xbc89dc8d	-0.0168288
201	0xbd8add44	-0.06780484
202	0x3c76234e	0.015023066
203	0xbc649918	-0.013952516
204	0xbd6e83ab	-0.058231037
205	0x3c801251	0.015633734
206	0x3d182351	0.037143055
207	0x3dccb208	0.09994894
208	0xbc17c388	-0.009262927
209	0x3d25fc4c	0.040523812
210	0x3dc1e0a6	0.094666764
211	0xbd63972f	-0.0555641
212	0xbc061b64	-0.008185241
213	0x3d928c0f	0.0715562
214	0xbd88d03d	-0.06680343
215	0xbbe005c3	-0.0068366244
216	0xbd306d23	-0.04307283
217	0xbc4e0d07	-0.012576348
218	0x3c634155	0.013870557
219	0xbc0c4be8	-0.008563019
220	0xbc11b708	-0.008893736
221	0x3cae7902	0.021297935
222	0xbcab616e	-0.020920482
223	0x3ae35c48	0.0017346228
224	0xbc47ba0e	-0.012190355
225	0xbc8f0e8c	-0.017462991
226	0xbcb830b6	-0.022484165
227	0x3ccbec9e	0.024893101
228	0x3bee8b74	0.0072798077
229	0xbc64752c	-0.013943952
230	0x3cd9e62d	0.026599014
231	0xbc894908	-0.016758457
232	0xbcce67e3	-0.025196021
233	0x3cb341e6	0.021882009
234	0x3c85a28f	0.016312866
235	0x3c237612	0.009976881
236	0x3cacba7d	0.021085018
237	0xbc986a96	-0.018605512
238	0x3c9c733b	0.019097915
239	0xbc8361fe	-0.016037937
240	0xbcd62359	-0.026139902
241	0xbb0d0c9d	-0.002152241
242	0x3c46867e	0.012117026
243	0xba0a8120	-0.00052835234
244	0xbce4c544	-0.027926095
245	0xbc8c0ba8	-0.017095402
246	0x3c391fb2	0.011299061
247	0xbc393600	-0.0113043785
248	0x3c1e10ea	0.009647587
249	0xbce60dca	-0.028082747
250	0x3c527db2	0.012847351
251	0x3b283bf8	0.002567051
252	0x3c520024	0.012817416
253	0x3b6a11a2	0.0035716076
254	0x3c94575d	0.018108064
255	0xbbf039da	-0.007331115

conv2.bias f4 [56]
0	0xbcc67fe9	-0.024230914
1	0x3cbd886e	0.023136344
2	0xbc59cf62	-0.013294073
3	0xbcb5e074	-0.022201754
4	0x3c4d24b2	0.012520956
5	0x3ca46a69	0.020070272
6	0xb9217a82	-0.00015399794
7	0xba1152c0	-0.0005543642
8	0x3cdc8033	0.026916599
9	0xbc77a48f	-0.015114917
10	0x3c668692	0.01407017
11	0x3ba76ed9	0.0051096496
12	0xbb1d28e8	-0.002398068
13	0xbbdadda4	-0.0066792537
14	0x3bac9fdc	0.00526808
15	0x3c364693	0.011125225
16	0x3b2d208f	0.0026417112
17	0xbca500cd	-0.020141983
18	0x3d1836fb	0.03716181
19	0x3cad947f	0.021188973
20	0x3c887a03	0.016659742
21	0x3cc810af	0.024422018
22	0x3bb10618	0.0054023378
23	0x37a77830	1.9963918e-05
24	0xbc043336	-0.00806885
25	0x399d1440	0.0002996046
26	0x3bc81754	0.0061062966
27	0xbccec576	-0.025240641
28	0xbc5f8880	-0.013643384
29	0x3ca0267b	0.019549599
30	0x3c13eac2	0.009028139
31	0x3bdabddc	0.006675465
32	0xbca6e306	-0.020371925
33	0xbb0e57d0	-0.002171982
34	0x3c92b1ab	0.017906984
35	0x3bd2b3ee	0.0064301407
36	0xbc7dbffc	-0.015487667
37	0xbc3ae2ac	-0.011406582
38	0xbcd8642f	-0.026414959
39	0x3bd7cd42	0.006585748
40	0x3c95c5ee	0.018282857
41	0xbbfb4c59	-0.0076690135
42	0x3c465f32	0.012107657
43	0xbcbe3797	-0.023219867
44	0x3b1ee3cd	0.0024244667
45	0xbb540c67	-0.0032356025
46	0xbc96a496	-0.018389028
47	0x3c5715b8	0.013127737
48	0x3b293b3d	0.0025822662
49	0x3cb3ee33	0.021964168
50	0x3ce0dcf9	0.027449118
51	0x3bd86164	0.0066034067
52	0xbcb8607d	-0.022506947
53	0xbca9fdb2	-0.020750854
54	0x3c8b28ec	0.016987287
55	0xbcac7078	-0.021049723

fc1.weight f4 [256, 560]
0	0x3c23b6cf	0.009992315
1	0x3caaa9fd	0.02083301
2	0x3d012960	0.0315336
3	0x3c432c93	0.011912483
4	0x3b9013cf	0.0043968926
5	0xbd4737d4	-0.048637226
6	0xbca77ac7	-0.020444287
7	0xbd47548c	-0.048664615
8	0xbcd0725f	-0.025445161
9	0x3d17f79b	0.03710137
10	0x3d2271cf	0.039659318
11	0xbcc0efe0	-0.023551881
12	0x3b885e98	0.004161667
13	0xbc4bd54c	-0.012440991
14	0x3c900322	0.017579619
15	0x3bb465c1	0.005505294
16	0xbcd3ae50	-0.025839955
17	0xbd2593bd	-0.040424097
18	0x3c3d04a8	0.011536755
19	0x3cc36301	0.02385092
20	0xba9986fb	-0.0011713201
21	0x3d1128ee	0.035439424
22	0x3cb4d0c8	0.02207221
23	0xbc77fd6e	-0.015136106
24	0xbc83e72a	-0.016101439
25	0xbc82a38e	-0.01594713
26	0x3ba98b88	0.005174104
27	0x3c909312	0.017648254
28	0xbd19f4bd	-0.037586916
29	0x38a9c200	8.094683e-05
30	0xbcc50101	-0.02404833
31	0x3c524684	0.012834195
32	0xbcfba434	-0.030717947
33	0xbcff6ed4	-0.031180777
34	0xbcb81a99	-0.02247362
35	0xbc864234	-0.01638899
36	0xbc0f9f6c	-0.0087660365
37	0xbcb47ae7	-0.02203126
38	0xbca423cd	-0.020036602
39	0xbd11245f	-0.035435077
40	0x3d24265c	0.040075645
41	0x3bab79f0	0.005233042
42	0xbc903b3f	-0.017606376
43	0x3c9fdcca	0.01951446
44	0x3c93da30	0.018048376
45	0x3c8698c4	0.016430266
46	0xbcad9c5e	-0.021192726
47	0xbcdda54f	-0.027056364
48	0x3d014afc	0.03156565
49	0xbca6da1b	-0.020367673
50	0xbbc62b79	-0.006047663
51	0x3d19a9f7	0.037515607
52	0x3d8bf151	0.06833137
53	0xbd913c6f	-0.07091605
54	0xbe08e333	-0.1336792
55	0xbdf18084	-0.117920905
56	0xbc924309	-0.01785423
57	0xbcbf5d45	-0.023359904
58	0x3c67bd52	0.014144259
59	0x3d2208f8	0.039559335
60	0x3d15deb4	0.03658934
61	0x3c31618d	0.010826481
62	0xbc91bad3	-0.01778928
63	0x3d09ea67	0.03367081
64	0x3ce34bac	0.027746044
65	0xba31b168	-0.000677845
66	0xbd13b8cc	-0.036064908
67	0xbcf2bf74	-0.029632308
68	0xbd08455b	-0.033269268
69	0x3cb8e404	0.022569664
70	0xbca53941	-0.020168902
71	0x3cadf52c	0.021235071
72	0xbcbc767f	-0.023005722
73	0xbcacc052	-0.0210878
74	0xbb895490	-0.004190989
75	0xbc54a9fc	-0.012979981
76	0xbcc81c0d	-0.024427438
77	0x3b90fa88	0.004424397
78	0xbd05e90a	-0.032692946
79	0xbca36480	-0.019945383
80	0xbcc30b75	-0.023809174
81	0x3c7114dc	0.014714446
82	0xbc156dc0	-0.009120405
83	0xbca3b57d	-0.019984001
84	0xba0a6a80	-0.0005280152
85	0xbbb69af8	-0.005572673
86	0x3c8250a2	0.01590759
87	0x3d1aae64	0.037763968
88	0xbc95542d	-0.018228615
89	0x3b0c31d0	0.0021391995
90	0xbcc63be4	-0.02419848
91	0x3b22e4e9	0.002485568
92	0xbb0eda4a	-0.002179759
93	0xbc35881c	-0.011079814
94	0xbd92427b	-0.071415864
95	0xbda27c24	-0.07933834
96	0xbd983737	-0.074324064
97	0x3c4e2370	0.012581691
98	0x3d06fe04	0.032957092
99	0x3c38b9fe	0.011274813
100	0xbc8652b1	-0.016396852
101	0x3c61a4b2	0.013772177
102	0x3d0eb889	0.034843955
103	0xbbe96eb8	-0.0071237944
104	0x3baa1746	0.0051907627
105	0xbd0ab651	-0.033865277
106	0xbd008e07	-0.031385448
107	0x3d0d77e4	0.034538165
108	0x3c7a132f	0.015263363
109	0x3d244b9b	0.040111165
110	0x3d0cc6ff	0.034369465
111	0x3d2dd173	0.042436074
112	0xbcab46d9	-0.020907806
113	0xbcc31ab4	-0.023816444
114	0x3c7e636c	0.015526634
115	0xbcb083e5	-0.021547267
116	0xbbce830e	-0.006302244
117	0x3c017c3b	0.007903154
118	0xbc10f497	-0.008847377
119	0x3d260208	0.04052928
120	0x3d1620a4	0.036652222
121	0x3d229d0a	0.039700545
122	0x3d0f8ad8	0.03504452
123	0x3d1a3384	0.037646785
124	0x3d2671ae	0.040635757
125	0x3cea9764	0.028636642
126	0xbc1b916c	-0.0094951205
127	0xbc430192	-0.01190223
128	0x3a96f4e0	0.001151707
129	0x3c85d4a2	0.016336743
130	0xbc6543c8	-0.013993211
131	0xbc90d173	-0.017677998
132	0x3d0ab48e	0.033863597
133	0x3d04ad52	0.032391854
134	0x3d1aaaaa	0.037760414
135	0x3c246968	0.010034896
136	0x3ccd3f60	0.025054634
137	0xbd06b253	-0.032884907
138	0x3cc70188	0.024292722
139	0x3ae15ce0	0.0017193817
140	0x3c9cee50	0.019156605
141	0x3d22fa94	0.03978975
142	0x3abc78a0	0.0014379211
143	0xbc4ec68c	-0.012620579
144	0x3cafd920	0.021465838
145	0xbad73d60	-0.0016421489
146	0xbcb4e11d	-0.022079999
147	0x3ccee204	0.025254257
148	0x3cd7a18c	0.026322149
149	0x3d174ea4	0.036940232
150	0xbc14a459	-0.009072387
151	0xbc92025f	-0.017823396
152	0x3d718d92	0.058972903
153	0xbd2d7bce	-0.042354397
154	0xbde8a86e	-0.113602504
155	0xbda802af	-0.08203637
156	0xbd5f7e37	-0.054563727
157	0xbd294929	-0.041329537
158	0xbca4461a	-0.020052958
159	0xbb5c1fbb	-0.0033588249
160	0xbc96ab8e	-0.01839235
161	0xbc4decbe	-0.012568651
162	0x3c33d020	0.010974914
163	0xbc86bdcc	-0.016447924
164	0xbcfab019	-0.030601548
165	0x3d0373d6	0.03209289
166	0xbcd884d0	-0.026430517
167	0x3ccf487a	0.025303114
168	0x3cc52784	0.024066694
169	0x3ab108bf	0.0013506635
170	0x3ca13b94	0.01968173
171	0xbbf73778	-0.007544454
172	0x3d216ee4	0.039412394
173	0xbcac1621	-0.021006646
174	0xbbf5e4c0	-0.0075040758
175	0x3c7758e8	0.0150968805
176	0xbcab19dc	-0.020886354
177	0xbba34730	-0.0049828514
178	0xbce6f948	-0.028195038
179	0x3d130fb8	0.035903662
180	0xbb255da3	-0.0025232814
181	0xbc5a65b3	-0.013329911
182	0x3d28b314	0.041186407
183	0x3ca0d4ed	0.01963278
184	0xbcf6e987	-0.030140651
185	0xbbf8084e	-0.0075693494
186	0x3d026143	0.031831037
187	0xbcb86a4a	-0.02251162
188	0x3c08d632	0.008351849
189	0x3d035564	0.032063857
190	0xbcf52ea3	-0.029929465
191	0x3cae623c	0.021287076
192	0x3bbf9980	0.005847156
193	0xbc10dcb0	-0.0088416785
194	0xbd1142b6	-0.03546401
195	0x3d119bf8	0.035549134
196	0x3c9986d2	0.018741045
197	0x3b3fc2a0	0.0029260293
198	0x3c9bed2a	0.019033987
199	0x3d294e1e	0.041334264
200	0xbd1e43e0	-0.03863895
201	0xbc776a29	-0.015100994
202	0xbc531f70	-0.012885913
203	0x3d1b7e58	0.037962288
204	0x3bbe02e2	0.0057986835
205	0x3cd59dab	0.026076159
206	0x3d2d0596	0.042241655
207	0x3c72e7ee	0.014825804
208	0xbc106f0a	-0.008815536
209	0xbcedf018	-0.02904515
210	0xbae99d40	-0.0017823353
211	0xbcc1103a	-0.023567308
212	0x3c5206e0	0.012819022
213	0xbc094d08	-0.008380182
214	0x3d03e2c6	0.03219869
215	0xbaf035c0	-0.0018326566
216	0xbba86078	-0.005138453
217	0x3bc26378	0.0059322678
218	0x3cd62550	0.026140839
219	0x3d2878ac	0.041130707
220	0xbc40f13d	-0.011776266
221	0xbd168dc6	-0.0367563
222	0x3d242cc8	0.04008177
223	0xbc91e78a	-0.017810602
224	0x3d284084	0.041077152
225	0x3c806f25	0.015677998
226	0x3c9fbd90	0.01949957
227	0xbc98f62a	-0.018672068
228	0x3cdac251	0.026703985
229	0x3cb8006d	0.02246114
230	0xbcdb0d2f	-0.026739685
231	0x3cfbdc35	0.030744651
232	0xbcefa4db	-0.029253414
233	0x3ccd6b87	0.025075687
234	0x3d0e4211	0.034730975
235	0x3bb6af1b	0.0055750734
236	0x3cd973db	0.026544502
237	0x3c841db3	0.016127443
238	0x3cfd4b47	0.030919684
239	0x3d277b31	0.04088897
240	0xbccc1bf9	-0.024915682
241	0xbbb59a7f	-0.005542099
242	0x3d2993ca	0.04140071
243	0xbcf8723c	-0.030327909
244	0xbd1c81b0	-0.038209617
245	0x3d0ae89c	0.03391324
246	0x3cb36ac0	0.021901488
247	0x3cdd9668	0.027049258
248	0x3908c991	0.0001304506
249	0xbb58aa46	-0.0033060475
250	0x3befe918	0.007321488
251	0xbd1add06	-0.03780844
252	0xbd1d6e32	-0.03843517
253	0x3c90e2ca	0.017686266
254	0x3d051264	0.03248824
255	0xbd1cba9c	-0.038263902

fc1.bias f4 [256]
0	0xbcee6685	-0.02910162
1	0xbd33681e	-0.043800466
2	0xbd0af454	-0.033924416
3	0x3cfac90c	0.030613445
4	0xbca5c6d8	-0.020236418
5	0x3d51a6b6	0.05118438
6	0x3d0f74fc	0.035023674
7	0xbc99bff6	-0.018768292
8	0xbca69774	-0.02033589
9	0xbd13f9ae	-0.036126785
10	0x3bf0f760	0.007353708
11	0x3b77c4f7	0.003780661
12	0x3d5f2491	0.05447823
13	0xbc801afa	-0.015637863
14	0xbceb2923	-0.028706139
15	0x3d352987	0.044229057
16	0xbc96d78a	-0.018413324
17	0xbc0105dc	-0.007874932
18	0xba759007	-0.000936747
19	0xbd01cac6	-0.03168752
20	0x3cbaec8d	0.022817874
21	0x3ca26a3f	0.019826053
22	0xbc55f9ed	-0.013060075
23	0xbcfa5384	-0.030557401
24	0x3c9dd351	0.019265803
25	0x3d30a52b	0.043126266
26	0xbb9d5e6d	-0.004802516
27	0x3c133e5f	0.008987038
28	0x3ce929c4	0.028462298
29	0xbb181dd9	-0.002321115
30	0x3c69d516	0.014271995
31	0x3ce62698	0.028094575
32	0x3d247555	0.04015096
33	0x3d1ab692	0.03777177
34	0xbcba5475	-0.02274535
35	0x3ccd642d	0.025072182
36	0xbcd757d4	-0.026286997
37	0xbc026da1	-0.007960708
38	0x3d0f1e3a	0.034940936
39	0x3c6b8ffd	0.014377591
40	0xbcad7af9	-0.021176802
41	0x3c9c136e	0.019052234
42	0x3c3893c6	0.011265701
43	0xbc231c4f	-0.00995548
44	0x3d147990	0.036248744
45	0x3d0a1a1c	0.033716306
46	0x3cbdf914	0.023190059
47	0xbb1bc529	-0.002376864
48	0x3d03735e	0.032092445
49	0xbc947049	-0.018119948
50	0xbc7da1b1	-0.015480445
51	0x3d010e69	0.031507883
52	0xbc8bbfa3	-0.017059153
53	0x3d13103c	0.035904154
54	0xbb49b090	-0.0030775405
55	0x3cfa8adc	0.030583791
56	0xbd0873d7	-0.0333136
57	0x3c826a11	0.015919717
58	0xbccb115f	-0.024788557
59	0xbcfa887a	-0.030582655
60	0x3d07b8c1	0.03313518
61	0x3d131bec	0.0359153
62	0xbcb0926a	-0.02155419
63	0xbb63babc	-0.0034748754
64	0x3d077006	0.03306582
65	0x3d8edc4b	0.06975611
66	0x3d15fd3f	0.036618467
67	0x3c024feb	0.007953624
68	0xbc1faad0	-0.009745315
69	0xbc8c6706	-0.01713897
70	0x3c82666a	0.015917975
71	0x3cc1920c	0.02362921
72	0xbcd74306	-0.026277076
73	0xbbae83fb	-0.005325792
74	0x3c922b1d	0.017842824
75	0xbd07b0ed	-0.033127714
76	0xbc404efb	-0.01173758
77	0x3d0d9d1e	0.034573667
78	0x3b058bb3	0.0020377457
79	0xbd25e083	-0.040497314
80	0x3c2d3e30	0.010573909
81	0x3ce0c00c	0.027435325
82	0xbbbdf865	-0.005797433
83	0xbcb7916e	-0.022408213
84	0xbcbe8e6e	-0.023261275
85	0xbcec020d	-0.028809572
86	0xbd023680	-0.031790257
87	0x3bc29698	0.0059383623
88	0xbca85e40	-0.020552754
89	0xbb3c0871	-0.0028691555
90	0x3b83a71d	0.004017724
91	0xbc4b337f	-0.012402414
92	0x3a36c88c	0.0006972633
93	0x3cdc1a9f	0.026868163
94	0x3cc3eb9a	0.023916055
95	0x3d709d39	0.05874369
96	0xbc95f50c	-0.018305324
97	0xbd0e0c2c	-0.034679577
98	0x3ba01225	0.0048849755
99	0x3c86cff4	0.016456582
100	0x3c85e13e	0.016342755
101	0x3d0afb74	0.03393121
102	0x3d32efe2	0.0436858
103	0x3c5ba60e	0.01340629
104	0x3c4571d3	0.012051064
105	0x3d200109	0.039063487
106	0xbc1b39fb	-0.009474273
107	0x3cd49b17	0.025952859
108	0xbc2049db	-0.0097832335
109	0xbba486ab	-0.0050209365
110	0xbb0a1dd1	-0.00210749
111	0x3c9f3f7b	0.01943945
112	0xbb5eb7a1	-0.0033983963
113	0x3d98255c	0.07429001
114	0xbb131c4e	-0.002244729
115	0xbb67c8ff	-0.0035367606
116	0x3c45e331	0.012078092
117	0x3cfe1a3b	0.031018367
118	0xbc7245c1	-0.014787138
119	0x3d274cc0	0.04084468
120	0xbcec510a	-0.028847236
121	0xbcd93d4e	-0.02651849
122	0xbc6260e0	-0.013817042
123	0xbc31178d	-0.010808838
124	0xbd1f9b26	-0.03896632
125	0x3c0da8c1	0.008646191
126	0xbd239018	-0.03993234
127	0x3c92ebc0	0.01793468
128	0x3d184237	0.037172522
129	0xbc29a66e	-0.010354621
130	0x3bb9c298	0.0056689493
131	0x3b9915fe	0.004671811
132	0x3c974ac1	0.018468263
133	0x3b71e48b	0.0036909904
134	0xbbce86ee	-0.006302706
135	0x3c207900	0.009794474
136	0xbc0c0498	-0.008546017
137	0x3cb8f295	0.02257661
138	0xbc8a9541	-0.016916873
139	0x3c507df6	0.012725344
140	0xbc0a7414	-0.008450527
141	0xbc229640	-0.009923518
142	0xbc344d99	-0.011004829
143	0xbcab9e06	-0.020949375
144	0xbc9fc615	-0.019503633
145	0xb9f7cdd3	-0.00047264862
146	0x3cb1c5fa	0.021700848
147	0x3d11adbb	0.035566073
148	0xbc4f7032	-0.012661027
149	0x3b0367cb	0.002005088
150	0x3c4f62a5	0.012657796
151	0x3d067392	0.03282506
152	0xbcd571bd	-0.026055211
153	0x3c8a4b4f	0.016881613
154	0x3cca614b	0.024704596
155	0xbbec733a	-0.0072158845
156	0x3d279a07	0.040918376
157	0x3be42b3e	0.0069631627
158	0x3c93bfd8	0.018035814
159	0x3d3d0e32	0.046156116
160	0xbcf8418f	-0.030304698
161	0x3c43c91e	0.011949806
162	0x3ce34a2b	0.027745327
163	0x3ba79238	0.005113866
164	0xbb912a6a	-0.004430105
165	0xbccbfb9a	-0.024900246
166	0xbbb1b39f	-0.005423024
167	0x3d2c5ddb	0.042081695
168	0x3c331291	0.01092972
169	0xbc7c9533	-0.015416431
170	0x3c487e99	0.0122372145
171	0xbc2d7442	-0.0105868
172	0xbd1989ba	-0.037484862
173	0x3bb180cd	0.0054169656
174	0xbcd20149	-0.025635378
175	0xba2ee32a	-0.00066714233
176	0x3d33ad52	0.043866463
177	0xbd237fd5	-0.039916832
178	0xbb0000fe	-0.0019531841
179	0x3d42c3a2	0.04754985
180	0x3c41f038	0.011837058
181	0x3d174438	0.036930293
182	0xbcd6ede3	-0.02623648
183	0x3c060a83	0.008181217
184	0xbce454c8	-0.027872458
185	0xbb3056f4	-0.0026907297
186	0x3ba4df08	0.00503147
187	0x3ca029b7	0.019551141
188	0xbc935d58	-0.017988846
189	0x3c549a04	0.012976173
190	0xbba81d81	-0.0051304703
191	0x3c844c92	0.016149793
192	0x3d10a4a1	0.035313252
193	0xbcfe4868	-0.031040385
194	0x3d705350	0.058673203
195	0xbd089abf	-0.033350702
196	0xbd12d3b1	-0.035846416
197	0xbcab3f3e	-0.02090418
198	0xbd189863	-0.037254702
199	0x3d16d443	0.036823522
200	0xbcfbf0f3	-0.030754542
201	0xbc7f12da	-0.015568459
202	0x3cbec852	0.02328888
203	0x3d05ddb1	0.032682125
204	0x3c10391a	0.008802677
205	0x3c961916	0.018322509
206	0xbd1d046e	-0.038334303
207	0x3cbab8bc	0.022793166
208	0x3cabae77	0.020957215
209	0x3bdae718	0.0066803806
210	0x3d2d9b73	0.042384576
211	0x3d470c4e	0.04859572
212	0xbccb0538	-0.024782762
213	0x3d0f4288	0.03497556
214	0xbccc3994	-0.0249298
215	0xbceac462	-0.028658096
216	0x3cb26d52	0.021780644
217	0xbcc87070	-0.024467677
218	0xbd159c97	-0.03652629
219	0x3d444268	0.047914892
220	0x3d11d41e	0.03560268
221	0x3d1103ab	0.03540389
222	0xbd18beb9	-0.037291262
223	0x3d500050	0.050781548
224	0xbae237bb	-0.0017259041
225	0x3d1080f0	0.035279214
226	0x3d52f2b6	0.051501
227	0xbd0d4c6b	-0.034496706
228	0x3d5b36e3	0.05351914
229	0x3d10306b	0.035202425
230	0x3cd724e4	0.026262708
231	0x3cf8acd0	0.03035584
232	0x3d0e7e02	0.03478814
233	0xbcf7a821	-0.030231537
234	0xbc1bc2c8	-0.009506889
235	0xbc96cebb	-0.018409124
236	0x3c9ac244	0.018891461
237	0xbcc28996	-0.023747247
238	0xbd0bb4aa	-0.03410784
239	0x3cb4a78a	0.022052545
240	0xbd2b9a99	-0.041895483
241	0x3b2a8957	0.0026021802
242	0x3d2cb411	0.042163912
243	0x3adef54b	0.0017010359
244	0x3a1a2a2d	0.00058809185
245	0xbce61681	-0.028086903
246	0x3ca542fc	0.020173542
247	0x3d0d6569	0.03452054
248	0xbd31cd97	-0.043408956
249	0x3d5a34bd	0.05327295
250	0xbd0cdc09	-0.03438953
251	0x3afdf47d	0.0019375231
252	0xbc8735ff	-0.01650524
253	0xbce5d9a2	-0.028057877
254	0xbbbe856b	-0.0058142445
255	0xbcff5e1c	-0.031172805

fc2.weight f4 [128, 256]
0	0xbd4733ab	-0.04863326
1	0x3c2eecaf	0.010676547
2	0xbd50f361	-0.051013354
3	0xbd810d9a	-0.063014224
4	0xbb165180	-0.0022936761
5	0x3d2e8556	0.042607628
6	0x3d7ea195	0.062165815
7	0xbd7bc26a	-0.061464705
8	0xbc1b1bb0	-0.00946705
9	0xbcab0f8a	-0.020881433
10	0x39d20b00	0.00040062517
11	0x3c33f88b	0.01098455
12	0x3cf61f40	0.030044198
13	0xbd6a55e0	-0.057210803
14	0x3d323de4	0.043516055
15	0x3d5a21f5	0.05325504
16	0x3d0072db	0.031359535
17	0xbd34cee2	-0.04414261
18	0xbc78a5fb	-0.015176292
19	0xbc516c11	-0.012782113
20	0xbd6800d3	-0.05664141
21	0x3d78fdd4	0.060788944
22	0x3d362c95	0.04447611
23	0x3d04f436	0.03245946
24	0xbd2b5d78	-0.041837186
25	0xbcb28200	-0.021790504
26	0x3ca14217	0.019684834
27	0x3d28fb15	0.041255075
28	0xbad5149c	-0.0016256752
29	0xbd314fc3	-0.043288957
30	0x3d220aa7	0.03956094
31	0xbd4d2f34	-0.050093845
32	0x3d1e5103	0.038651478
33	0xbbdec574	-0.0067984406
34	0xbc620528	-0.013795175
35	0xbd30dec9	-0.043181214
36	0xbcf0cbd1	-0.029394062
37	0xbd65441d	-0.05597316
38	0x3d30f72c	0.04320447
39	0x3cd4fe6d	0.026000226
40	0x3d493e19	0.049131487
41	0x3bd1426b	0.0063860915
42	0xbd263448	-0.040577203
43	0x3cce34e9	0.025171714
44	0xbcc4a1e8	-0.024002984
45	0xbcedabec	-0.029012643
46	0x3d0d3d6d	0.03448241
47	0xbb72ba4e	-0.0037037316
48	0x3c8866bc	0.01665055
49	0xbc17974d	-0.0092523815
50	0xbc11f160	-0.008907646
51	0xbd48473e	-0.048896067
52	0x3bd5ad39	0.006520894
53	0x3cfc68b9	0.030811654
54	0x3d604124	0.054749623
55	0x3d289cf4	0.041165307
56	0x3d37f190	0.044908106
57	0x3a01dab6	0.000495355
58	0xbd1502d0	-0.036379635
59	0x3d332cf4	0.043744043
60	0xbd25b24f	-0.04045325
61	0x3cda6b18	0.026662394
62	0x3b8a10ad	0.0042134137
63	0x3c853380	0.016259909
64	0x3c208b8c	0.009798896
65	0x3d56cd8f	0.05244213
66	0x3c96318e	0.018334176
67	0xbbb50c99	-0.0055251834
68	0xbc7cf990	-0.01544036
69	0x3ce908a0	0.028446496
70	0xbcb24571	-0.021761628
71	0xbc07d3b0	-0.008290216
72	0xbd3816d5	-0.04494365
73	0xbd3759ac	-0.044763252
74	0x3d382904	0.04496099
75	0x3c7552c0	0.014973342
76	0x3b4dacbd	0.0031383478
77	0x3b64a6a7	0.0034889372
78	0x3c81ac48	0.01582922
79	0xbd3c46be	-0.045965903
80	0xbd494e0a	-0.04914669
81	0xbc3bde58	-0.011466585
82	0x3d0ed610	0.034872115
83	0xbd767a96	-0.0601755
84	0xbd11c904	-0.035592094
85	0xbd4c0fb8	-0.049819678
86	0xbd277706	-0.040884994
87	0xbb1a7623	-0.002356895
88	0xbc1e0c80	-0.009646535
89	0x3c49f733	0.012327003
90	0x3d684605	0.0567074
91	0x3d17e54d	0.037083913
92	0xbcd04708	-0.025424495
93	0xbbc09dcd	-0.0058781863
94	0x3cee796b	0.029110631
95	0xbd03c89d	-0.03217374
96	0x3cfa4229	0.030549126
97	0x3d4f3164	0.050584212
98	0x3d1e077e	0.038581364
99	0x3bd3b4c5	0.0064607584
100	0x3d4d4b0f	0.05012041
101	0x3c0fc4ae	0.008774919
102	0x3ccffeaa	0.025389988
103	0xbb9d05fb	-0.0047919727
104	0x3d5d1e1a	0.053983785
105	0xbc86f3a1	-0.016473593
106	0xbd4d5f88	-0.050139934
107	0xbc6ffdac	-0.014647882
108	0x3c7dcf08	0.015491255
109	0x3cd13c19	0.025541352
110	0x3d204d60	0.03913629
111	0x3d19cc32	0.03754825
112	0xbc9c8250	-0.019105107
113	0xbc5ac0ab	-0.0133516
114	0x3cc238df	0.023708759
115	0xbd70db78	-0.05880305
116	0xbd6257cb	-0.055259507
117	0xbd2998a9	-0.041405354
118	0xbc7dc598	-0.015489005
119	0x3d54dc38	0.05196783
120	0xbd2959f7	-0.041345563
121	0xbd70e4a0	-0.058811784
122	0xbd205186	-0.039140247
123	0xbd0b3030	-0.033981502
124	0x3c4b8711	0.012422339
125	0xbd60a82e	-0.05484789
126	0x3d58d156	0.052934013
127	0x3cba26d3	0.022723591
128	0x3caa7049	0.020805495
129	0x3d21a380	0.039462566
130	0xbc1b3708	-0.00947357
131	0x3d6d161f	0.057882424
132	0xbd53df0c	-0.051726386
133	0xbd1faf3c	-0.038985476
134	0x3cf8cb14	0.030370273
135	0xbca64ffe	-0.020301815
136	0xbd6bab70	-0.057536542
137	0xbd5cd9d6	-0.053918682
138	0x3d2d5972	0.04232163
139	0xbce91a06	-0.028454792
140	0xbd6578bc	-0.056023344
141	0xbd6d143e	-0.057880633
142	0xbcf79f1e	-0.03022724
143	0xbc0d1ac0	-0.008612335
144	0x3d7346ee	0.059393816
145	0x3d6e11ba	0.058122374
146	0x3b125029	0.0022325611
147	0x3d2969eb	0.041360777
148	0x3c42d58f	0.011891737
149	0x3c023f59	0.007949674
150	0xbd0a464c	-0.033758447
151	0xbd527d90	-0.051389277
152	0xbd2ee448	-0.042698175
153	0xbce1f421	-0.02758223
154	0x3b9be8d0	0.004757978
155	0x3c1755d7	0.009236774
156	0x3cd48115	0.025940457
157	0x3d07d4d9	0.03316197
158	0xbceab6d8	-0.02865164
159	0xbd74c582	-0.05975867
160	0xbb217eb0	-0.0024642162
161	0xbcfc73b1	-0.030816885
162	0xb812b743	-3.497979e-05
163	0x3c6edb81	0.014578701
164	0xbd5c08c7	-0.05371931
165	0xbc92a52e	-0.01790103
166	0xbd7a9c00	-0.06118393
167	0xbd36e93f	-0.044656035
168	0x3d5bd192	0.05366666
169	0x3d2338dd	0.03984915
170	0x3d42d0ac	0.047562286
171	0x3d55fc1d	0.052242387
172	0xbd2dc55c	-0.042424545
173	0x3c087b6a	0.008330205
174	0xbc9ee5e8	-0.019396737
175	0xbd288500	-0.041142464
176	0x3c896cec	0.01677557
177	0xbd5f1b5e	-0.05446946
178	0xbcac834d	-0.021058703
179	0x3d633c42	0.05547739
180	0xbc996e88	-0.018729463
181	0xbd6bb83c	-0.057548746
182	0x3cb70c78	0.022344813
183	0xbd602093	-0.054718565
184	0x3d1c217c	0.03811787
185	0xbca5820f	-0.020203618
186	0x3d31e638	0.043432444
187	0xbca8d991	-0.020611556
188	0x3d41da94	0.047327593
189	0x3d5e2b49	0.0542405
190	0xbcf032a3	-0.02932102
191	0xbb8ce8e8	-0.0043002255
192	0x3cb070a5	0.021538088
193	0xbc9aa64e	-0.018878128
194	0x3cbe601e	0.023239192
195	0x3c85e279	0.016343342
196	0x3cf12ac1	0.029439332
197	0x3d58365a	0.05278621
198	0xbd466fa2	-0.048446305
199	0x3b7e9297	0.0038844699
200	0xbd4bf3ac	-0.04979293
201	0x3aeb3a06	0.001794637
202	0x3d39f42c	0.045398876
203	0x3cafdaa7	0.021466566
204	0x3d65231a	0.05594168
205	0xbcdc841a	-0.02691846
206	0x3cb7925c	0.022408657
207	0xbd59c7d6	-0.053169094
208	0xbcff2934	-0.031147577
209	0x39e4f600	0.00043670833
210	0x3cae247b	0.02125763
211	0x3cef0728	0.029178217
212	0x3d52e123	0.05148424
213	0xbbafbd50	-0.005363144
214	0x3ca172d6	0.019708078
215	0x3d336bec	0.043804094
216	0x3cf9b244	0.030480511
217	0xbabef956	-0.0014570158
218	0xbd0f1aa0	-0.0349375
219	0xbbe7c4b7	-0.007073011
220	0x3d36e5d6	0.044652782
221	0xbcd70661	-0.026248159
222	0x3c6cd31b	0.014454628
223	0xbd50bff0	-0.050964296
224	0xbc2a6984	-0.010401133
225	0x3bfec956	0.007775466
226	0x3d39f927	0.045403626
227	0xbd312c78	-0.0432553
228	0x3c7c08ee	0.015382988
229	0xbd693d42	-0.056943186
230	0x3d5f079c	0.054450616
231	0xbc721a08	-0.014776714
232	0xbca726a8	-0.020404175
233	0xbc36bb75	-0.011153092
234	0xbca508a8	-0.02014573
235	0xbb9b8c1f	-0.0047469283
236	0x3b422a10	0.0029627122
237	0x3b198500	0.0023425221
238	0x3d148242	0.036257036
239	0xbd1a0d77	-0.037610497
240	0xbd6d2348	-0.057894975
241	0xbd578fb4	-0.05262728
242	0x3d6e0cc4	0.058117643
243	0x3a7ded56	0.000968655
244	0xbb07e04f	-0.0020733064
245	0xbccbd54b	-0.02488198
246	0xbd3aa386	-0.045566104
247	0x3c224680	0.009904504
248	0x3cae0d2f	0.02124652
249	0xbd087f55	-0.03332456
250	0x3d046280	0.0323205
251	0x3d61f5f4	0.0551662
252	0x3d07c79a	0.03314934
253	0xbae7bd40	-0.0017680302
254	0xbc1b7c6d	-0.009490115
255	0xbc857818	-0.016292617

fc2.bias f4 [128]
0	0xbcba1d97	-0.022719188
1	0xbd288f14	-0.041152075
2	0xbce96649	-0.028491156
3	0xbd4d0577	-0.05005404
4	0xbd5a8750	-0.0533517
5	0x3d5a416c	0.053285047
6	0x3dac222a	0.08404954
7	0x3d1c3092	0.038132258
8	0x3ccecab4	0.02524314
9	0x3ccff936	0.025387388
10	0x3d5445f0	0.05182451
11	0x3d18bd08	0.03728965
12	0x3da25134	0.079256445
13	0x3d914acc	0.070943445
14	0x3d99fdec	0.07519135
15	0x3c22c05e	0.009933559
16	0x3d1cf54a	0.038319863
17	0xbc0b21c0	-0.008491933
18	0x3db55c15	0.08855454
19	0xbb8f7cb1	-0.004378878
20	0x3c538d4e	0.012912108
21	0x3cf52fbb	0.029929986
22	0xbd9d23cc	-0.07672843
23	0x3c0b4fcf	0.008502915
24	0xbd09d4a5	-0.03365006
25	0xbc9fa2c1	-0.019486787
26	0xbc2440c0	-0.010025203
27	0x3d17efb4	0.037093833
28	0xbd59b52b	-0.05315129
29	0xbba04c17	-0.004891883
30	0x3cbc6782	0.022998575
31	0xbd0b9156	-0.03407415
32	0x3d016be8	0.031597048
33	0x3bf63e34	0.0075147394
34	0x3cffe120	0.031235278
35	0xbc346a3f	-0.011011659
36	0x3d802382	0.062567726
37	0xbd2cfc30	-0.042232692
38	0xbd74f745	-0.059806127
39	0xbd196cfb	-0.037457447
40	0xbcb88033	-0.022522068
41	0xbc9de8c4	-0.01927603
42	0x3d6b39dc	0.057428226
43	0x3d108126	0.035279416
44	0x3bddf1e8	0.0067732222
45	0x3c76054d	0.015015912
46	0x3d02da93	0.03194673
47	0x3c7c331b	0.015393044
48	0xbcb4f752	-0.022090588
49	0x3d82670c	0.06367311
50	0x3d7cb81f	0.06169903
51	0x3bd0a422	0.0063672224
52	0xbc1e5aff	-0.00966525
53	0xbca0ab00	-0.01961279
54	0x3c820e4e	0.015875962
55	0x3d4a78eb	0.049431723
56	0x3bd987b0	0.0066384897
57	0x3d16d7d7	0.036826935
58	0x3c8b9de8	0.017043069
59	0x3d42a590	0.047521174
60	0x3dadc730	0.084852576
61	0xbd3e851e	-0.04651367
62	0xbd7235cd	-0.05913334
63	0x3c3565ae	0.011071606
64	0xbd4446c6	-0.047919057
65	0xbcf03b41	-0.02932513
66	0xbc6a27cd	-0.014291716
67	0xbc9dc5e3	-0.019259399
68	0x3c620c5f	0.013796895
69	0xbd59377b	-0.053031426
70	0x3d203b1d	0.039118875
71	0x3def757f	0.116923325
72	0xbb752578	-0.0037406366
73	0xbd0c49a0	-0.0342499
74	0xbd2bf6d2	-0.041983433
75	0x3d91db4a	0.07121904
76	0xbd663584	-0.05620338
77	0xbc806e02	-0.015677456
78	0x3db57a59	0.088612266
79	0x3c130789	0.0089739645
80	0xbcf0ef36	-0.02941094
81	0x3d964746	0.07337813
82	0x3d4097c1	0.047019724
83	0xbc14787e	-0.009061931
84	0x3dda0e92	0.1064731
85	0xbcf21844	-0.029552586
86	0xbd621501	-0.055195812
87	0xbd152c37	-0.03641912
88	0xbd52e5b8	-0.051488608
89	0xbd197473	-0.03746457
90	0x3c1aa0fe	0.009437798
91	0xbc81327a	-0.01577114
92	0x3d96d723	0.07365253
93	0x3d00ede5	0.031476874
94	0xbc8573c8	-0.01629056
95	0x3d91142d	0.07083926
96	0xbcbc17d6	-0.022960585
97	0x3d652662	0.055944808
98	0x3b1a0a03	0.0023504503
99	0xbcdd0505	-0.026979933
100	0xbceeec57	-0.02916543
101	0xbd0a6c25	-0.03379454
102	0x3ce821c6	0.028336417
103	0x3d9a84c6	0.07544856
104	0x3bb33766	0.0054692505
105	0xbc1ca378	-0.009560458
106	0xbd307b8d	-0.043086577
107	0x3d71ac67	0.059002306
108	0xba1b0724	-0.0005913845
109	0xbd13148b	-0.035908263
110	0x3d671eae	0.056425743
111	0xbd57de08	-0.05270198
112	0x3d6e856f	0.05823272
113	0xbd78e114	-0.060761526
114	0x3d308b4b	0.04310159
115	0xbd595707	-0.05306151
116	0x3cb1ebc4	0.021718867
117	0xbd36ea9d	-0.04465734
118	0x3dcbf9b5	0.09959737
119	0xbd02c8d3	-0.031929802
120	0x3d56dc6c	0.052456304
121	0x3d23957c	0.03993748
122	0x3d8a8cf5	0.06765167
123	0x3d750e42	0.05982805
124	0x3d4d8743	0.050177824
125	0xbcd2f9ed	-0.02575394
126	0x3d87464d	0.06605206
127	0x3dda4732	0.10658111

fc3.weight f4 [10, 128]
0	0x3b066227	0.002050528
1	0xbd929677	-0.07157605
2	0xbc36b378	-0.011151187
3	0x3e2840a7	0.16430913
4	0xbc85d98a	-0.016339082
5	0xbd30f316	-0.043200575
6	0xbe8c07d1	-0.27349713
7	0xbdb32c32	-0.08748664
8	0x3e3d7d51	0.18504836
9	0xbebe150c	-0.37125432
10	0x3d8aad9c	0.067713946
11	0x3e21c9cb	0.15799634
12	0x3e12f13c	0.14349836
13	0x3e380fb3	0.17974739
14	0x3e68824c	0.22705954
15	0xbd8be8f2	-0.0683154
16	0xbd7cf695	-0.061758596
17	0x3db55d19	0.088556476
18	0x3e46b36a	0.19404379
19	0x3d93b0ff	0.07211494
20	0xbb1acc52	-0.002362032
21	0x3e59c298	0.21265638
22	0xbb820335	-0.0039676675
23	0x3ccff636	0.025385957
24	0x3dadee7f	0.08492755
25	0x3d973938	0.073839605
26	0x3dc778cf	0.09739839
27	0xbe8e00d8	-0.2773502
28	0x3d4ea3c3	0.050449144
29	0xbda1eb7e	-0.07906245
30	0xbcdf5925	-0.027264187
31	0x3d569492	0.05238778
32	0x3e25f38e	0.1620619
33	0x3d3ab4fb	0.045582753
34	0xbe8070c3	-0.2508603
35	0xbb235866	-0.0024924516
36	0x3e0464fa	0.12929145
37	0x3ce22df1	0.027609797
38	0x3cd8dbc5	0.026471982
39	0x3bcf05d4	0.0063178334
40	0x3d9c50b7	0.07632583
41	0x3bdcbbb5	0.0067362436
42	0xbe765939	-0.24057473
43	0x3d6cabaf	0.057780918
44	0x3dce901a	0.10086079
45	0x3d4c1132	0.049821086
46	0xbc9c6f39	-0.019096004
47	0x3d23aedb	0.039961677
48	0x3ccff949	0.025387423
49	0xbd335ee2	-0.04379166
50	0xbce6ce18	-0.028174445
51	0x3c6f37a2	0.014600666
52	0x3b44283d	0.002993121
53	0x3dad25bd	0.08454464
54	0xbe04476d	-0.12917872
55	0x3df21f56	0.11822383
56	0xbce6603e	-0.028122064
57	0x3cfe7b87	0.031064762
58	0xba8942ca	-0.0010472175
59	0x3e88090b	0.265694
60	0x3eb2f47e	0.34952158
61	0x3dec1f67	0.11529427
62	0x3d128953	0.035775494
63	0x3d1a80d4	0.037720516
64	0xbda75bc6	-0.08171801
65	0x3d1fe64a	0.03903798
66	0x3c21edbc	0.00988334
67	0x3b997662	0.004683302
68	0x3cf0aa44	0.029378064
69	0xbd993ad5	-0.074819244
70	0xbe39084a	-0.18069568
71	0x3e8c236b	0.27370772
72	0x3c5bfeb6	0.013427427
73	0xbd242806	-0.04007723
74	0x3d108879	0.0352864
75	0xbe8f37e5	-0.27972332
76	0x3bed1fd7	0.0072364616
77	0xbe0568af	-0.13028215
78	0x3d6500af	0.055908855
79	0xbe3502cd	-0.1767685
80	0xbd3829e4	-0.044961825
81	0x3d9287ad	0.07154784
82	0xbf119d31	-0.5688048
83	0xbce5b8a0	-0.028042138
84	0x3e0ff925	0.14059885
85	0x3e5143a4	0.20435959
86	0x3d52e986	0.051492237
87	0x3defe390	0.11713326
88	0x3d5cd73a	0.053916194
89	0xbdaf5d33	-0.08562698
90	0xbe53cbba	-0.20683184
91	0x3d85bd77	0.06530278
92	0xbec2ce8f	-0.38048217
93	0x3cab8d0d	0.020941282
94	0xbab3ad8d	-0.0013708338
95	0xbdbdde1e	-0.09270881
96	0xbd453645	-0.04814746
97	0x3cf47923	0.029842919
98	0xbd1f7b3a	-0.038935877
99	0xbc73b945	-0.014875715
100	0x3ddf804b	0.10913142
101	0x3d27ff17	0.041014757
102	0xbcd6bd37	-0.026213272
103	0x3e379af9	0.17930211
104	0xbe5c091f	-0.21487854
105	0xbd0a90bb	-0.033829432
106	0xbcf2a9f2	-0.029622052
107	0xbee0a9e5	-0.4387962
108	0xbdde530a	-0.10855682
109	0x3b9f3520	0.004858628
110	0x3cbcc590	0.023043424
111	0xbdaa0e78	-0.08303541
112	0xbcc0539a	-0.023477364
113	0xbc91cf59	-0.017799066
114	0x3de61044	0.11233571
115	0xbe27e95f	-0.16397618
116	0xbec69d55	-0.3879191
117	0x3dfeefd4	0.12448087
118	0x3e8ccc0c	0.27499425
119	0xbdd790a9	-0.105256386
120	0x3e579164	0.21051556
121	0x3cea4362	0.028596584
122	0x3da6caae	0.08144127
123	0x3e324c8b	0.17412011
124	0xbe598060	-0.21240377
125	0xbe95266f	-0.29130885
126	0x3e382173	0.1798151
127	0xbedfbe53	-0.43699893
128	0x3d1d5859	0.038414333
129	0xbdb6c7e8	-0.08924848
130	0x3dcd44c0	0.10022879
131	0x3d249bb3	0.04018755
132	0x3cdddaf6	0.027081948
133	0x3db38788	0.08766085
134	0xbdf1dbbd	-0.1180949
135	0x3cc664bb	0.024217954
136	0xbbd72f16	-0.0065668924
137	0x3de9afd8	0.11410493
138	0xbe7028ee	-0.23453113
139	0x3e10883c	0.1411447
140	0xbea33e88	-0.31883645
141	0xbdd56609	-0.10419852
142	0x3e0d5fad	0.13806029
143	0x3e4b8e44	0.19878489
144	0x3c5b4f72	0.01338564
145	0x3ec4e7f4	0.38458216
146	0xbd5636cd	-0.052298356
147	0xbe124dcd	-0.14287491
148	0x3d2b7330	0.0418579
149	0x3d97e510	0.07416737
150	0x3df99968	0.12187463
151	0xbde65e25	-0.112484254
152	0xbd8f0579	-0.06983466
153	0xbc34ac6b	-0.011027436
154	0xbe5a76b8	-0.2133435
155	0xbc7ba20c	-0.015358459
156	0xbd059a8b	-0.032618087
157	0x3d8cbeeb	0.06872352
158	0xbe7c38fa	-0.2463111
159	0xbdacc455	-0.08435885
160	0x3e9c1478	0.30484366
161	0x3e0fc7b1	0.1404102
162	0xbd586e31	-0.05283946
163	0x3e95795c	0.29194152
164	0x3d795b4d	0.060878087
165	0x3d754b8a	0.059886493
166	0x3cfab032	0.030601595
167	0x3daed8be	0.08537434
168	0xbe519d16	-0.2047008
169	0xbdf7883f	-0.12086534
170	0xbe72cd86	-0.23711213
171	0x3c0a2194	0.008430857
172	0x3ee7247c	0.45145023
173	0x3c270811	0.010194794
174	0xbe2fc9a6	-0.17166767
175	0xbee779b4	-0.4521004
176	0xbcf4c6b7	-0.02987991
177	0x3de766a9	0.11298878
178	0xbe3f920a	-0.18708053
179	0x3e944a65	0.2896301
180	0x3ea66bde	0.3250417
181	0xbd9b990b	-0.0759755
182	0xbdf60cb8	-0.12014145
183	0x3e9e4acb	0.30916438
184	0x3d99325c	0.074803084
185	0x3df48c63	0.11940839
186	0x3cf3ee56	0.029776733
187	0x3edb61ea	0.4284814
188	0xbdb66d7d	-0.08907602
189	0x3de03370	0.10947311
190	0x3bbe1da1	0.005801872
191	0x3e0aeaca	0.13566127
192	0x3d9fd59a	0.07804413
193	0xbdafae8b	-0.08578213
194	0xbd03abdf	-0.03214633
195	0xbcf4b369	-0.029870706
196	0xbe9f8caa	-0.31162006
197	0xbdc8771a	-0.09788342
198	0x3dad4122	0.08459689
199	0x3e6b8e69	0.23003544
200	0x3bc739de	0.0060798964
201	0x3c834d7e	0.016028162
202	0x3dda58af	0.10661446
203	0x3e0721a0	0.1319642
204	0x3ca7429b	0.020417502
205	0x3e9771dc	0.29579055
206	0x3ec1e939	0.37873247
207	0xbdf1ab65	-0.11800269
208	0x3c804197	0.015656276
209	0xbe70815a	-0.23486844
210	0x3e44d09c	0.19220203
211	0xbd64a491	-0.055821005
212	0x3dc66534	0.09687272
213	0x3dcab2c5	0.09897379
214	0x3d858bee	0.0652083
215	0x3deda19f	0.116030924
216	0xbcad4289	-0.02114989
217	0x3d980d53	0.074244164
218	0xbc2eeb85	-0.010676269
219	0xbe5413c3	-0.20710663
220	0x3e05d508	0.13069546
221	0x3cbb7d0d	0.022886777
222	0x3d525e4e	0.051359467
223	0xbe3fba03	-0.18723302
224	0xbe57a15a	-0.21057644
225	0xbe60f554	-0.21968585
226	0x3d90494f	0.070452325
227	0x3d97bf76	0.07409565
228	0x3d7a197a	0.061059453
229	0x3cf68de0	0.030096948
230	0xbdda79fc	-0.10667798
231	0x3e2a9891	0.16659762
232	0xbc44fc6e	-0.012023075
233	0xbd1e78f5	-0.038689572
234	0xbdba26ad	-0.09089408
235	0x3e2d11dc	0.16901344
236	0xbe3bbb37	-0.18333136
237	0xbe15d7dd	-0.14633127
238	0x3d8c5589	0.06852252
239	0xbd897562	-0.06711842
240	0x3dcb71e5	0.09933833
241	0xbc3cdf55	-0.011527856
242	0x3e42f37b	0.19038193
243	0xbd0431f3	-0.032274198
244	0x3dae0a43	0.08498051
245	0x3d7c1a85	0.06154873
246	0xbe1a0e91	-0.15044619
247	0xbd038ba9	-0.032115612
248	0x3e4818bf	0.1954069
249	0x3e239d0a	0.15977874
250	0xbe4eec68	-0.2020737
251	0x3e3c6ce5	0.18400915
252	0xbd72e2cb	-0.059298318
253	0xbe02d4b0	-0.12776446
254	0x3e818beb	0.2530206
255	0x3da29ece	0.07940446

fc3.bias f4 [10]
0	0xbccbd6ac	-0.024882637
1	0xbd5f9cf2	-0.054593034
2	0x3ce05ca5	0.027387926
3	0x3e039fba	0.128539
4	0x3dae485d	0.08509896
5	0x3dc1ad5d	0.094568945
6	0x3d9b3f05	0.075803794
7	0x3d357c70	0.044308126
8	0xbd7c1db4	-0.061551765
9	0x3d705ba8	0.05868116
