cnn.pth (torch, 183879 bytes, 10 tensors)

conv1.weight f4 [6, 3, 3, 3]
00000000: ac56 1abd 74e9 733d ee6e 9f3d 6fe0 173e
00000010: 883f bb3c 2151 39be c02d b23c a09d d63c
00000020: 00bc 06ba c80a 01bd dbdc 3e3e 8016 3fbd
00000030: 804a 05bb 3491 6b3d 1c2e 85bd 8537 3e3e
00000040: ab58 363e 5a90 c43d 855d e1bd 16f2 ba3d
00000050: 00f8 24bc 4d9c 043e bd53 b4bd 413e 8bbd
00000060: 170e d2bd 5c02 45bd f5a8 393e 5b96 1dbe
00000070: 9a2d ef3d 0c1d 30be fe1d fc3d 08c6 8f3c
00000080: 55ba 433e c69a 23be 1798 3abe b451 0f3d
00000090: 1988 253e 883e d63c 00b6 303a fe6d b93d
000000a0: f3b4 363e fe8e 31be c883 5bbd 3929 1f3e
000000b0: 4eb3 11be 2e47 a93d c62a 9b3d 8ffb 143e
000000c0: 207d 58bd 4092 71bd 0093 f4bb 96d6 d23d
000000d0: 7266 aa3d 60f2 b83c ca8d 29bd a18a d23d
000000e0: 0ed3 abbd 1049 c4bd d69e 133d fdd7 a2bd
000000f0: 9e83 1e3e 14e5 2a3d 7f1b 01be d7dc 8bbd
00000100: 0d85 19be 3eed 2e3c b1af e73d ba7e 203d
00000110: 6291 26bb 2279 43be d844 bebd d396 ccbd
00000120: c09d 3dbe 8e4a 2fbe c81a 2fbb 57f3 f73d
00000130: 86fa 0c3e 5d7d 83bd 209b 4abe 2abc 2cbe
00000140: 9532 4abd f54f 413e ec02 573d 6e32 e13d
00000150: 3c79 1b3d 909d c73c fc29 28be c3f2 0f3e
00000160: 0022 113b 52fc 3abe e818 ccbc 78a9 633d
00000170: 381f 3fbd 9f9a 1d3e c81c 58bd b034 fbbc
00000180: f015 cd3c 6415 093d 1222 ec3d 2786 223e
00000190: c07f b4bc a0c7 fbbb 3aa4 2abe 2e77 ba3d
000001a0: 8811 bcbc e8f3 36be ec91 6cbd 6ae0 e53d
000001b0: 67d3 2f3e 3ef6 01be e540 23be 2f48 a9bd
000001c0: b377 a2bd 7261 9abd aa5f 9fbc 1473 9cbd
000001d0: 1d20 05be 0f28 873e d1bc d4bd 1eb9 32be
000001e0: 8980 a13d 3933 82be 6b47 b6bd 2590 793e
000001f0: 8a38 c3bd 04b7 3bbe fcd0 cdbd 7ebc 94bd
00000200: 22ac 0fbd f259 673e f135 0abd 06c3 cf3c
00000210: 0007 f03c 0755 6cbe 6de4 09be 7aba 733e
00000220: a94d 67be fbb4 c9be 863b 0b3f e986 b7be
00000230: 3a65 67be db66 e73e a7bf c7be 8e36 43be
00000240: 416e 013f 2857 9abe 2e2c 2dbe b6e6 253f
00000250: cf27 7dbe a88a 2cbe e3e4 0f3f f769 69be
00000260: a208 bfbd fe0d a43e 6139 8dbe a552 82be
00000270: 31f2 c63e d706 c0bd ec0c 9fbe 0b53 333f
00000280: 24ee b2be d3ca 81be
-0.037680313 0.05954881 0.0778483 0.14831708 0.022857442 -0.18097354 0.02175033 0.026198208
-0.00051397085 -0.031504422 0.18638937 -0.046652317 -0.0020338595 0.057511523 -0.06502935 0.18575867
0.17807262 0.095978454 -0.110041656 0.091282055 -0.010068893 0.12950249 -0.08805034 -0.06798983
-0.10256594 -0.048097953 0.18130858 -0.15389387 0.1167862 -0.1719858 0.12310408 0.017550483
0.19114049 -0.1597701 -0.1822208 0.034990028 0.16165198 0.026152864 0.00067409873 0.090541825
0.17842464 -0.17339703 -0.053592473 0.15543069 -0.14228556 0.082655296 0.07576518 0.14549087
-0.052853703 -0.058977365 -0.007463813 0.10294835 0.08320321 0.02257651 -0.041394986 0.102803476
-0.08389865 -0.09584248 0.03604015 -0.07951353 0.15479895 0.041722372 -0.12608145 -0.06829231
-0.14992161 0.01067668 0.11312807 0.039183356 -0.0025416245 -0.19089177 -0.09290475 -0.09989705
-0.18517208 -0.17118284 -0.0026718844 0.1210696 0.13767442 -0.064203955 -0.19785738 -0.16868654
-0.049364645 0.18878157 0.05249302 0.10995947 0.037957415 0.024367124 -0.16422266 0.1405745
0.002214551 -0.18260315 -0.02491422 0.05558154 -0.046660632 0.15391015 -0.052761823 -0.030664772
0.025034875 0.033467665 0.11529936 0.15871488 -0.022033572 -0.0076837093 -0.1666421 0.09104763
-0.022957578 -0.1786648 -0.05775635 0.11224444 0.17170487 -0.1269159 -0.15942724 -0.08265721
-0.07932987 -0.075381175 -0.019454796 -0.07639137 -0.13000531 0.2639775 -0.10387576 -0.17453429
0.07885844 -0.25429705 -0.08900341 0.24371393 -0.09532268 -0.18331534 -0.10049626 -0.072625145
-0.035076268 0.22592905 -0.03374285 0.02536155 0.029300213 -0.2307931 -0.13466044 0.23801604
-0.22588219 -0.3939589 0.543877 -0.35845116 -0.22597209 0.4519566 -0.39013407 -0.1906378
0.5055886 -0.3014462 -0.16911384 0.6480516 -0.24722217 -0.16849768 0.5620863 -0.22794329
-0.093278185 0.32041925 -0.2758284 -0.25453678 0.38856652 -0.093763046 -0.31064546 0.7004859
-0.34947312 -0.25350055

conv1.bias f4 [6]
00000000: 77b2 2e3e fc0e 0dbe 0f94 90bc 10bf b3bc
00000010: f1d0 77bd 672a 59bd
0.17060266 -0.13775247 -0.017648725 -0.021941692 -0.060501996 -0.053018954

conv2.weight f4 [16, 6, 2, 2]
00000000: c0f3 14bd 2c0e 213d 3a96 b1bd bafd 063e
00000010: f0c0 053d 4456 c83d 56c4 353e 3612 1cbe
00000020: f84e c83c 5ba5 363e 662b b43d c707 3a3e
00000030: 005d 3d3a 0067 853a d017 713c 520d 4e3e
00000040: 8302 833d f7d4 993d 01ec 203e 39b2 25be
00000050: 717b c3bd e4ff 073e 0136 6a3d 8e6a 3cbe
00000060: 1329 a2bd b0f4 01be c57c 12be f6f0 17be
00000070: ac8b 0dbe 344c e73d a40b 373e 6c2c ca3d
00000080: 3003 b03d b877 b6bd 2065 30be b80b 3e3e
00000090: f4b6 2bbd 648e 36be 7617 093e 9c91 49be
000000a0: 092b 0cbe 40dd d4bc fc3f 0cbd d847 87bd
000000b0: cc03 41be 687a d3bd 70da ca3d ae95 2e3e
000000c0: b0e0 53bc de2a e4bd 1ed9 3cbe 0858 d1bc
000000d0: ca20 2a3e 3892 fc3d c0f1 a73c 18cb 68bd
000000e0: 2648 5d3e 0476 07be b519 21be 4e5e 66bd
000000f0: f8f0 46be e8c5 ee3d 6601 90bd 3c28 67bd
00000100: b721 6c3e ec22 273e 659e 2e3e 604c 1a3e
00000110: 909c af3e 4fbb 2fbc acb9 e93d 3763 a33d
00000120: 5c70 ba3d f039 213e dc14 97bd 1835 d63d
00000130: f2ec 113e f825 cc3d 9ca3 153e 2084 673d
00000140: 1c26 d13d 00a4 34be d225 f13d d47d 613e
00000150: 2004 413c 6d3c 3cbe 1cab 173e c12c c4bd
00000160: 84db 5cbd a758 2fbe cf00 9f3d 3080 28be
00000170: b21c 6e3e 8c9d 7bbd 534a c33e 0bfb 823d
00000180: 1af1 cbbd 3068 29bd c496 103e 80d8 41be
00000190: cc3d b13d 70c4 c6bd 4efa fcbd 8835 7b3d
000001a0: cd51 3bbe b496 1b3e 5af6 9bbc ada2 3e3e
000001b0: 3eaa b1bd 9ec8 2fbe 4937 49be 6a8c 383e
000001c0: 3f16 303d 1581 243e 2258 743d 74ac 873d
000001d0: a2ac 55be 6900 403e f27a 1b3e 89f3 f33d
000001e0: 18d3 9d3d 96a3 113e 1098 7b3d f23d 313e
000001f0: 28d0 92bd 13e1 bbbd 3693 0f3e 6821 d73d
00000200: cd68 00bd 48fe d2bd 2725 2f3e 4631 62bd
00000210: 48e8 db3c ff9f b2bd 760d 11be d93c 17be
00000220: a103 b23d ee85 393e c943 443c ed70 4e3d
00000230: 7558 cb3d 64eb 52be d26d 2e3e 22a6 9abe
00000240: 6a44 87bd d481 db3d 380b 0cbd 888d cebd
00000250: a01f d23d eabc 50be eedf 2b3e 1e98 4e3e
00000260: 3cdb 4f3d bb03 11bc c945 143e 43d4 6d3e
00000270: a83f 54bd 3c07 a23d d066 1abe d09b 4cbc
00000280: 0a00 793e b3a6 133e d2f1 56bd 313b 4d3d
00000290: 3671 3c3e 795c f43d b62b b03e 4cf2 843c
000002a0: dc08 f93d 003d 38bb 6eb8 30be e042 93bc
000002b0: b4b6 183e 2445 cb3d f012 673d 00df efba
000002c0: e811 20be ae1f a9bd a363 e5bd 23de d3bd
000002d0: 8cc7 06be a886 45bd ca85 1a3e 1a99 e5bd
000002e0: 0ae4 193d ba9b 013e 9f8e 573e 8a86 f43d
000002f0: 1020 00bd e435 cebd 0cd5 c33e 0d50 0fbe
00000300: 3a8d 9cbd ad2a adbd c257 153e e486 2f3d
00000310: 7049 093d e863 4fbd ea67 0fbe 18ba 16be
00000320: 25d6 c2bc 2df7 ffbb fc36 cabd d987 09be
00000330: 62e8 0c3e 388a 52bd 6271 8bbd dc8a 873d
00000340: 3023 8ebd 36ec 333e 038c bc3d a7ed 3e3e
00000350: 383b aebe 4492 eabd 666d b0be 36ab 3ebd
00000360: 5126 4cbe d89a cf3d 00b0 2d39 6085 debc
00000370: f8df 6f3d a0fb 4d3c 321d 343e 736a e4bd
00000380: cbf4 a4bc ab53 1e3d 23cc 123e c4c1 5abd
00000390: 583a 973d e706 e8bd eac8 1a3e 04f8 3cbd
000003a0: 4f55 82be 784b 2c3e 6a35 733d 1342 b83d
000003b0: 88a7 e6be 2f37 963e 6174 c1be 2c44 af3e
000003c0: a46f 50be 58fd 233e 909e b93d 285f d5bc
000003d0: e482 31bd 10fe 583c 008b 7eba 686a a6bd
000003e0: eba7 29be 5577 e33d e19f 96bc af2c 5e3e
000003f0: e083 d03d edce 06be 70e4 973c 7095 10be
-0.03636527 0.039320156 -0.086712316 0.13182727 0.032654703 0.09782079 0.17750677 -0.15241322
0.024451718 0.17836516 0.0879734 0.1816703 0.0007223636 0.0010177791 0.01471515 0.20122269
0.063969634 0.07511323 0.15715028 -0.16181268 -0.09545029 0.13281208 0.05718041 -0.18400022
-0.079179905 -0.12690997 -0.14305408 -0.14838013 -0.13822812 0.112938315 0.17875534 0.09871754
0.08594358 -0.08909553 -0.17226076 0.18559158 -0.041922525 -0.17827755 0.13387856 -0.19684452
-0.13688292 -0.025984406 -0.034240708 -0.066055 -0.18849105 -0.103260815 0.09904945 0.17049286
-0.012931988 -0.11140989 -0.18442199 -0.025554672 0.1661407 0.123325765 0.020501018 -0.05683431
0.21609554 -0.13228613 -0.15732463 -0.05624228 -0.1942786 0.11658841 -0.07031517 -0.056434855
0.23059736 0.16321915 0.1705261 0.15068197 0.34299135 -0.01072581 0.11412367 0.07977908
0.09103462 0.15744758 -0.073770255 0.104593456 0.14250544 0.099681795 0.14613193 0.05652249
0.10212347 -0.17640686 0.11774792 0.22020656 0.011780769 -0.18382426 0.14811367 -0.09578849
-0.053920284 -0.17123662 0.07763826 -0.1645515 0.23253134 -0.061429545 0.38142642 0.06395539
-0.09958096 -0.041359127 0.14120013 -0.18930244 0.08654365 -0.09705436 -0.12352429 0.06133035
-0.18292923 0.15194207 -0.019038368 0.18616743 -0.08675049 -0.17166373 -0.19649996 0.18022314
0.042989966 0.16064866 0.059654362 0.0662469 -0.20866635 0.18750156 0.15183619 0.11911685
0.077062786 0.1422256 0.061424315 0.17308787 -0.07168609 -0.09173789 0.14021 0.105044186
-0.031349946 -0.103024065 0.17104016 -0.055222772 0.026844159 -0.08721923 -0.14165291 -0.14769305
0.086920984 0.18117496 0.011979052 0.050400663 0.09928981 -0.20597607 0.1703408 -0.30204874
-0.06604846 0.10718122 -0.034190387 -0.10085589 0.10259938 -0.20384565 0.16784641 0.20175216
0.050746188 -0.008850987 0.14479746 0.23225503 -0.05181852 0.07911536 -0.15078282 -0.0124883205
0.24316421 0.1441906 -0.05247671 0.050105277 0.18402562 0.119317 0.3440835 0.016228817
0.12159893 -0.002811253 -0.17257854 -0.017976224 0.14913446 0.09925297 0.056414545 -0.0018300712
-0.1563183 -0.082579955 -0.11200645 -0.103451036 -0.13162059 -0.04822412 0.15090099 -0.112108424
0.03757099 0.12657061 0.210505 0.11939724 -0.031280577 -0.100688726 0.3824848 -0.1399538
-0.07644124 -0.084554054 0.14584258 0.04285325 0.0335173 -0.050632387 -0.14004484 -0.14719427
-0.023783753 -0.007811448 -0.09873769 -0.13430728 0.13760522 -0.051401347 -0.068087354 0.06618282
-0.06940305 0.17570576 0.092063926 0.18645345 -0.34029555 -0.11453679 -0.34458464 -0.04655
-0.19936492 0.10136956 0.00016564131 -0.027163208 0.058563203 0.012572199 0.17589262 -0.11153116
-0.020136258 0.03865401 0.14335684 -0.053407446 0.07384175 -0.113294415 0.15115705 -0.046134964
-0.2545571 0.16825664 0.05937711 0.08996978 -0.4504969 0.29338977 -0.37784103 0.342317
-0.20355088 0.16014612 0.090634465 -0.02604635 -0.043337718 0.013244167 -0.00097100437 -0.08125764
-0.16567962 0.11106745 -0.018386783 0.21696733 0.10181403 -0.13164873 0.018541545 -0.14119506

conv2.bias f4 [16]
00000000: 6fab 543c 006e 05be 8da2 4e3e 46fc 2f3e
00000010: e32c 533e dbdc 443e 9e40 283d 051c 503e
00000020: c227 113e 687a 4a3e bec2 0abe 7b60 943d
00000030: e1f2 a6bd ea08 753e f8da 14bd 6389 8a3e
0.012980326 -0.13030243 0.20179196 0.17186078 0.20622592 0.19224875 0.04107725 0.20323189
0.14175323 0.19773257 -0.13550851 0.07244965 -0.08151794 0.23929182 -0.036341637 0.27057943

fc1.weight f4 [120, 320]
00000000: 7e44 383d c99b 41bd 9d40 6dbb aff3 4b3d
00000010: 8bd6 543d 36ba 333d bbd7 5d3d b4e7 92bc
00000020: 0afe 2a3d f81b 3a3d b217 35bd 2075 d23c
00000030: 44c6 273d b755 2cbd 4c94 2ebd f7d4 b13c
00000040: ca6b 6a3d 4dd8 00bd f256 253d d12b 4ebd
00000050: d441 893c 423a 4bbd 9699 273d f050 c3bc
00000060: e0a6 aeba 4405 d43c 03c5 2cbd dc4c c33c
00000070: f09c 4b3c 8e1b 463d 2a10 4bbd 6890 a0bb
00000080: cc7b 2c3d 7208 05bd bc0a d63c da11 2cbd
00000090: 2ca3 8a3c 08dd ce3c d072 9d3b f022 313d
000000a0: d19e ee3c 6a01 163d 9cfd e53b 8e5c d13c
000000b0: cc78 22bd c5a6 2fbc 71cf 373d fdf4 26bc
000000c0: ac8f 0bbd 05cc 5fbd 9232 2a3d dde7 2abd
000000d0: 42bf 5bbd aea6 e93c d897 bbbc 3392 f23c
000000e0: 3ca3 28bd 38c5 fe3b 7c76 94bc 3281 3c3d
000000f0: 4516 4b3d ef00 ccbc 1ab0 6bbb ed56 06bc
00000100: 123a 84bb 1f7e 0fbd 6937 e6bc 46a2 81bd
00000110: 9a85 45bd 5888 4fbd 338a 7c3b d178 503b
00000120: b17e 3fbd bdac 29bd 276f 43bd b21f 863d
00000130: 4cbd 01bc cb6a 333d b79b f7bb c71b 1e3d
00000140: ff96 0fbc 7a04 6f3d 6c7d 813b cf0d fbb9
00000150: 878b 193d 75d4 36bc ad8a c83b 9d9f 683d
00000160: bc18 46bd ac72 a53c d2a3 213b b102 183d
00000170: 29e6 80bc fe55 5c3d 22a3 1f3d 7efb 3a3c
00000180: b3ce e23b afcf fa3c beb1 53bc 3709 0a3d
00000190: d359 c4bc d695 b1bc fc89 5f3d 6ad4 f03c
000001a0: 12e5 133d ef23 57bb 9f38 20bd 3ca3 333d
000001b0: 4fc1 0d3d bed9 fd3c e11e ca3c cddf bbbc
000001c0: 04b4 2f3c 3a78 9d3c f9fb 483d 81f9 9dbc
000001d0: 7291 5a3d 9737 983d 8287 89bc 8159 603d
000001e0: 80e4 673d bfcb 043d c292 9a3c fbc0 d9bc
000001f0: d02f cbbc 1f98 6d3c 82c2 f93b 8811 8bbc
00000200: c2fa af3c 5e88 15bd 0066 eb3c 6a53 0cbd
00000210: 1a70 c93c d36e 1ebd fa73 ac3c db67 793d
00000220: fbee 22bd 2531 ca3c e96f da3c 0acb 413d
00000230: c087 44bc c7dc 253d 1a54 2d3d 2391 433d
00000240: fd8f 80bb fb8d 3e3d 96e4 b3bc bff7 debc
00000250: e3f3 14bd 9f9b 393d f688 473c 087b 583d
00000260: 5aec 4e3d f5f4 05bd a557 c53c 085d 0abd
00000270: 3059 2fbc 90ee 7b3c c626 843d 530c 703d
00000280: 3f1e ae3c 3092 85bc 76c4 e9bc ddea 98bc
00000290: 0e41 b43c 556b 533c 9e85 5d3c f234 5a3d
000002a0: d3d3 b9bc 305c 593d c73c c1bc 5869 4b3d
000002b0: d485 a8bc 2389 193d 992a 1abb 543d e7bc
000002c0: 756a 623c b754 8bbd 900b 3a3c ee9f 8cbd
000002d0: 5d8d 013d 7682 3ebd a9c6 5c3d a2c2 58bc
000002e0: 64f8 623d 1bbb 5f3c d844 76bc 471b f5bc
000002f0: a97f f9bc fdd1 313d 1dd5 463d 8811 833d
00000300: e3a4 b53c 7c68 4b3d ac15 4bbd 73d7 82bd
00000310: f05b f5bc 95e8 98bd 8d34 acbb 45ea 41bd
00000320: 2c35 05bd 2221 413d f769 d9bc 65d5 ba3c
00000330: 5a6d 81bd fda4 f43c fbf1 403c 6f28 26bb
00000340: 5095 bebb d6b6 8bbd 9066 ddbc 632c 3e3d
00000350: d44a 26bd d929 b73b b076 c63c f3c0 603d
00000360: 5092 863d f8d1 a63d d1c6 143c 052c ce3d
00000370: c42c d73b 3158 1b3c c0aa eebc fdc0 523d
00000380: bbf9 08bd 9a04 a4bc 7dc8 0f3c 267d 003d
00000390: caba 893d 3414 02bd 9954 9ebb ad49 573b
000003a0: 5fe1 353c de73 30bd 1ac2 183d 724f 033d
000003b0: a4ad 87bc 0fca 2c3b 308a 9a3c 187c f8bc
000003c0: f88a 48bc f2ca babc c811 0e3d 803e a93c
000003d0: 35aa 25bd 9cbb 3e3d a4da 933c 3677 333d
000003e0: 1972 41bd ea55 023d 6810 373c d23e 1b3d
000003f0: a69f 23bd 0ca6 e0bc d69f 5f3d 5e11 3e3d
0.044987194 -0.04726771 -0.0036201843 0.04979294 0.051962417 0.043878756 0.054160815 -0.01793275
0.041746177 0.04543683 -0.04421205 0.025690615 0.040960565 -0.04207393 -0.042621896 0.021707995
0.057231702 -0.03145628 0.04036612 -0.050334755 0.016755022 -0.049616106 0.040917955 -0.023842305
-0.0013324879 0.025881417 -0.042180073 0.02384036 0.012427554 0.048366122 -0.049575962 -0.004900027
0.04211025 -0.032478757 0.026128165 -0.042009212 0.01692351 0.02525188 0.0048049465 0.04324621
0.029128464 0.036622442 0.007018758 0.025556829 -0.039665982 -0.010720913 0.044875566 -0.010190246
-0.034072563 -0.054637928 0.041552134 -0.04172503 -0.053649195 0.028521862 -0.022899553 0.029610729
-0.041171297 0.007774975 -0.018122904 0.046021648 0.049581785 -0.024902789 -0.003596312 -0.008199436
-0.004035243 -0.035032388 -0.028102593 -0.06329779 -0.048223116 -0.050667137 0.0038534522 0.0031810293
-0.04675168 -0.0414245 -0.047713425 0.06549014 -0.007918667 0.043803018 -0.0075564045 0.03860071
-0.008764028 0.05835388 0.003951719 -0.0004788474 0.03748658 -0.011159052 0.006120047 0.056792844
-0.048363432 0.020196281 0.0024664295 0.03711194 -0.015734749 0.053792946 0.038973935 0.0114124995
0.006921613 0.03061661 -0.012920795 0.033700194 -0.023968613 -0.021677893 0.05457495 0.029398162
0.03610713 -0.0032827815 -0.039116498 0.043856844 0.03460818 0.030987617 0.024672927 -0.022933865
0.010724071 0.019222368 0.049068425 -0.019284012 0.053361364 0.07432478 -0.016788248 0.054772858
0.0566144 0.03242087 0.018868808 -0.026581278 -0.024803072 0.0145016005 0.007622064 -0.016976133
0.021481875 -0.036507003 0.02873516 -0.034259237 0.024589587 -0.03867991 0.021051396 0.06089006
-0.03977869 0.024681637 0.026664691 0.047312774 -0.011995256 0.040493753 0.042316534 0.047745835
-0.0039234147 0.046522122 -0.021959584 -0.027217744 -0.0363654 0.045314427 0.01217865 0.052851707
0.05051837 -0.032704312 0.024089644 -0.033780128 -0.010702416 0.015376702 0.06452708 0.058605503
0.021254657 -0.01630506 -0.028536063 -0.018666679 0.022003677 0.012904008 0.013520626 0.05327315
-0.022684013 0.053066432 -0.023588551 0.04966101 -0.020571627 0.0374843 -0.0023523925 -0.028227486
0.013819327 -0.068032674 0.011355296 -0.06866442 0.031628955 -0.046511136 0.053900395 -0.013229998
0.055412665 0.013655449 -0.015031062 -0.029920233 -0.03045638 0.04341315 0.048543084 0.06399828
0.02217335 0.04966019 -0.049581215 -0.0638875 -0.029951066 -0.074662365 -0.005255288 -0.047342557
-0.03252141 0.04715074 -0.026539786 0.022806833 -0.06319685 0.029863829 0.011776443 -0.002535369
-0.0058161393 -0.068219826 -0.027026445 0.04642905 -0.040598705 0.0055897054 0.024226516 0.05487151
0.06570876 0.08145517 0.009080605 0.1006699 0.006566616 0.009481476 -0.029134154 0.05145358
-0.033441287 -0.020021725 0.0087758275 0.03136935 0.0672508 -0.03175755 -0.004831862 0.003285031
0.011101096 -0.04307925 0.037294485 0.032058187 -0.01656229 0.0026365553 0.018864721 -0.03033261
-0.012240164 -0.02280185 0.034684926 0.020659685 -0.040445525 0.046565637 0.018048592 0.04381486
-0.047227953 0.031820215 0.011173345 0.037901707 -0.039947174 -0.027422927 0.05459579 0.04640328

fc1.bias f4 [120]
00000000: 4785 6a3d bb53 2f3d 848b 3b3d e7ab d33c
00000010: d24b 623d 4104 65bd 207a 113d 1a28 27bb
00000020: 05dd 0abc ca3e 3abd c8d0 093d 6e8d 3f3d
00000030: 6235 203d 568e 943c eb65 48bd 4af3 e23b
00000040: f5c8 913c b6b3 193d 16b5 6f3d 78c8 8bbc
00000050: 3fc6 f83c 805b 58bb e795 b2bc 2f5e 3f3d
00000060: 9a5c b43b ad67 60bd 7155 8a3d 5452 62bc
00000070: 89ba 9b3d 8e36 c6bc b971 2dbb 6f01 0e3b
00000080: 1f60 3a3d 180e 213d 972d 283d c4cd c53c
00000090: 9611 423d fece f3bb d02e 313c 7bcc 743b
000000a0: e8b3 063d 4845 e8bb dedb a2bb 9826 613c
000000b0: 0175 7bbc c022 8e3c 1805 1dbc a32f 5fbd
000000c0: e012 813b d418 11bd fe58 1fbd 55e1 29bb
000000d0: f057 5cbd 0cc9 c6bc 66d7 053d 2ea0 f53c
000000e0: e018 663d 5d76 bb3c 7814 373d 2b40 ae3c
000000f0: fca8 d3bc 2b35 b3bc 5f02 b7bc 3bd8 07bd
00000100: f8c4 583c 0d93 e33c 3a68 643d e040 58bd
00000110: e740 9e3d 5c97 b03c 9046 643b c080 aa3a
00000120: 8fcf ca3a afb6 e0bc 804a 51bd 2f8a 2c3a
00000130: 214e 4c3d c047 dd3c 7a1d f5bc 42dc b93c
00000140: c47b 603d c92c 863d e226 d63b acd4 233c
00000150: d8cd 013c 902d 24bd c733 61bb 98ea 45bc
00000160: 8e99 223d d6ae 373d df44 723b 4775 7c3d
00000170: 0a67 05bd d074 ddbb c192 073d b01d 0dbc
00000180: 1e99 5bbd 19fd 50bd f33f 523d 6ca3 b9bc
00000190: bf24 1abd f8d0 f8bc 4a71 e33c 666d 25bd
000001a0: 3716 443d 7ec9 503b 108c e93c e4b0 24bc
000001b0: 4122 9cbc 0041 31bb cef3 b3bb e5f5 dcbc
000001c0: 240f 4bbd 739c 6c3d 6cb1 bfbc 3ff0 723d
000001d0: 8f03 133d bf21 fabc bf28 3ebd b249 1fbc
0.05725601 0.04280446 0.04578735 0.025838805 0.05524809 -0.05591226 0.035516858 -0.002550608
-0.008475547 -0.045470037 0.033646375 0.046765737 0.03911341 0.018134277 -0.04892532 0.006925975
0.01779602 0.0375249 0.058522306 -0.017063364 0.030367969 -0.0033013523 -0.021799995 0.04672068
0.005504203 -0.054786373 0.06754578 -0.013813574 0.07603938 -0.024195936 -0.002646549 0.0021668335
0.045501824 0.03932008 0.041059103 0.024145968 0.047380053 -0.007440447 0.010814384 0.0037353325
0.032886416 -0.007088337 -0.004970058 0.013742112 -0.01534772 0.017350554 -0.009583734 -0.05448879
0.0039390177 -0.03542407 -0.03890323 -0.0025921662 -0.0537948 -0.024265788 0.032676123 0.029983606
0.056176066 0.022883588 0.044697255 0.021270832 -0.025837414 -0.021875938 -0.022339998 -0.033165198
0.013230555 0.02778008 0.05576346 -0.052796245 0.07727223 0.021556549 0.0034832098 0.0013008341
0.0015473234 -0.02743086 -0.05109644 0.000658187 0.049879197 0.027011752 -0.029921282 0.022688035
0.054805532 0.06551511 0.006535397 0.009999435 0.007922612 -0.040082514 -0.0034363137 -0.012079857
0.039697222 0.04484447 0.003696732 0.061635282 -0.03256897 -0.00675831 0.03309894 -0.008613035
-0.05361282 -0.051022623 0.051330518 -0.022660933 -0.0376327 -0.030373082 0.027763981 -0.040387534
0.04787275 0.003185838 0.02850917 -0.01005194 -0.019059302 -0.00270468 -0.0054917103 -0.02697272
-0.049574986 0.05776639 -0.023400031 0.059311148 0.035892066 -0.03053367 -0.046425577 -0.00972216

fc2.weight f4 [50, 120]
00000000: 1d81 4e3c 8540 8fbd b277 513d 9ceb 41bd
00000010: d0cc f23c 0598 19bd 48c2 643c 31ce 42bd
00000020: 42fd 90bd 98da 7cbc a84f 7e3c 16d5 acbd
00000030: c8e7 48bc fa35 f83d 7543 a6bd 0df3 b03d
00000040: 5d96 e0bd 17a1 ea3c 3de5 cdbd 0089 893a
00000050: 5ab5 b3bc c8ae 85bc c848 38bd d8aa 1f3d
00000060: e13e 87bd f1f5 9d3d 9fbc d5bd 8747 e73c
00000070: 2677 d43d d140 ff3d 6350 aa3c 77f6 a53d
00000080: f542 a83d cbd3 003d b9b7 86bd 25ca 14bd
00000090: 80a1 7fbb 4159 8a3d b280 92bd 0e7a 323d
000000a0: b8e8 023e a880 3abc 4c05 4bbd f399 1dbd
000000b0: 424c 9bbd d88c 76bd a272 92bd 53ff b6bd
000000c0: bcbe cabc 95c2 5b3d c0c3 0e3c 19c1 38bd
000000d0: 2cdf 76bd 219c 8d3d b876 553d b3b1 863c
000000e0: 075e 843d 3abc 053e 9c3e 303d 7661 6e3d
000000f0: 71df 96bd cbf7 453c 51aa bc3c 5aea bbbc
00000100: 04f6 063e 3d24 38be 0cea 84bc 7387 0abd
00000110: b149 ab3d 080f 623d f7e7 afbd 500a dfbc
00000120: 21fb a43b 84b5 3cbd 9cd5 5a3d b64a 1e3d
00000130: 888c ae3c 87f3 1abd c3a1 82bd edaa f7bb
00000140: 3b0c 823d 6d12 07be bae5 e83b 37ad a73d
00000150: b8f6 993d 9b8f 653d 43ee 0e3b 7069 9b3d
00000160: 475e 173d 5490 9e3c 2012 2dbd 62f9 953d
00000170: c074 8c3d a727 02bd e8a0 0b3c 1847 933d
00000180: 4ef2 b93d 347d 983d 100c 893d 5840 9bbd
00000190: 41ef 603c 6420 b33d 7373 7b3d 8145 373e
000001a0: b12b a9bd fc7b 2f3e 5011 013c 748a fd3c
000001b0: c08b 443d 30c2 6f3d d9de 2bbc 6cea 663d
000001c0: a101 d13d 9ee8 0f3d 7e80 7cbd 7a4d 9fbd
000001d0: 3397 0c3e 22f6 8e3d 33f8 f0bd d72c f43c
000001e0: 0957 003d 4300 bf3c 0438 78bd c2eb fabc
000001f0: 2817 5c3d 622d b3bd efdf a03d 9d2c b13d
00000200: eeb3 863d 2d15 b8bd 546b a93d 395e c1bd
00000210: e35b 53bd b594 8a3d efe6 c23c f23d b0bc
00000220: c290 833d ae24 323d 691c 8fbd 62a8 8cbd
00000230: 7e79 733d 70f5 a83c 8730 8c3d b914 01bc
00000240: 89fb 933d 4e63 2cbd f39a 9abd 43bb d2bc
00000250: 1b14 42bb de7a bc3d 6ce3 abbd aa9a 31bd
00000260: ca4c 9bbd 1eb4 013d 0847 7d3c 87e2 a83d
00000270: 9a39 fbbc 1d21 bdbd 8661 973d 94ca 8bbd
00000280: 057c 13bd e08e 493b 0886 623d 1027 c23c
00000290: 1dc0 453d 2619 b43d 0ab1 b83d 284c 9dbd
000002a0: 2896 ee3c 6746 553d 0cd5 b43d 73a0 0c3c
000002b0: 8087 70bb 0c6a a9bd 3000 18bd 00ab 4c3d
000002c0: 260d d3bb cce9 c53c f55b 97bd 711a d03c
000002d0: 5e6d 2ebd 6088 df3c d669 893d 896e 39bc
000002e0: 852b 34bc 318d 1c3d d89f 8d3d 4330 423d
000002f0: 990d 0f3c 295f 293d 75f2 7d3d 60ce 513d
00000300: b1ab a93d 365b d43b a0bb 4fbd aeec 893d
00000310: 9c83 9e3b 9cb5 943c 39ad 73bd f62f 3b3d
00000320: b969 9a3d 2a8d 453d 3860 e5bc b59e ec3c
00000330: bef4 7abd 7b8d c9bc be46 84bd 341b b43d
00000340: 01b3 743d 6098 903b 25c5 02bc e6d8 803c
00000350: 5cf1 903d f02d bbbb 80d6 083d 1b87 b8bd
00000360: 0064 4bba 92f1 ba3d 1ceb 6dbd 623a 4f3d
00000370: ff89 34bd 7422 7fbd 203e d6bc 82c4 2d3d
00000380: 1a1b f43c 7b0e 6d3d b6f6 67bd 5b92 aebd
00000390: c6ba af3d f496 e9bc 4ad1 edbc c187 99bd
000003a0: fdbb 36bd e132 813c 0cb3 273d 8c33 dfbc
000003b0: d8b5 8e3d cc27 673d 13c6 a9bd a5d6 0abd
000003c0: 18c0 323d 4897 1d3d 5d3f b2bd f424 ad3d
000003d0: a2da 983d 1fef a8bd 000f 6bbd 445b ce3c
000003e0: 5012 b2bd 40b4 e6ba 7c13 82bd bc17 bdbc
000003f0: a048 1b3b 301d e83c 0040 3637 d0a9 5e3c
0.012604025 -0.06994728 0.05113954 -0.047343835 0.029638678 -0.037498493 0.013962336 -0.04755992
-0.07079555 -0.015432976 0.015521921 -0.084390804 -0.012262292 0.1211967 -0.08118335 0.08640108
-0.109661795 0.028641267 -0.10053489 0.00104931 -0.021937061 -0.016318694 -0.044991285 0.03898129
-0.0660379 0.07712925 -0.10436367 0.02823235 0.10374288 0.124635346 0.020790284 0.0810365
0.08215896 0.03145198 -0.06578011 -0.036325593 -0.0039006174 0.06755305 -0.07153453 0.04357343
0.12784088 -0.011383213 -0.0495656 -0.038476896 -0.075829044 -0.060192913 -0.07150771 -0.08935418
-0.024749152 0.053652365 0.008713663 -0.045106027 -0.060271427 0.06914545 0.052115172 0.016442155
0.06463247 0.13060084 0.04302846 0.058198415 -0.07366837 0.012083004 0.023030432 -0.022938896
0.13179785 -0.17982574 -0.016224883 -0.03382058 0.08363665 0.055190116 -0.08589166 -0.027226597
0.0050348197 -0.046071544 0.05342637 0.03864547 0.021307245 -0.037829902 -0.0637851 -0.0075582177
0.06349989 -0.13190623 0.0071074637 0.08187335 0.07517761 0.056045156 0.0021809496 0.0758847
0.036955144 0.01935593 -0.042253613 0.073229566 0.06858206 -0.031776097 0.00852225 0.071912944
0.09079419 0.074457556 0.06691754 -0.07580632 0.013728918 0.087464124 0.061389398 0.17897607
-0.082602866 0.1713714 0.007877663 0.030949809 0.04798484 0.0585348 -0.010490143 0.056375906
0.10205389 0.03513395 -0.061645977 -0.07778449 0.13729553 0.0698054 -0.1176609 0.029806538
0.031333003 0.023315554 -0.060600296 -0.030629996 0.05373302 -0.087488905 0.07855212 0.086510874
0.065772876 -0.08988414 0.08272424 -0.094418 -0.051601302 0.06766645 0.023791758 -0.021513913
0.06424095 0.04349201 -0.06987841 -0.06868054 0.059442036 0.020624846 0.06845193 -0.007878476
0.07225711 -0.04208689 -0.075490855 -0.025724059 -0.0029614035 0.092031226 -0.08392987 -0.04336039
-0.07583006 0.031665914 0.01545883 0.08246332 -0.030667115 -0.092348315 0.07391648 -0.06825748
-0.036006946 0.0030755326 0.055303603 0.023700267 0.048278917 0.08793859 0.090181425 -0.07680541
0.029124334 0.052069094 0.08829698 0.008583176 -0.0036701858 -0.0827218 -0.037109554 0.049967766
-0.0064407764 0.024159335 -0.07390586 0.025403233 -0.04258477 0.027286708 0.0670964 -0.011317858
-0.010996704 0.038220588 0.069152534 0.047409307 0.008731269 0.041350517 0.061998803 0.051222205
0.08284701 0.0064805998 -0.050716043 0.06734596 0.0048374664 0.018153004 -0.05949137 0.045700036
0.07539696 0.048230328 -0.027999982 0.028884271 -0.06126856 -0.024603596 -0.064588055 0.08794251
0.059741024 0.0044126958 -0.007981573 0.015728425 0.07077286 -0.0057122633 0.03340769 -0.09010144
-0.00077587366 0.09128107 -0.058085546 0.050592788 -0.044076916 -0.062288716 -0.02615267 0.042423733
0.02979808 0.057875138 -0.056631766 -0.08524009 0.08580546 -0.028514363 -0.02903046 -0.07496596
-0.044612873 0.015771331 0.040942237 -0.02724626 0.06968278 0.056434438 -0.08289733 -0.033896107
0.043640226 0.03847435 -0.08703492 0.08454314 0.07463576 -0.08248734 -0.057387352 0.025190003
-0.08694899 -0.0017601326 -0.063513726 -0.023082606 0.002369441 0.02833423 1.08629465e-05 0.013590291

fc2.bias f4 [50]
00000000: 4aff 8d3a ff48 a03d 40a6 c7bb 5f63 e2bc
00000010: a088 0abd 4a6c 103e 34e1 71bd 8cad 833d
00000020: 7661 b8bc fe4c 3cbd 89bc b3bd 5e77 25bd
00000030: 8a0b 473d e00e d93c a496 83bd 935d 84bd
00000040: 49e9 b03c cbc4 34bd 3ef5 87bd 576b f53d
00000050: 5cb5 54bd 350e 1c3b e6d2 bebc a6d7 05bd
00000060: 2b44 ff3c 1edd 0a3d 0123 86bc b450 a33d
00000070: 38dc 2b3d 892a d43d a380 ed3c 20df 113d
00000080: 1817 3bbc df5a 4abb 9733 aabd a885 f33d
00000090: c8c1 a0bb fbaa 65bc 6f7f 5bbd c06f 983d
000000a0: 5cbf a3bd 6ed5 973d 2f96 70ba 9d20 2dbd
000000b0: b892 c63d 1440 90bd b4be c73d 0c86 723d
000000c0: 2c14 e93c 32a5 8bbd
0.0010833528 0.07826423 -0.0060928166 -0.027635274 -0.033821702 0.14103809 -0.05905266 0.06429586
-0.02250741 -0.045971863 -0.087761946 -0.04039704 0.04859499 0.02649635 -0.06425217 -0.0646316
0.021595614 -0.04413299 -0.06638573 0.11983364 -0.05193077 0.002381218 -0.023293924 -0.03267636
0.031160435 0.03390228 -0.016374113 0.07974377 0.041958064 0.103596754 0.028992003 0.03561318
-0.01141908 -0.0030876917 -0.08310621 0.11890727 -0.004905913 -0.014017816 -0.053588327 0.074431896
-0.07995483 0.07413755 -0.00091776525 -0.04226743 0.09695953 -0.07043472 0.097531706 0.05920987
0.028452002 -0.06818618

fc3.weight f4 [2, 50]
00000000: 5e20 c63e c45c 743d 3866 d2bd 7049 b4bd
00000010: 4840 0d3d 1582 3b3f ccd3 d3bd 3090 973d
00000020: 3d17 083e 94a7 2c3d 22a5 ad3d bd99 ed3d
00000030: c4f6 003e 91d7 033e edc7 9db9 3f96 edbd
00000040: 1c97 2a3e 7e74 f6b9 30a1 573e 63aa c5be
00000050: 6578 afbc bfaf d03c 38cd 1ebd f103 b73c
00000060: 8c8d a0be d474 42be 8df6 8fbd 8e6b 893c
00000070: f931 f1bd f727 333e 2a2f fa3e a056 e73c
00000080: e162 e4bd 5063 db3c 5ad7 db3d 69bc b9be
00000090: bc2a c03d f126 ab3d ff80 25bd 14f3 e9be
000000a0: b6de a03d e907 59be ed6e 4bbd 22ec 01be
000000b0: fb09 7a3e 885a b93c a644 aabe d2cd 90bd
000000c0: 9a83 d23d 58b9 dfbd 2fbd abbe ba8c 123d
000000d0: 201f cd3d 27ec fabd ada1 9dbd 26f4 3fbf
000000e0: 30b3 393d 86a3 2abe dc82 f63d 0403 7b3d
000000f0: 8020 a73c 9b1d e5bc 6f5a dbbb ea70 5bbe
00000100: 2aab b23d 7bbe b6bd 460e 9abe 77ce 3dbd
00000110: 4d07 12be 0687 0d3f e8fd 3b3d 8d59 b23d
00000120: 43b7 073e dbcd 463d e539 8e3e 3fd0 a63e
00000130: dadb 243e 3cc9 173e c867 1c3d ba0a a9be
00000140: 3c3a ddbe 601c 993d 4a5f 1fbd c608 19bd
00000150: 9b68 c13c 46cc 413e 1b7b 5ebd cc1b b0bd
00000160: eecb 053e 13ea bf3e 7c57 d1bd e020 693e
00000170: 8e70 82bd 9310 e6bd e1b6 18be f278 0cbd
00000180: db38 9d3e a09e bf3c 12bb 49bd 7c0e ce3d
0.3869657 0.05965878 -0.10273403 -0.088030696 0.03448513 0.73245364 -0.103431314 0.074005485
0.13290115 0.042152002 0.08478762 0.11601589 0.12594134 0.12875201 -0.0003009433 -0.11600923
0.16659206 -0.0004700757 0.21057582 -0.38606557 -0.021419713 0.025474427 -0.03876993 0.022340747
-0.31357992 -0.18989879 -0.07029448 0.016774919 -0.1177711 0.17495714 0.48864108 0.028239548
-0.11151672 0.026780754 0.107344344 -0.36276558 0.09383151 0.08357037 -0.040406223 -0.45693266
0.07854979 -0.21194424 -0.049666334 -0.12687734 0.2441787 0.022626176 -0.332555 -0.07070507
0.10279007 -0.109240234 -0.33542773 0.03577874 0.10015702 -0.12252074 -0.07696853 -0.74981916
0.045336902 -0.16663942 0.12036678 0.061282173 0.02040124 -0.027968219 -0.00669413 -0.21429792
0.08724053 -0.0892305 -0.30089015 -0.04633948 -0.14260598 0.55284154 0.04589644 0.08708487
0.13253503 0.048536163 0.27778545 0.32580754 0.16099492 0.14822859 0.03818491 -0.33015996
-0.43208492 0.07476115 -0.038909234 -0.037361883 0.02360945 0.1892558 -0.05431662 -0.08599052
0.13066074 0.37483272 -0.102217644 0.22766447 -0.06369124 -0.1123363 -0.14913513 -0.03429503
0.3070744 0.023391068 -0.04925067 0.100613564

fc3.bias f4 [2]
00000000: 7ab4 ea3c 76fb 583e
0.028650511 0.21189675
