cnn.pth (torch, 973703 bytes, 10 tensors)

conv1.weight f4 [128, 1, 3, 3]
0.21117362 0.13060474 -0.123263314 0.18399093 0.038554616 0.013902419 -0.13997944 -0.26605907
0.09573508 -0.0953473 -0.11726869 -0.32899433 -0.246168 -0.29669136 -0.11907699 -0.08282092
0.006118097 -0.09316348 -0.08632815 0.109711975 -0.22772853 0.103862524 0.2689604 0.004383683
0.25684056 -0.10953069 0.29985538 0.10614946 0.041624524 -0.17394842 0.14165154 0.26352084
-0.2255139 0.21788779 0.27078134 -0.09908066 0.28123018 -0.2717989 0.080130786 -0.31466553
-0.12554152 0.2516923 -0.2614285 -0.20768294 0.21817103 -0.17861962 0.22370926 0.2125012
-0.21272632 0.33054343 -0.2451072 0.25188985 0.0038693936 -0.11987811 0.20933077 0.022302074
-0.014002602 -0.06764241 -0.18361388 0.13493986 -0.32172206 -0.1346284 0.14874528 0.2675952
0.2737868 0.29363456 0.2665762 0.21786001 0.16936186 0.27398625 -0.25709316 0.23390248
0.23562106 0.11158112 0.05983767 0.17996338 0.26600567 -0.102121115 -0.05369124 0.11614558
0.24691477 -0.288776 0.20829055 -0.20072295 0.30520034 -0.1977863 -0.3231882 -0.1161159
0.3273799 0.20453061 -0.20555171 -0.062289573 0.035728905 0.31944233 -0.20984015 -0.23118487
0.26701757 0.18483458 0.11013139 -0.2566676 0.24788395 0.28080943 0.3116795 0.32903066
-0.089223474 0.23215488 0.06567225 0.1627973 0.05216237 0.061483126 0.25416753 0.14794804
-0.106729746 -0.12930423 -0.23932871 -0.11199752 -0.05488675 0.10962629 0.2802846 -0.3254505
-0.032274604 0.0946544 -0.18098776 -0.14721735 -0.31148824 -0.3092637 0.14634506 -0.004317693
0.2101011 0.010746798 0.2703761 0.15422356 -0.2884478 0.1030463 -0.26020145 0.1591677
-0.049688146 -0.2984838 0.19153458 0.17907871 -0.21497594 0.111045785 -0.1833194 0.13817027
-0.039748374 0.2522204 -0.26800233 -0.30960423 -0.14667313 -0.28741184 0.12972024 0.30120668
-0.051272713 0.28170562 -0.058823913 -0.26555347 -0.07939358 0.16397715 -0.10685491 -0.19073705
0.16904216 0.003439655 0.24335371 -0.2557637 -0.22461359 -0.17664433 -0.19149947 -0.12249711
0.259083 0.32971904 0.15169212 -0.062471867 0.33250198 -0.025568962 0.14670196 -0.23886685
-0.064638644 -0.09657392 0.12040162 0.31076506 0.083502166 -0.10295796 -0.2596349 0.07537067
0.21243732 0.059938587 -0.12073565 0.2507347 -0.20972265 -0.27219227 0.26291108 0.1329246
-0.20846443 -0.29975182 -0.12638846 -0.1680861 0.23285888 0.087965645 0.20139864 0.2620094
-0.1388822 0.042944938 -0.00986138 0.25693122 0.24704352 0.2587357 0.27499261 -0.29123458
-0.2503052 -0.007856672 -0.039542787 0.08871139 0.2820325 -0.22399886 0.30253372 -0.17976443
-0.30601278 0.17582867 -0.10639709 0.14834832 -0.11664875 -0.23265046 0.22398351 0.029194543
0.020719213 -0.29341432 -0.04845171 -0.16789575 0.014437899 0.21090302 0.18272986 0.29520628
0.30361238 0.0433062 0.2109761 -0.095547445 0.2115014 0.04896046 -0.16538545 0.22299908
0.28631976 -0.017229656 -0.08665591 -0.23168744 -0.08845433 0.030084128 0.006174814 0.1650485
-0.08121152 0.3326332 0.039127838 -0.06816134 -0.019965397 0.00019696548 0.2984032 0.08288398
00000000: e63d 583e 40bd 053e 7a71 fcbd 1e68 3c3e
00000010: 72eb 1d3d f9c6 633c c556 0fbe e538 88be
00000020: c110 c43d 7245 c3bd 912a f0bd f271 a8be
00000030: 7713 7cbe eee7 97be a3de f3bd 049e a9bd
00000040: 517a c83b 7fcc bebd d0cc b0bd acb0 e03d
00000050: ab31 69be e0b5 d43d 2db5 893e 00a5 8f3b
00000060: 9b80 833e a051 e0bd a586 993e e364 d93d
00000070: 7a7e 2a3d 891f 32be 1a0d 113e 34ec 863e
00000080: 1eed 66be fa1d 5f3e daa3 8a3e cdea cabd
00000090: 67fd 8f3e 3a29 8bbe 9c1b a43d d71b a1be
000000a0: f58d 00be d0dd 803e f5d9 85be d6aa 54be
000000b0: 3a68 5f3e 10e8 36be 0a14 653e ea99 593e
000000c0: eed4 59be fd3c a93e 62fd 7abe b5f7 803e
000000d0: a795 7d3b a882 f5bd ce5a 563e d7b2 b63c
000000e0: 2b6b 65bc 1b88 8abd 4705 3cbe ad2d 0a3e
000000f0: c1b8 a4be 07dc 09be af50 183e 3d02 893e
00000100: c92d 8c3e 4557 963e ad7c 883e b216 5f3e
00000110: 326d 2d3e ed47 8c3e b7a1 83be 2284 6f3e
00000120: a646 713e a484 e43d 5818 753d 5248 383e
00000130: e531 883e e024 d1bd 58eb 5bbd bcdd ed3d
00000140: 3ad7 7c3e 73da 93be 1e4a 553e 518a 4dbe
00000150: 3843 9c3e 7e88 4abe ec78 a5be 2cce edbd
00000160: 579e a73e 7970 513e 267c 52be 5a23 7fbd
00000170: 7958 123d f28d a33e 56e0 56be babb 6cbe
00000180: 87b6 883e 4745 3d3e 918c e13d f069 83be
00000190: 4ad5 7d3e 41c6 8f3e 7594 9f3e b576 a83e
000001a0: ccba b6bd 02ba 6d3e 2c7f 863d 56b4 263e
000001b0: 36a8 553d bbd5 7b3d 3f22 823e b17f 173e
000001c0: 2095 dabd 5468 04be 9612 75be f55e e5bd
000001d0: eed0 60bd c083 e03d 7781 8f3e 73a1 a6be
000001e0: 6032 04bd 2bda c13d db54 39be 25c0 16be
000001f0: 637b 9fbe d057 9ebe 7bdb 153e 6f7b 8dbb
00000200: be24 573e 5613 303c bc6e 8a3e c8ec 1d3e
00000210: 6eaf 93be f009 d33d 2039 85be dcfc 223e
00000220: cc85 4bbd ded2 98be a421 443e 6960 373e
00000230: a722 5cbe f96b e33d 15b8 3bbe 827c 0d3e
00000240: 31cf 22bd 0823 813e 9a37 89be 7284 9ebe
00000250: 7b31 16be a527 93be 62d5 043e c337 9a3e
00000260: 5603 52bd b83b 903e 58f1 70bd a0f6 87be
00000270: 1a99 a2bd a0e9 273e bfd6 dabd 9350 43be
00000280: 6319 2d3e d66b 613b b731 793e 76f3 82be
00000290: 1b01 66be 40e2 34be 7018 44be c4df fabd
000002a0: 87a6 843e efd0 a83e 2e55 1b3e 80e2 7fbd
000002b0: b33d aa3e 0076 d1bc 0a39 163e 8399 74be
000002c0: 4461 84bd 8cc8 c5bd 2095 f63d 991c 9f3e
000002d0: 2f03 ab3d 9fdb d2bd deee 84be f05b 9a3d
000002e0: 2b89 593e 2a82 753d 4144 f7bd 4c60 803e
000002f0: 89c1 56be c95c 8bbe 489c 863e 631d 083e
00000300: b377 55be 1279 99be fa6b 01be c31e 2cbe
00000310: 8f72 6e3e 5527 b43d 723b 4e3e 1926 863e
00000320: 2337 0ebe 08e7 2f3d a091 21bc 7d8c 833e
00000330: faf8 7c3e 0179 843e d5cb 8c3e b31c 95be
00000340: 0128 80be 45b9 00bc 9ef7 21bd 51ae b53d
00000350: 9066 903e f55f 65be b3e5 9a3e 2b14 38be
00000360: b5ad 9cbe 6e0c 343e b8e6 d9bd 9fe8 173e
00000370: 8ae5 eebd ec3b 6ebe ef5b 653e 6529 ef3c
00000380: 57bb a93c 673a 96be 4d75 46bd ddec 2bbe
00000390: f08c 6c3c f6f6 573e 891d 3b3e 4725 973e
000003a0: 1573 9b3e d861 313d 1e0a 583e 61ae c3bd
000003b0: d393 583e c38a 483d ce5a 29be df59 643e
000003c0: 8198 923e 3525 8dbc a778 b1bd 793f 6dbe
000003d0: 8b27 b5bd fd72 f63c 1856 ca3b 7902 293e
000003e0: 3a52 a6bd e64e aa3e 8344 203d 2c98 8bbd
000003f0: 798e a3bc 8588 4e39 4ec8 983e 13bf a93d

conv1.bias f4 [128]
-0.050515268 0.14038162 -0.16222641 0.2218272 -0.12382304 -0.04925233 0.23275895 -0.07461783
-0.06638682 0.11706889 0.08945713 0.13686204 0.15140787 -0.32983914 0.31733406 0.01794311
0.21900728 0.2701976 0.17218605 -0.15588479 0.20544778 0.19558796 0.0071965754 0.2889441
-0.016341595 0.042309217 0.19415806 0.12605575 0.2893632 -0.27239117 0.08275687 0.29180327
0.24700189 0.31239453 0.06231498 -0.06676986 0.022660106 0.12251863 -0.1009889 0.17179036
-0.004905721 -0.33067647 0.2836973 0.12764657 -0.114913024 -0.22119069 0.17679031 -0.14149201
0.10168527 0.00047448618 0.0317081 -0.24071154 0.21012488 0.2068208 0.11995786 0.2940914
-0.27910548 0.268821 0.107259326 0.071196966 -0.036106616 0.29114848 -7.08393e-05 0.17458597
0.050358202 0.27969652 0.26582053 -0.051191926 0.19464996 0.270635 -0.24959454 0.1361768
0.26639557 -0.1345561 0.3021906 0.0027462165 0.10387799 0.018153682 -0.23229429 -0.26839703
0.25471404 0.001576242 -0.24642973 -0.09459986 -0.3165645 0.30716625 0.14561813 0.05431661
0.15429214 -0.25840694 -0.13607948 -0.038820818 0.024815088 0.27584273 0.12259394 0.0820405
-0.18083802 -0.16588184 -0.12457263 -0.17900139 -0.15506434 0.3151059 0.28599963 -0.14636211
-0.026966508 0.036630195 -0.2454909 -0.31877306 -0.021717114 0.082963996 0.11687129 -0.0700293
-0.2987791 0.26688418 0.18754174 0.0018918216 -0.22345436 -0.20040274 -0.039142773 -0.109684005
-0.20124148 -0.096196845 -0.011874429 0.23492329 -0.08050371 0.068864726 -0.08794566 0.2929643
00000000: 19e9 4ebd 33c0 0f3e ae1e 26be ab26 633e
00000010: ef96 fdbd d0bc 49bd 5d58 6e3e 3cd1 98bd
00000020: d0f5 87bd d0c1 ef3d 4d35 b73d 9025 0c3e
00000030: aa0a 1b3e ade0 a8be 9c79 a23e 6efd 923c
00000040: 7243 603e 5757 8a3e 8a51 303e 43a0 1fbe
00000050: e760 523e 3648 483e 40d1 eb3b 7bf0 933e
00000060: cfde 85bc 6e4c 2d3d 5fd1 463e c214 013e
00000070: 6a27 943e db76 8bbe 6f7c a93d 3d67 953e
00000080: 10ee 7c3e 2df2 9f3e fe3d 7f3d a3be 88bd
00000090: b0a1 b93c 0ceb fa3d 45d3 cebd d0e9 2f3e
000000a0: 2cc0 a0bb 6d4e a9be c640 913e c8b5 023e
000000b0: 8557 ebbd d07f 62be 8508 353e 48e3 10be
000000c0: 5e40 d03d 75c4 f839 5ae0 013d 167d 76be
000000d0: fa2a 573e d5c8 533e 77ac f53d 2693 963e
000000e0: eae6 8ebe e8a2 893e c7aa db3d b7cf 913d
000000f0: 88e4 13bd 6a11 953e 8f8f 94b8 aac6 323e
00000100: 6744 4e3d 6234 8f3e a119 883e a0ae 51bd
00000110: 5252 473e ac90 8a3e b695 7fbe ee71 0b3e
00000120: 0065 883e 13c9 09be bab8 9a3e def9 333b
00000130: fcbd d43d 08b7 943c 8ede 6dbe 566b 89be
00000140: e169 823e e899 ce3a 1358 7cbe 92bd c1bd
00000150: be14 a2be e544 9d3e eb1c 153e 187b 5e3d
00000160: c2fe 1d3e ea4d 84be 6b58 0bbe 9402 1fbd
00000170: 0349 cb3c 423b 8d3e 8812 fb3d da04 a83d
00000180: 9a2d 39be eedc 29be ef1f ffbd 244c 37be
00000190: 30c9 1ebe 8f55 a13e 8b6e 923e f3df 15be
000001a0: dee8 dcbc 8b09 163d f761 7bbe 3936 a3be
000001b0: 17e8 b1bc 07e9 a93d 375a ef3d 866b 8fbd
000001c0: 93f9 98be 0ba5 883e f10a 403e 00f7 f73a
000001d0: 38d1 64be 6036 4dbe 2c54 20bd 02a2 e0bd
000001e0: 3f12 4ebe da02 c5bd f78c 42bc bb8f 703e
000001f0: 21df a4bd f308 8d3d db1c b4bd 6bff 953e

conv2.weight f4 [56, 128, 3, 3]
-0.021363538 0.0074543674 -0.0030622426 0.01484731 -0.0130063 -0.00081142783 -0.012494862 -0.01952048
-0.011502044 0.007349381 -0.019723002 0.02135857 -0.015975635 0.021852328 0.025639592 -0.017133977
0.00973648 0.021462062 0.0036671888 0.013783721 -0.019848682 0.018500933 0.0066662524 0.020723524
-0.01718171 0.009531496 0.0061915684 0.015098004 -0.017471502 -0.006606294 -0.024900068 -0.0020614136
-0.024286069 0.0099373665 0.019415336 -0.009065781 0.0076010693 0.015129747 0.0059360545 0.007904379
-0.028070694 -0.022838209 -0.00795795 0.018517358 0.008142171 -0.02792383 0.009788988 -4.863739e-05
0.009056004 0.0018420313 0.0058096554 0.018913547 0.026296088 -0.01879865 0.02456527 0.025672121
0.00838059 0.017163577 0.003452843 -0.014630359 0.005660871 0.026670573 0.0136363 0.026586005
-0.009130398 0.029213658 0.019674214 -0.023783036 0.025981853 -0.018634468 -0.0034651272 -0.009852774
0.00200261 -0.0015319083 -0.0113853775 -0.0010466054 -0.017396087 -0.014726674 -0.003693821 -0.0016634911
0.004259417 -0.020196822 0.0080260355 0.028113367 -0.0030270778 0.015927961 -0.014472399 0.025896417
-0.023597319 0.008824358 -0.022085054 0.022843825 -0.0222929 0.018252214 -0.028035803 -0.01717136
-0.0042593963 0.0019702408 -0.01630253 0.007579254 0.010681385 0.024165591 0.010409219 -0.0032649934
-0.012970103 -0.009446235 0.026832962 0.021552345 -0.015761673 0.023440031 -0.0029493067 0.0052241143
0.0112532545 0.011181833 0.017408201 0.0045422036 -0.016964054 -0.011111764 -0.009143777 -0.026957469
0.02688693 -0.021310497 0.0054609384 0.0072402824 -0.001705816 0.02417093 -0.019575395 -0.022513894
0.0064632427 -0.006929796 -0.026654493 -0.011867614 -0.019446425 -0.0012321174 -0.012091696 0.026912598
-0.0024675895 0.014927147 -0.023634098 -0.027038854 -0.01333704 -0.012344291 -0.02057875 -0.021126766
-0.01466161 -0.022848457 0.021118147 -0.021876082 0.017406346 -0.010946358 0.023415824 -0.007412212
0.014184477 -0.0054888222 0.019551339 0.00794935 0.022679774 -0.007445477 -0.0005881451 -0.025877448
-0.02005865 -0.027422586 -0.011186125 -0.013682375 0.024190841 0.027580904 0.0064232033 -0.016968489
-0.01224968 0.022214351 0.01871661 -0.022183426 -0.00959946 0.004819909 0.01838859 -0.028433574
-0.025755893 0.0079760235 -0.018271657 -0.01629382 0.008427864 -0.020792698 -0.009503886 -0.015711453
-0.028420966 -0.0032298155 0.0036612581 0.0047606435 0.02763546 0.01220482 -0.029318163 0.016954435
0.027654918 0.020592796 -0.028506376 0.027118267 0.0055320244 0.014391864 -0.022753935 0.0030164327
0.0028248746 0.012341073 0.0053964984 0.009637484 0.026448162 0.017624823 0.0062295143 0.022638088
-0.007393485 -0.02944611 0.013588553 -0.0042776875 0.01749664 0.022329757 0.0035794582 -0.0155296875
-0.02824144 0.02536179 -0.01886937 0.017122695 0.012482708 -0.027514732 0.01801501 -0.021444056
-0.018098023 0.014295323 0.0005442314 0.023858292 -0.010158034 0.013385585 0.0046652947 -0.019141216
0.022019362 -0.023096781 0.011293871 0.013061905 0.008624615 0.024432553 -0.004112391 -0.022839889
0.0042352993 0.0032361168 -0.025583846 0.0073380675 -0.009527801 0.019534675 0.018815348 0.0040208492
-0.02170726 -0.019448698 0.026377773 -0.028199974 0.024107294 -0.025335703 0.007850675 0.0069482047
00000000: 9602 afbc c443 f43b e8af 48bb 2242 733c
00000010: 6018 55bc 00b6 54ba 40b7 4cbc 6ae9 9fbc
00000020: 1273 3cbc 14d3 f03b 2292 a1bc 2bf8 ae3c
00000030: 56df 82bc a703 b33c 1f0a d23c 8e5c 8cbc
00000040: c285 1f3c 35d1 af3c 3855 703b 1ed5 613c
00000050: b499 a2bc 458f 973c 9470 da3b 61c4 a93c
00000060: a8c0 8cbc fe29 1c3c a4e2 ca3b 9e5d 773c
00000070: 6520 8fbc 9c79 d8bb 3afb cbbc c818 07bb
00000080: 94f3 c6bc 56d0 223c e90c 9f3c a488 14bc
00000090: 6412 f93b c2e2 773c 3c83 c23b 5e81 013c
000000a0: 83f4 e5bc 3217 bbbc 1062 02bc b7b1 973c
000000b0: be66 053c 84c0 e4bc fe61 203c 0000 4cb8
000000c0: a25f 143c 5070 f13a ec5e be3b 95f0 9a3c
000000d0: e56a d73c a0ff 99bc 1b3d c93c 574e d23c
000000e0: be4e 093c a19a 8c3c 1849 623b 2cb4 6fbc
000000f0: d47e b93b 3f7c da3c ca6a 5f3c e5ca d93c
00000100: aa97 15bc 7b51 ef3c d12b a13c a4d4 c2bc
00000110: e5d7 d43c 50a7 98bc 3017 63bb 886d 21bc
00000120: 383e 033b 50ca c8ba bc89 3abc 402e 89ba
00000130: 3d82 8ebc 2648 71bc 0814 72bb 8009 daba
00000140: 9492 8b3b ce73 a5bc a27f 033c 014e e63c
00000150: f061 46bb 5b7b 823c a41d 6dbc b924 d43c
00000160: 2a4f c1bc 0a94 103c b7eb b4bc f922 bb3c
00000170: 9a9f b6bc ab85 953c 57ab e5bc f4aa 8cbc
00000180: 6892 8bbb 281f 013b e28c 85bc 645b f83b
00000190: fa00 2f3c ebf6 c53c 6e8b 2a3c 80f9 55bb
000001a0: 8e80 54bc 62c4 1abc cdd0 db3c 8b8e b03c
000001b0: a01e 81bc 4f05 c03c 2849 41bb 0c2f ab3b
000001c0: 925f 383c 0234 373c a59b 8e3c c4d6 943b
000001d0: 33f8 8abc 1e0e 36bc c8cf 15bc e9d5 dcbc
000001e0: fb41 dc3c 5a93 aebc acf1 b23b e43f ed3b
000001f0: b095 dfba 1d02 c63c 945c a0bc 0f6f b8bc
00000200: 9cc9 d33b 5813 e3bb 865a dabc 6270 42bc
00000210: 1c4e 9fbc 007f a1ba 401c 46bc cf77 dc3c
00000220: 48b7 21bb fe90 743c 4c9c c1bc 9680 ddbc
00000230: 9a83 5abc b63f 4abc c494 a8bc 0a12 adbc
00000240: 4037 70bc b02c bbbc f7ff ac3c 7835 b3bc
00000250: c197 8e3c 5a58 33bc 8bd2 bf3c 24e2 f2bb
00000260: 0266 683c 94db b3bb 212a a03c fe3d 023c
00000270: efca b93c 30f9 f3bb c02d 1aba f1fc d3bc
00000280: 0a52 a4bc 55a5 e0bc 0246 37bc 0a2c 60bc
00000290: df2b c63c 59f1 e13c bc79 d23b 8001 8bbc
000002a0: e2b2 48bc dffa b53c 9353 993c 04ba b5bc
000002b0: 0e47 1dbc 54f0 9d3b aba3 963c 87ed e8bc
000002c0: 06fe d2bc dead 023c 71ae 95bc 9e7a 85bc
000002d0: 0615 0a3c 7355 aabc 30b6 1bbc 4eb5 80bc
000002e0: 16d3 e8bc 50ab 53bb b8f1 6f3b 2cff 9b3b
000002f0: c363 e23c baf6 473c a52c f0bc 07e4 8a3c
00000300: 918c e23c 39b2 a83c 3486 e9bc 2127 de3c
00000310: fc45 b53b dacb 6b3c 7666 babc 58af 453b
00000320: 8821 393b 3632 4a3c 1cd5 b03b 8ae6 1d3c
00000330: d1a9 d83c ef61 903c f420 cc3b 8373 b93c
00000340: 0c45 f2bb f838 f1bc 86a2 5e3c d82b 8cbb
00000350: 1d55 8f3c e5ec b63c 5895 6a3b 3b70 7ebc
00000360: 985a e7bc 87c3 cf3c f093 9abc e544 8c3c
00000370: 4684 4c3c 9366 e1bc 3794 933c 72ab afbc
00000380: 4e42 94bc ee36 6a3c c0aa 0e3a 7772 c33c
00000390: e26d 26bc 364f 5b3c 54df 983b 0ace 9cbc
000003a0: f361 b43c 7635 bdbc ee09 393c 9a01 563c
000003b0: 424e 0d3c c726 c83c 3cc1 86bb b81a bbbc
000003c0: 44c8 8a3b 0815 543b 3795 d1bc 2c74 f03b
000003d0: 7e1a 1cbc 2f07 a03c a522 9a3c 54c1 833b
000003e0: 6cd3 b1bc e052 9fbc 3316 d83c a203 e7bc
000003f0: a97c c53c d28c cfbc 1ea0 003c c4ad e33b

conv2.bias f4 [56]
0.003071813 -0.006723609 0.023821324 -0.010157156 -0.019010128 0.0039932746 -0.018035982 -0.009277593
-0.015327857 0.02822447 -0.014291659 -0.00083160936 0.00020508097 0.0024322886 -0.02428289 -0.010463107
-0.007335799 -0.013310063 0.00645038 0.0090369275 -0.007047507 -0.0029721747 0.021183698 0.016905451
-0.027759805 -0.0038992767 -0.019588621 0.029395297 -0.026285864 -0.012302728 -0.0061276276 0.025613936
-0.011408426 0.02192034 0.0036966745 -0.0010212883 0.0133345695 0.026398754 -0.006737456 -0.00171211
0.012356432 0.005505735 0.02732359 0.0019448083 0.008603329 0.02144921 -0.012115564 0.005518498
0.011314922 0.02904448 -0.008104501 0.019781658 -0.0016324781 -0.023497365 0.0069450606 0.017059837
00000000: 7850 493b b851 dcbb f024 c33c 336a 26bc
00000010: 21bb 9bbc 04da 823b 32c0 93bc 0c01 18bc
00000020: b121 7bbc 0137 e73c 9027 6abc 5c00 5aba
00000030: 010b 5739 0867 1f3b e9ec c6bc 746d 2bbc
00000040: 2461 f0bb 7312 5abc b65d d33b 9f0f 143c
00000050: c6ee e6bb d1c8 42bb 6f89 ad3c 4d7d 8a3c
00000060: 8868 e3bc 028b 7fbb 5178 a0bc 68ce f03c
00000070: 7455 d7bc 6291 49bc 44ca c8bb 51d4 d13c
00000080: 68ea 3abc 4992 b33c e843 723b c0dc 85ba
00000090: 3d79 5a3c 3342 d83c e1c5 dcbb e168 e0ba
000000a0: a272 4a3c 7469 b43b b9d5 df3c f0e8 fe3a
000000b0: faf4 0c3c 41b6 af3c 5c80 46bc 84d4 b43b
000000c0: 3962 393c b0ee ed3c bec8 04bc 250d a23c
000000d0: e0f8 d5ba 8c7d c0bc 6493 e33b 12c1 8b3c

fc1.weight f4 [256, 560]
0.029529758 -0.022397563 0.021052375 -0.018235158 -0.019707441 -0.040856864 -0.025643393 0.014936332
-0.021232855 -0.008149672 0.023695454 -0.007606894 0.033150636 -0.00094693527 -0.0050425604 0.012234822
0.019797683 0.0067081302 0.0150514245 -0.008615322 -0.03729786 -0.027395416 -0.013659288 -0.008932831
0.020439949 -0.020110466 0.011894593 -0.0378024 -0.01993948 -0.00035305563 0.008318788 -0.0046071107
0.020465393 0.011220372 0.033188757 0.010853287 0.03052886 0.029327359 -0.03721416 -0.030667458
0.016439784 -0.0027460598 -0.040234733 0.019251322 -0.017679222 0.023620393 0.004400532 -0.004557963
-0.03114347 0.030389074 -0.01154506 0.02112884 0.037278943 0.0063789263 0.025523745 -0.029551927
0.00015082955 -0.030702587 -0.009027127 -0.014597101 -0.009892218 0.0061174 0.03534887 0.037886493
0.04153028 0.015200883 -0.024862312 -0.024841573 0.041062124 0.013665628 0.03693667 0.0006104857
-0.03788267 0.0127951875 0.0006785989 0.032336973 -0.010455079 -0.024251312 -0.026736533 -0.018640123
0.036322646 -0.03814847 -0.014120372 -0.02772379 -0.01708995 -0.02763009 -0.008876115 -0.025253752
0.0072522387 -0.020464806 0.02402667 0.025174618 0.019936357 -0.0050445497 0.014281325 0.013978388
-0.0066286363 0.02338583 0.022148646 -0.036313646 0.029070579 0.024114758 -0.01988663 -0.03451872
-0.041314844 -0.008200917 0.033913612 0.01148713 -0.027636912 -0.012144579 -0.012515128 0.016176837
-0.010140437 -0.041165635 -0.008923117 -0.035921242 -0.0031358248 -0.02064956 0.036231905 0.012221691
-0.03744265 -0.019985655 -0.041909836 -0.028166357 0.003397405 -0.031137964 -0.017523967 -0.0224104
-0.027609652 0.01567819 -0.03869079 0.021129772 -0.009086348 -0.0411323 -0.018135244 -0.04185862
0.01458044 0.022474311 -0.006363988 0.001283709 -0.038031474 -0.020675883 0.019763608 -0.02040437
-0.018479975 0.0016725138 0.0075082146 0.0030340888 -0.023700269 0.026588164 0.013961254 0.014040252
-0.02936 0.03561219 0.033946723 -0.038445607 -0.020353753 0.009042229 -0.008999811 -0.04140502
0.006769295 0.011413191 -0.011238812 -0.018364443 0.006788135 0.01951174 0.036523495 -0.010506493
0.0064565684 0.025710937 0.009920447 -0.009297116 -0.019460537 0.035075564 -0.0033911946 -0.00066543877
-0.0033229622 0.0039713765 0.013011386 0.037438713 -0.012363892 -0.012292772 -0.04058592 -0.030303584
0.0048256307 0.012299937 -0.003508166 0.01170215 0.010694914 -0.021788653 -0.02554561 0.0031127054
0.035688747 0.009954492 0.040718667 -0.008295141 0.037583735 -0.0036351955 0.04184888 0.014091687
0.035710163 -0.029376028 0.021557152 -0.03147512 0.036173724 -0.0024937503 0.023911327 -0.026444418
0.007058669 0.023465313 -0.01933859 -0.020716898 0.029047584 0.034780852 0.019973641 -0.019044891
-0.023175929 0.025980262 0.006646268 0.013741506 -0.020822357 -0.024959713 -0.0139588555 0.0202921
0.01808578 -0.008585461 0.021876607 -0.0016367895 -0.006036646 0.022586158 0.03338018 -0.030704133
-0.0055465475 -0.010163158 0.015248336 0.016718555 0.033027425 0.036385924 0.03714416 0.032217637
0.03768082 -0.039875902 0.03460658 0.02891347 -0.035669748 0.032381587 -0.017244648 0.010703105
0.00993937 -0.029779296 0.040245123 -0.021256946 -0.005955686 -0.010169759 0.034330733 0.004964994
00000000: 64e8 f13c 187b b7bc 0876 ac3c e661 95bc
00000010: 8071 a1bc 8759 27bd 1812 d2bc 84b7 743c
00000020: 86f0 adbc 3486 05bc f81c c23c 4043 f9bb
00000030: f6c8 073d c03b 78ba 103c a5bb 9074 483c
00000040: c02e a23c e0cf db3b 409a 763c 4827 0dbc
00000050: a4c5 18bd 5a6c e0bc 35cb 5fbc 025b 12bc
00000060: ae71 a73c b4be a4bc 8ae1 423c b0d6 1abd
00000070: 1f58 a3bc 531a b9b9 874b 083c 3ff7 96bb
00000080: 0aa7 a73c a7d5 373c eff0 073d fcd1 313c
00000090: a917 fa3c ee3f f03c e06d 18bd 523a fbbc
000000a0: baac 863c 3df7 33bb 2dcd 24bd f3b4 9d3c
000000b0: 04d4 90bc 8e7f c13c 5732 903b f75a 95bb
000000c0: 9720 ffbc 82f2 f83c 7e27 3dbc 6416 ad3c
000000d0: ceb1 183d 5006 d13b 2c17 d13c e216 f2bc
000000e0: 0028 1e39 fe83 fbbc 84e6 13bc ae28 6fbc
000000f0: f812 22bc 7874 c83b fac9 103d de2e 1b3d
00000100: a81b 2a3d 200d 793c 0cac cbbc 8e80 cbbc
00000110: c230 283d cce5 5f3c e84a 173d 0009 203a
00000120: dc2a 1bbd e8a2 513c 00e4 313a c673 043d
00000130: c84b 2bbc b0aa c6bc 9306 dbbc 2cb3 98bc
00000140: 0ec7 143d 9241 1cbd 2259 67bc 001d e3bc
00000150: 3900 8cbc 8058 e2bc 206d 11bc f5e0 cebc
00000160: 30a4 ed3b cfa5 a7bc 94d3 c43c 003b ce3c
00000170: 9251 a33c c04c a5bb 38fc 693c 9c05 653c
00000180: 0835 d9bb a493 bf3c 1471 b53c 9ebd 14bd
00000190: 6c25 ee3c 508c c53c 49e9 a2bc 8063 0dbd
000001a0: c139 29bd 245d 06bc 00e9 0a3d 8434 3c3c
000001b0: ce66 e2bc 0efa 46bc 400c 4dbc 4985 843c
000001c0: 1324 26bc 4c9d 28bd 4432 12bc 2722 13bd
000001d0: 6982 4dbb 4429 a9bc e867 143d 7d3d 483c
000001e0: 775d 19bd f5b8 a3bc a6a9 2bbd 22bd e6bc
000001f0: ffa6 5e3b 0b15 ffbc 6c8e 8fbc 0496 b7bc
00000200: a32d e2bc 8c6f 803c 3c7a 1ebd 5818 ad3c
00000210: e8de 14bc 587a 28bd 5d90 94bc f273 2bbd
00000220: cce2 6e3c 0c1c b83c 0089 d0bb 2042 a83a
00000230: e4c6 1bbd 7860 a9bc 4ae7 a13c 1127 a7bc
00000240: 5163 97bc 4038 db3a 7807 f63b 90d7 463b
00000250: 1127 c2bc 6ccf d93c bebd 643c 1609 663c
00000260: 6284 f0bc 16de 113d b80b 0b3d 2479 1dbd
00000270: eabc a6bc db25 143c f173 13bc 4f98 29bd
00000280: f6d0 dd3b 65fe 3a3c fe22 38bc 0771 96bc
00000290: 016f de3b 16d7 9f3c a999 153d 6d23 2cbc
000002a0: 9f91 d33b be9f d23c 5f89 223c ee52 18bc
000002b0: b46b 9fbc 65ab 0f3d ce3e 5ebb d770 2eba
000002c0: 0ec6 59bb 5222 823b b52d 553c 5659 193d
000002d0: ec91 4abc 9f67 49bc 6c3d 26bd 393f f8bc
000002e0: 5320 9e3b ad85 493c 42e9 65bb 60ba 3f3c
000002f0: b839 2f3c 1e7e b2bc 0745 d1bc 88fe 4b3b
00000300: 5d2e 123d 2a18 233c 9ec8 263d 58e8 07bc
00000310: 67f1 193d 763c 6ebb bb69 2b3d d2e0 663c
00000320: d244 123d ffa5 f0bc a098 b03c 0eec 00bd
00000330: e62a 143d 306e 23bb b0e1 c33c f7a1 d8bc
00000340: 684c e73b 543a c03c f66b 9ebc 7cb6 a9bc
00000350: 33f5 ed3c 5e76 0e3d c39f a33c 0804 9cbc
00000360: 72db bdbc 8fd4 d43c f0c8 d93b 0e24 613c
00000370: a693 aabc 5078 ccbc afb3 64bc 9e3b a63c
00000380: a128 943c 09aa 0cbc 9236 b33c 8b89 d6ba
00000390: 0fcf c5bb 9b06 b93c a8b9 083d 3c87 fbbc
000003a0: d0bf b5bb 6083 26bc 28d4 793c 5af5 883c
000003b0: c447 073d 6809 153d 7a24 183d a4f6 033d
000003c0: 3457 1a3d ea54 23bd a1bf 0d3d f1db ec3c
000003d0: 711a 12bd 8ea2 043d a644 8dbc 135c 2f3c
000003e0: bdd8 223c b6f3 f3bc 12d8 243d 0c23 aebc
000003f0: ea27 c3bb 109f 26bc 629e 0c3d 63b1 a23b

fc1.bias f4 [256]
0.013856001 0.029074524 -0.007331148 -0.024240432 0.03472302 -0.021699883 -0.0015283127 0.0339721
0.0024185423 -0.010935202 -0.028402586 -0.008724585 -0.013653414 -0.036592893 0.009194359 0.015221581
-0.0077211186 0.040808156 -0.03616181 -0.012151125 -0.034492258 0.013314041 -0.021657452 -0.002481372
-0.037885357 -0.03222073 -0.016559424 -0.021731554 0.023081256 -0.02010012 0.0241275 -0.030907553
0.0004492813 -0.0041161617 0.00057272613 -0.040591452 0.005145505 0.016079344 0.003246177 0.0013339904
-0.00031476468 0.040887967 -0.023311334 -0.03920835 -0.041403312 0.01268324 -0.019930422 -0.030436512
-0.026546966 0.03294025 -0.02335794 0.030643985 -0.029316278 0.0028179772 0.0021574579 0.022908654
0.013293146 0.041253045 -0.04136662 0.0015873499 0.0008154772 0.015370004 0.041450337 0.039249197
-0.031719364 -0.02031666 -0.0053592455 0.021674128 0.0064096362 -0.03160645 0.012557388 0.014336719
-0.039972812 0.02429816 -0.010084942 -0.029659351 -0.0038183688 -0.039650366 0.03120543 -0.015954833
0.038618818 -0.008565013 0.016818207 0.013543037 -0.023798555 -0.028490309 -0.02793218 0.033445604
-0.026537003 -0.020188132 -0.012537917 -0.016854431 -0.02746272 0.034284644 -0.025986081 -0.033216204
0.03803215 0.0012123593 0.030787282 0.014658527 -0.016728781 -0.015382323 0.014423163 0.03909928
0.028547447 -0.014193894 0.0017306879 0.038933083 -0.031511188 0.00017722324 0.0034475294 0.02619946
-0.009953923 0.026814334 -0.0067486875 -0.004027311 -0.035456173 -0.03883901 -0.02066266 0.0006034288
-0.01697089 0.040891223 0.040003188 -0.014937466 0.02366401 -0.011984292 0.02202236 -0.00404758
-0.0052651763 -0.00087603927 0.018485826 -0.0018655472 -0.0112809725 0.028954327 -0.04069048 -0.035319995
0.007625755 0.0010834374 0.028973289 -0.028604308 0.01987202 -0.011327828 0.013132243 0.008038017
0.036185887 0.016278826 0.012894312 0.0020598099 -0.003591714 -0.008844766 -0.020749485 -0.020175938
-0.012028569 -0.013626069 0.008614972 0.02936811 -0.0041173757 0.035624564 0.010697601 0.023754688
-0.012776196 -0.028337706 -0.01991014 -0.023180392 0.020310357 0.0050471774 -0.012257174 0.023336321
0.024670906 -0.014708269 -0.037622165 0.022665195 -0.040062156 0.017581403 -0.0298649 0.0115407035
-0.04050233 0.01487527 -0.008755889 -0.0027065957 0.021155894 -0.029642092 -0.015642293 -0.0149987005
-0.0077824257 -0.022993162 0.038252972 -0.03991784 -0.021258382 0.0054099015 -0.0064652786 0.037687782
0.019391242 -0.03344996 0.014307169 0.030554257 -0.001299919 0.037983924 0.039777555 -0.010393273
-0.014241898 0.024402136 -0.005283851 0.012113921 0.02359534 -0.03975193 0.035685606 0.023413558
0.012464497 -0.035478324 -0.027756225 -0.036211208 0.0053884387 -0.0059885196 0.032258473 0.01032075
0.02201876 0.033180006 -0.040798426 -0.010863486 0.037093718 -0.010380605 -0.034062613 0.027167454
-0.01658249 -0.030943861 0.018626127 -0.007976303 -0.023791917 0.010233391 0.017924082 -0.021464229
0.0051508294 0.03503614 -0.027981352 0.022225302 0.012275271 0.0043687224 -0.017839225 -0.029114768
0.031865068 -0.03843912 6.995897e-05 -0.0419645 -0.01650961 0.01153839 -0.027289178 -0.014129648
0.018750098 -0.014875173 -0.040656988 0.040241744 0.025827363 -0.022519616 -0.020505635 -0.029659271
00000000: 4804 633c b22d ee3c 203a f0bb df93 c6bc
00000010: ba39 0e3d f4c3 b1bc aa51 c8ba 5426 0b3d
00000020: 6880 1e3b 9029 33bc 8aac e8bc 90f1 0ebc
00000030: 92b2 5fbc 6ee2 15bd f0a3 163c f063 793c
00000040: 7001 fdbb 7426 273d 681e 14bd 8315 47bc
00000050: c147 0dbd 2323 5a3c f86a b1bc 849e 22bb
00000060: ad2d 1bbd e2f9 03bd a1a7 87bc 5f06 b2bc
00000070: e714 bd3c 02a9 a4bc 09a7 c53c d631 fdbc
00000080: 848d eb39 dee0 86bb 0023 163a 3943 26bd
00000090: a09b a83b d4b8 833c d0bd 543b 4ad9 ae3a
000000a0: 0007 a5b9 247a 273d 69f7 bebc ef98 20bd
000000b0: 8596 29bd 5dcd 4f3c 2045 a3bc fe55 f9bc
000000c0: 0679 d9bc 5bec 063d 2759 bfbc 1809 fb3c
000000d0: b128 f0bc d0ad 383b 2364 0d3b eeaa bb3c
000000e0: 7fcb 593c f4f8 283d 0c70 29bd a00e d03a
000000f0: c0c5 553a 78d2 7b3c d4c7 293d c4c3 203d
00000100: 2aec 01bd 206f a6bc 9c9c afbb f18d b13c
00000110: ed07 d23b c475 01bd 81bd 4d3c 8fe4 6a3c
00000120: 88ba 23bd ef0c c73c 503b 25bc 2bf8 f2bc
00000130: 993d 7abb 6c68 22bd 88a2 ff3c b6b3 82bc
00000140: c42e 1e3d 4554 0cbc 56c6 893c 9de3 5d3c
00000150: 30f5 c2bc 8264 e9bc 07d2 e4bc 42fe 083d
00000160: 2164 d9bc 9561 a5bc d66b 4dbc 4e12 8abc
00000170: 80f9 e0bc 0e6e 0c3d c3e0 d4bc b70d 08bd
00000180: 9ac7 1b3d 07e8 9e3a 9c35 fc3c 522a 703c
00000190: cc0a 89bc 2406 7cbc 214f 6c3c 9126 203d
000001a0: 56dc e93c 828d 68bc 40d8 e23a 4c78 1f3d
000001b0: e011 01bd 00d5 3939 f2ef 613b 40a0 d63c
000001c0: c715 23bc bca9 db3c 1824 ddbb 89f7 83bb
000001d0: 7e3a 11bd a715 1fbd bd44 a9bc 6c2f 1e3a
000001e0: 8906 8bbc 8e7d 273d 62da 233d 46bc 74bc
000001f0: 07db c13c c459 44bc 3c68 b43c 90a1 84bb
00000200: 8087 acbb 00a6 65ba 966f 973c 6085 f4ba
00000210: d4d3 38bc a031 ed3c 10ab 26bd b3ab 10bd
00000220: 78e1 f93b 2002 8e3a 6459 ed3c 9553 eabc
00000230: a6ca a23c 5b98 39bc 9f28 573c e3b1 033c
00000240: a737 143d 2c5b 853c aa42 533c e0fd 063b
00000250: f662 6bbb a3e9 10bc d3fa a9bc 0248 a5bc
00000260: 7a13 45bc e03f 5fbc d025 0d3c 6495 f03c
00000270: 0deb 86bb 10eb 113d fe44 2f3c 3199 c23c
00000280: 4053 51bc 7a24 e8bc 971a a3bc cee4 bdbc
00000290: e861 a63c cb62 a53b 50d2 48bc d02b bf3c
000002a0: a41a ca3c f4fa 70bc b319 1abd 5cac b93c
000002b0: 3718 24bd e006 903c 3ca7 f4bc 3815 3d3c
000002c0: c5e5 25bd 68b7 733c dc74 0fbc 2461 31bb
000002d0: 204f ad3c f9d3 f2bc 4424 80bc 1cbd 75bc
000002e0: b803 ffbb 285c bcbc 26af 1c3d e480 23bd
000002f0: 0f26 aebc 8b45 b13b b0da d3bb 815e 1a3d
00000300: 62da 9e3c d302 09bd 9e68 6a3c ec4c fa3c
00000310: 0b62 aaba 0895 1b3d caed 223d 8c48 2abc
00000320: da56 69bc fde6 c73c 2824 adbb 7879 463c
00000330: 044b c13c ebd2 22bd 122b 123d cacd bf3c
00000340: e437 4c3c b851 11bd 0661 e3bc 3452 14bd
00000350: 8091 b03b 583b c4bb 7621 043d 5d18 293c
00000360: b060 b43c c2e7 073d 401c 27bd c3fc 31bc
00000370: 95ef 173d 6a13 2abc 3d85 0bbd 488e de3c
00000380: 01d8 87bc fb7d fdbc d295 983c 0aaf 02bc
00000390: 44e7 c2bc f4a9 273c 86d5 923c c0d5 afbc
000003a0: 4ac8 a83b 0e82 0f3d 2639 e5bc d611 b63c
000003b0: 381e 493c 8027 8f3b 9123 92bc 1882 eebc
000003c0: f284 023d 5772 1dbd f0b6 9238 f8e2 2bbd
000003d0: 293f 87bc 840b 3d3c 8e8d dfbc 0a80 67bc
000003e0: ce99 993c ffb6 73bc f187 26bd 87d4 243d
000003f0: e893 d33c 0f7b b8bc 6ffb a7bc 00f8 f2bc

fc2.weight f4 [128, 256]
0.028369296 -0.026374703 -0.047503985 -0.011837311 -0.05884978 -0.037733935 -0.033665814 -0.021680474
-0.014725461 0.051139817 -0.018356502 0.0028705923 0.057061933 0.035082664 -0.0015211105 -0.056232482
0.042413026 0.021565339 -0.045195833 -0.041556392 0.014499333 0.01184008 0.01552677 0.02370826
-0.020161338 0.03280854 0.02331148 0.043636523 0.041744675 0.021426387 -0.02041097 -0.05828646
-0.01865785 0.021812504 -0.019881062 0.031075224 -0.035067417 -0.019431751 -0.01894638 -0.00053736824
0.032733336 0.01857705 0.0040433374 0.015309063 -0.020498248 0.046768893 -0.018855922 0.059839744
-0.012256475 0.008519812 -0.021429716 0.043231912 0.05623377 -0.056092262 -0.045252487 0.02997627
-0.04826611 -0.01962422 0.03433708 -0.061058775 -0.0023564696 -0.022545882 0.012207207 -0.0024375692
0.040344693 0.037252754 0.051353563 0.00247941 0.020627763 0.061563015 0.051825967 -0.01583403
0.026441896 -0.0118135605 -0.05053118 -0.016117126 0.002256294 -0.05138445 -0.058190018 0.004727057
-0.050747864 -0.012218733 -0.004378809 -0.027668657 0.029417329 0.06216824 0.011366458 -0.03448282
0.046412222 -0.054311417 0.055198867 0.044803783 -0.020366907 -0.025165869 0.031355754 0.028985709
0.057387598 0.033307973 0.0022239387 -0.021600105 0.03928322 -0.022050925 0.0018873641 0.00016019212
-0.05391246 -0.030751206 -0.027062453 0.009529542 0.037668105 0.0062380433 0.021101298 -0.040104307
-0.024501724 0.0052612126 0.035714786 -0.033351626 0.0554046 0.0075976476 -0.023854062 0.052554406
0.013184862 -0.0016322732 0.0122537 -0.04761429 -0.060409654 0.020834234 -0.020099103 -0.03482671
-0.043618813 0.06054449 0.056805298 0.0056621805 -0.044389736 -0.05527366 0.046828754 -0.028313406
0.03959231 0.058250874 0.014673293 0.05006424 0.034452103 -0.03058741 0.045634564 0.015198142
0.049551703 -0.042106725 -0.027762879 0.0023930445 0.007219647 0.05891378 -0.02872163 -0.0006210501
0.009926518 -0.056720775 0.008985952 -0.018426098 -0.046280917 0.040987108 -0.027406573 -0.04991709
0.007144402 -0.0144994585 -0.010427833 0.03157445 0.0590664 -0.053627774 -0.049693972 -0.061592072
-0.020256087 0.062129617 0.013494013 -0.023375198 -0.03206899 0.015910247 0.017820612 0.05252455
0.007837762 0.038590636 -0.03059426 -0.037385814 0.058648333 0.04928648 0.03871112 -0.051085874
-0.033171333 0.0038267747 -0.04660326 -0.0122837145 0.048633277 -0.044137936 0.043624654 -0.038384087
0.0542665 -0.0591834 -0.0195042 0.025016246 0.059498113 0.059200156 -0.006799884 0.02821748
-0.041223813 0.026946437 -0.022665545 -0.028110981 -0.036287233 0.023232246 0.04547923 0.037317663
0.049238674 0.051989205 -0.052644394 0.009683939 -0.06124504 -0.03574653 -0.046312504 -0.025385035
0.052451506 0.046695117 -0.05012954 0.051421557 0.0039919633 -0.0066034915 0.031110324 0.040354006
-0.0046204403 0.0026531161 -0.03374233 0.031858526 0.020760283 0.011319518 0.03472118 -0.05862932
0.017789135 0.019436212 0.04559552 -0.044371106 0.00857579 -0.03850095 0.028806478 0.03436093
0.041865423 0.0010163697 -0.021799406 -0.008739906 0.011637488 0.0508328 0.0034963712 0.014901184
-0.05618303 -0.045515582 0.012741193 0.017666437 0.042067543 -0.010377869 0.01797758 -0.0379861
00000000: ba66 e83c c30f d8bc 8a93 42bd 48f1 41bc
00000010: 780c 71bd e68e 1abd 2ae5 09bd 409b b1bc
00000020: 0f43 71bc fc77 513d 6060 96bc 8c20 3c3b
00000030: c6b9 693d d7b2 0f3d 0060 c7ba 0854 66bd
00000040: 48b9 2d3d cba9 b03c 441f 39bd 0937 2abd
00000050: 9c8e 6d3c e5fc 413c fe63 7e3c d337 c23c
00000060: 6429 a5bc 3f62 063d b8f7 be3c 36bc 323d
00000070: 77fc 2a3d 6486 af3c e834 a7bc c8bd 6ebd
00000080: 59d8 98bc 23b0 b23c 9cdd a2bc 7891 fe3c
00000090: daa2 0fbd 562f 9fbc 7035 9bbc 2cde 0cba
000000a0: 6413 063d e62e 983c f97d 843b ddd2 7a3c
000000b0: f1eb a7bc bd90 3f3d bc77 9abc 851a 753d
000000c0: 62cf 48bc ae96 0b3c 5f8d afbc f213 313d
000000d0: 6255 663d 00c1 65bd ac5a 39bd cb90 f53c
000000e0: afb2 45bd f9c2 a0bc 0aa5 0c3d c418 7abd
000000f0: 006f 1abb 24b2 b8bc bd00 483c a0bf 1fbb
00000100: 7a40 253d 5896 183d 1d58 523d 997d 223b
00000110: 8efb a83c 8029 7c3d 7747 543d 5eb6 81bc
00000120: ad9c d83c aa8d 41bc c8f9 4ebd 1008 84bc
00000130: 55de 133b 8078 52bd a858 6ebd 6ee5 9a3b
00000140: fedc 4fbd 1531 48bc 1d7c 8fbb 61a9 e2bc
00000150: 9cfc f03c 20a4 7e3d 613a 3a3c dc3d 0dbd
00000160: be1a 3e3d a675 5ebd 3518 623d 2c84 373d
00000170: 80d8 a6bc a728 cebc e46e 003d 7073 ed3c
00000180: 420f 6b3d f16d 083d 80bf 113b b4f2 b0bc
00000190: 71e7 203d 24a4 b4bc 6e61 f73a 3ff9 2739
000001a0: 50d3 5cbd f4e9 fbbc 14b2 ddbc cc21 1c3c
000001b0: df49 1a3d 8068 cc3b a1dc ac3c 6a44 24bd
000001c0: d7b7 c8bc 4066 ac3b ab49 123d b79b 08bd
000001d0: efef 623d b0f5 f83b 9869 c3bc 4a43 573d
000001e0: 5205 583c 00f2 d5ba bec3 483c 3407 43bd
000001f0: 1d70 77bd 8eac aa3c e0a6 a4bc 74a6 0ebd
00000200: a4a9 32bd 80fd 773d acac 683d d089 b93b
00000210: 03d2 35bd a266 62bd 82cf 3f3d 84f1 e7bc
00000220: 8c2b 223d 7898 6e3d 4068 703c 2910 4d3d
00000230: a61d 0d3d 7392 fabc 4feb 3a3d a101 793c
00000240: baf6 4a3d 1a78 2cbd fa6e e3bc a0d4 1c3b
00000250: ca92 ec3b 934f 713d a049 ebbc f7cd 22ba
00000260: d6a2 223c 0b54 68bd d039 133c 54f2 96bc
00000270: 0f91 3dbd 19e2 273d c083 e0bc dd75 4cbd
00000280: 961b ea3b 238f 6dbc 80d9 2abc 3654 013d
00000290: 9cef 713d cca8 5bbd e88b 4bbd f847 7cbd
000002a0: 18f0 a5bc a07b 7e3d fe15 5d3c 587d bfbc
000002b0: c65a 03bd 3556 823c 88fc 913c fc23 573d
000002c0: f569 003c 3711 1e3d d0a0 fabc de21 19bd
000002d0: 3c39 703d 9fe0 493d 8d8f 1e3d 6c3f 51bd
000002e0: aade 07bd a0ca 7a3b 0fe3 3ebd a241 49bc
000002f0: b033 473d fbc9 34bd c4af 323d a238 1dbd
00000300: 8d46 5e3d 4b6a 72bd 46c7 9fbc dfee cc3c
00000310: 4bb4 733d dd7b 723d 90d1 debb 5828 e73c
00000320: 4dda 28bd c6be dc3c 18ad b9bc 0049 e6bc
00000330: eca1 14bd 8d51 be3c 6e48 3a3d 68da 183d
00000340: 7eae 493d a2f2 543d a6a1 57bd 62a9 1e3c
00000350: 14dc 7abd f46a 12bd 2eb2 3dbd 47f4 cfbc
00000360: 64d7 563d 6143 3f3d a254 4dbd 699f 523d
00000370: 04cf 823b 1a62 d8bb 14db fe3c 3e4a 253d
00000380: 1067 97bb e7df 2d3b 6635 0abd 167e 023d
00000390: 7811 aa3c 8075 393c cc37 0e3d 4c25 70bd
000003a0: 85ba 913c b138 9f3c 5ec2 3a3d 7abe 35bd
000003b0: 7881 0c3c 2cb3 1dbd 90fb eb3c 0cbe 0c3d
000003c0: 147b 2b3d b537 853a ab94 b2bc d331 0fbc
000003d0: 2aab 3e3c 0e36 503d 6023 653b 1824 743c
000003e0: 2d20 66bd 8c6e 3abd 70c0 503c 34b9 903c
000003f0: 044f 2c3d f007 2abc b845 933c 5097 1bbd

fc2.bias f4 [128]
0.0602772 -0.03491229 0.010179065 -0.017956927 0.04537475 -0.018473163 0.0054124263 0.009110674
0.0023463443 -0.009615876 -0.0049734637 -0.012731997 0.027800128 -0.044119254 0.033645317 -0.00620261
-0.0039772303 0.059116602 -0.03812423 -0.023321643 -0.0019529462 -0.024194472 -0.005317293 0.05966203
-0.057959348 -0.046713047 0.039546713 -0.02880887 0.00036659904 -0.046713635 0.03620483 -0.029017635
-0.019556139 -0.023903646 -0.05735875 -0.030119129 -0.05625397 0.010354658 0.05448591 0.063440114
-0.06125056 0.017761912 -0.005034105 -0.051200435 0.03462286 -0.04378161 0.031034082 -0.0394997
-0.0154040605 0.042236224 -0.04891196 0.03931571 -0.033213817 -0.026278427 0.043001626 -0.05303499
-0.059554584 0.03346761 0.043869555 0.031795107 -0.05102279 -0.035093818 0.024686165 -0.030334726
-0.014279325 0.046234503 -0.00082087517 0.02852183 -0.040018663 -0.0143830115 0.03812947 -0.006151341
0.04148798 -0.049028426 0.036941748 -0.030139841 0.02069752 -0.017195344 -0.04253585 -0.004108249
0.03457978 -0.060941946 0.0061677545 0.0032189107 0.03209065 -0.028287424 -0.052141614 -0.019779662
-0.01756356 0.008901663 -0.045592852 -0.02947224 -0.045219664 -0.059243515 0.043241143 0.04940688
0.02825507 -0.055513106 0.035825804 -0.04232623 -0.01877933 -0.0332343 0.01996673 0.0074160825
-0.038987592 0.05327535 -0.052129492 0.03857271 -0.012520677 -0.024150215 -0.0058179796 -0.058152102
0.024107158 0.002981864 0.010381483 0.0012534708 0.054896683 -0.02885259 0.0167429 0.016382068
-0.014300995 -0.031632453 -0.02558808 0.014952139 -0.055282265 -0.00764437 -0.015776545 -0.053453244
00000000: 3ae5 763d 3000 0fbd 18c6 263c 681a 93bc
00000010: e0da 393d 0855 97bc b95a b13b f044 153c
00000020: 20c5 193b e88b 1dbc 70f8 a2bb de99 50bc
00000030: 18bd e33c 64b6 34bd accf 093d 443f cbbb
00000040: 6d53 82bb 4024 723d 2728 1cbd 080d bfbc
00000050: 00fa ffba 7c33 c6bc b03c aebb 2c60 743d
00000060: c866 6dbd 2e56 3fbd bcfb 213d 9400 ecbc
00000070: 1734 c039 cc56 3fbd 844b 143d 64b6 edbc
00000080: 3234 a0bc 94d1 c3bc 02f1 6abd 64bc f6bc
00000090: 906a 66bd 95a6 293c 9e2c 5f3d e4ec 813d
000000a0: dee1 7abd 6e81 913c 22f5 a4bb 8cb7 51bd
000000b0: b3d0 0d3d 5854 33bd 303b fe3c 70ca 21bd
000000c0: 5061 7cbc e4ff 2c3d e857 48bd 8309 213d
000000d0: 360b 08bd db45 d7bc 7922 303d 383b 59bd
000000e0: 82ef 73bd 5515 093d 90b0 333d 963b 023d
000000f0: 46fd 50bd 89be 0fbd a43a ca3c 8880 f8bc
00000100: d4f3 69bc 6460 3d3d 0030 57ba 9da6 e93c
00000110: 9cea 23bd b9a6 6bbc a62d 1c3d 3091 c9bb
00000120: 4def 293d 08d2 48bd 3b50 173d d4e7 f6bc
00000130: d88d a93c 40dd 8cbc 123a 2ebd 7e9e 86bb
00000140: 87a3 0d3d 439e 79bd e01a ca3b 5cf4 523b
00000150: 7c71 033d 07bb e7bc 7292 55bd f508 a2bc
00000160: 74e1 8fbc 48d8 113c 92bf 3abd c46f f1bc
00000170: 4138 39bd 54a9 72bd a01d 313d de5e 4a3d
00000180: 2d77 e73c b661 63bd 14be 123d 455e 2dbd
00000190: 1cd7 99bc b020 08bd 4591 a33c 9c02 f33b
000001a0: 74b1 1fbd 4137 5a3d bc85 55bd 6bfe 1d3d
000001b0: 8723 4dbc acd6 c5bc c0a4 bebb e630 6ebd
000001c0: 607c c53c 606b 433b 1817 2a3c 804b a43a
000001d0: 58db 603d 445c ecbc 6828 893c b033 863c
000001e0: b84e 6abc 0891 01bd 189e d1bc d1f9 743c
000001f0: a86f 62bd a07d fabb d03d 81bc caf1 5abd

fc3.weight f4 [3, 128]
0.00057624525 -0.03583112 -0.06743187 -0.05717317 -0.050982088 0.0037553906 0.051209047 -0.008671589
0.06448927 0.062954865 0.030694887 0.059714198 -0.06927061 -0.04739471 0.021862537 -0.03778945
-0.04491055 0.049755786 0.06706528 -0.06301564 0.08230244 -0.06823016 0.019528985 0.06598661
0.031538412 0.081681155 -0.018045852 0.0309164 0.07547293 0.02007725 0.03840708 0.031470947
-0.07875878 -0.019649334 -0.001214385 0.012059309 0.042473607 -0.04903175 0.067450404 0.074946634
-0.04101041 -0.032699253 -0.001661198 0.061972205 0.016887145 0.028194226 0.026518155 -0.079873145
0.04961898 0.013164311 0.060289226 0.022481 0.023402795 -0.003955451 0.039027438 -0.051859748
0.049590982 0.018972 0.016342789 -0.027351687 -0.03053299 -0.00015901629 -0.025132274 -0.0116634965
-0.043203935 -0.041619714 0.020371802 0.068691276 -0.07142711 0.07104219 0.026778832 -0.04847134
-0.022595739 -0.037383072 -0.026953777 0.06762498 0.029763483 0.054332435 -0.06915474 -0.066850156
-0.022344008 0.01058052 0.0114495605 0.029382426 0.00969366 -0.013911604 -0.08184159 0.07933262
0.071278356 -0.07702085 0.051820286 0.08658681 0.072947696 -0.01637344 0.0041916817 -0.049540948
-0.041204948 0.037811838 -0.065385535 -0.024995849 -0.05639866 -0.053720087 0.010008328 0.067429416
-0.025266863 0.072587214 -0.07595675 0.029040104 0.07536157 -0.0081539005 0.024044879 0.059379928
-0.021459498 0.08738 -0.08825619 -0.007504046 -0.00088453933 -0.03640886 0.076845266 -0.008922368
0.0070162714 0.05490121 -0.051045153 -0.040714435 -0.070341304 -0.05424582 -0.053174414 0.0710716
0.03494409 0.055259995 0.002713047 0.04177285 0.05954078 0.048416458 0.025055664 0.04710503
-0.07296575 0.0437601 -0.07018244 0.08394272 -0.024922296 -0.005330302 -0.033447426 0.07461785
-0.020799035 -0.030720228 0.041263897 0.07005396 0.08423696 0.06120845 0.01512564 -0.060275923
-0.0677474 -0.05192161 0.0046247323 -0.04067053 0.053055048 -0.02442675 -0.006596297 0.041135974
-0.043725405 -0.0600342 0.08371512 -0.06553407 0.032046273 0.048047487 -0.024975415 0.017944906
0.033906423 0.053197306 0.058514863 0.009492626 0.014367242 -0.029020801 -0.061514504 -0.05160657
-0.047612913 0.036355007 -0.029102009 0.02293635 -0.061099097 -0.023047028 -0.0466938 -0.07537018
-0.069986455 0.042488318 0.03586577 0.011084294 -0.08798604 0.0025820967 0.012864823 0.031257026
-0.061631672 -0.04447726 0.036080174 0.040120218 -0.06914346 0.017471215 0.017779417 0.06775383
0.06779391 -0.060296126 0.052289728 -3.055483e-05 -0.017632255 -0.0010816111 0.05830189 -0.07825161
0.07549838 0.0022016682 -0.053525243 0.04534999 0.0059247017 0.081882 -0.08056119 0.05579859
-0.054629892 0.05343952 0.0008351505 0.013867691 -0.063804656 -0.029368684 0.06338503 0.032760777
-0.05054474 0.02606716 -0.08650751 -0.03339841 -0.06843507 -0.0020211488 -0.04690845 -0.029455265
-0.0092945695 0.059200827 -0.040501583 -0.028753825 0.0060973126 -0.074823625 -0.06722739 -0.08395868
-0.0032212958 0.046224676 -0.07701631 0.03191389 0.037142817 0.0078010857 -0.053448178 0.038233705
0.029816262 -0.057909187 0.075636856 0.04661627 0.0194268 0.009711415 -0.016814545 0.07702569
00000000: 2a0f 173a a7c3 12bd b819 8abd 6a2e 6abd
00000010: 98d2 50bd 001d 763b 94c0 513d 4813 0ebc
00000020: f312 843d 7bee 803d d873 fb3c e096 743d
00000030: c0dd 8dbd f520 42bd 1019 b33c 1cc9 1abd
00000040: 20f4 37bd b9cc 4b3d 8659 893d 580e 81bd
00000050: 2f8e a83d 41bc 8bbd 40fb 9f3c fd23 873d
00000060: 6c2e 013d 7348 a73d e5d4 93bc 6444 fd3c
00000070: 8d91 9a3d 0c79 a43c be50 1d3d aee7 003d
00000080: 494c a1bd a4f7 a0bc 002c 9fba 6894 453c
00000090: cef8 2d3d 84d5 48bd 7023 8a3d 9f7d 993d
000000a0: 88fa 27bd a7ef 05bd 8ebc d9ba 91d6 7d3d
000000b0: e956 8a3c 94f7 e63c 9a3c d93c 8894 a3bd
000000c0: 463d 4b3d 1faf 573c d6f1 763d 132a b83c
000000d0: 38b7 bf3c ba9c 81bb 3cdb 1f3d e36a 54bd
000000e0: ea1f 4b3d 2b6b 9b3c 50e1 853c a510 e0bc
000000f0: 5220 fabc 9cbd 26b9 33e2 cdbc 4018 3fbc
00000100: 9cf6 30bd 6f79 2abd c4e2 a63c 03ae 8c3d
00000110: 6048 92bd 917e 913d 485f db3c e289 46bd
00000120: b31a b9bc fe1e 19bd 2bce dcbc f77e 8a3d
00000130: 8cd2 f33c b08b 5e3d 00a1 8dbd bce8 88bd
00000140: c80a b7bc eb59 2d3c f096 3b3c 6ab3 f03c
00000150: 28d2 1e3c 7fed 63bc 909c a7bd 2479 a23d
00000160: 63fa 913d 1bbd 9dbd 8241 543d 6d54 b13d
00000170: 9a65 953d 9821 86bc 605a 893b 73eb 4abd
00000180: 85c6 28bd 96e0 1a3d dae8 85bd 18c4 ccbc
00000190: 4802 67bd 9809 5cbd f8f9 233c 6f18 8a3d
000001a0: 74fc cebc 9ba8 943d 368f 9bbd 83e5 ed3c
000001b0: 2b57 9a3d f097 05bc c4f9 c43c 5e38 733d
000001c0: d4cb afbc 49f4 b23d a9bf b4bd 80e4 f5bb
000001d0: 6ee0 67ba 7521 15bd 0d61 9d3d 202f 12bc
000001e0: c0e8 e53b 17e0 603d b914 51bd 2ec4 26bd
000001f0: 1a0f 90bd dd30 5ebd 6acd 59bd fd8d 913d
00000200: 8921 0f3d 4e58 623d 60cd 313b 021a 2b3d
00000210: 08e1 733d 5650 463d 8941 cd3c 34f1 403d
00000220: 116f 95bd ca3d 333d d0bb 8fbd 29ea ab3d
00000230: d829 ccbc d0a9 aebb 2b00 09bd 3ed1 983d
00000240: bd62 aabc fda8 fbbc 5504 293d 7378 8f3d
00000250: 6d84 ac3d b6b5 7a3d 88d1 773c e3e3 76bd
00000260: 26bf 8abd c1ab 54bd 118b 973b 2496 26bd
00000270: 4050 593d 9c1a c8bc c025 d8bb 327e 283d
00000280: 6919 33bd 6ce6 75bd d572 ab3d ba36 86bd
00000290: f442 033d 71cd 443d 3e99 ccbc 3201 933c
000002a0: 76e1 0a3d 6be5 593d 48ad 6f3d f686 1b3c
000002b0: 9564 6b3c 08bd edbc a2f6 7bbd 6961 53bd
000002c0: c205 43bd fde8 143d 5667 eebc 03e5 bb3c
000002d0: 0c43 7abd 1fcd bcbc ff41 3fbd ae5b 9abd
000002e0: 0f55 8fbd 3b08 2e3d fce7 123d e69a 353c
000002f0: 0632 b4bd 6538 293b fbc6 523c 5e07 003d
00000300: 7e71 7cbd ca2d 36bd cec8 133d 1955 243d
00000310: 169b 8dbd cb1f 8f3c 24a6 913c 85c2 8a3d
00000320: 89d7 8a3d 12f9 76bd c12d 563d 0028 00b8
00000330: 8571 90bc d9c4 8dba f6cd 6e3d 6142 a0bd
00000340: e59e 9a3d dd49 103b 493d 5bbd e9c0 393d
00000350: 0024 c23b c0b1 a73d 44fd a4bd 108d 643d
00000360: 98c3 5fbd 66e3 5a3d 00ee 5a3a 5035 633c
00000370: 04ac 82bd 9896 f0bc 03d0 813d 2a30 063d
00000380: 0008 4fbd cc8a d53c d92a b1bd c5cc 08bd
00000390: b027 8cbd 4075 04bb 1323 40bd 2b4c f1bc
000003a0: 4048 18bc 917c 723d fde4 25bd 248d ebbc
000003b0: f7cb c73b 213d 99bd 84ae 89bd 87f2 abbd
000003c0: 601c 53bb 1656 3d3d baba 9dbd 24b8 023d
000003d0: 1123 183d 40a0 ff3b 7aec 5abd f29a 1c3d
000003e0: 3c41 f43c 2f32 6dbd 7fe7 9a3d b4f0 3e3d
000003f0: f424 9f3c a01c 1f3c a8be 89bc a5bf 9d3d

fc3.bias f4 [3]
-0.004306126 0.01837154 -0.014435475
00000000: 671a 8dbb e97f 963c c582 6cbc
