cnn.pth (torch, 798927 bytes, 8 tensors)

rnn.weight_ih_l0 f4 [256, 6]
0.060533237 -0.005356352 0.031112468 0.009417984 -0.009553541 -0.043619126 0.04346816 -0.005710529
-0.031320505 0.03647445 -0.061351955 -0.055137873 0.05611427 -0.005490103 0.032811508 0.04779166
-0.04265738 0.024201268 -0.060769554 0.0012138131 0.04443956 0.023473974 -0.009762356 -0.04499028
-0.062520035 0.010579689 0.05553561 0.05573743 -0.030754102 0.03771939 0.049720496 -0.048884325
-0.061259296 0.050054308 -0.04633372 -0.05184589 -0.062327012 0.051094197 -0.035637744 0.051684972
0.03395799 0.02849495 0.032079633 0.04671407 0.008244781 0.002335347 -0.016367193 0.024353126
-0.051807757 0.0031763208 -0.035948098 -0.020429656 -0.005330433 0.053348843 0.06164437 -5.131963e-05
-0.012651407 0.03487955 0.054722656 -0.002112661 0.059202798 -0.04374557 0.03570099 0.03635838
0.0057494505 0.05410364 0.040934853 0.05438658 -0.050453242 0.044029053 -0.011828611 -0.024751496
0.038193725 -0.04517032 0.060704343 0.039246622 0.018392378 -0.05672127 0.051476717 0.010277309
0.011363979 -0.020464584 0.011745428 -0.038712293 -0.00935676 0.052431338 0.04434778 0.036129102
0.023243684 -0.06228269 0.009039857 0.015547443 -0.042850655 -0.042088427 -0.004254052 0.03377996
0.008890227 0.056326482 -0.044794995 0.012691809 0.0010061286 -0.028014567 -0.05368388 -0.00798835
-0.044264108 -0.0038862627 -0.018949699 -0.040518567 0.027092306 0.013894835 -0.0058725146 0.028934784
-0.038276233 0.03264419 -0.05187692 0.011522597 -0.055624504 -0.0035632236 0.011944245 -0.041744586
-0.039233893 0.05120497 -0.059917886 0.002995166 -0.057714205 0.0016187816 0.0520689 -0.0061325734
-0.05998632 0.059144665 0.05211064 -0.061136805 0.026889695 0.04582848 -0.025131525 -0.054684613
-0.0038047528 -0.0519915 -0.052211467 -0.031185575 0.016971914 0.054274563 -0.039522856 0.059162
-0.048922364 -0.057285786 0.028545111 0.005944723 -0.047795072 -0.033875704 0.0008115608 -0.0021068556
-0.041905098 -0.051164977 0.04539186 0.00058554136 -0.037348866 -0.038659196 0.022960382 0.00010429429
-0.051998433 0.04167112 0.018586036 0.006603423 -0.028485954 -0.001992233 0.0020749993 0.040438637
0.05988358 0.03398493 0.049338322 0.038824677 0.05233649 -0.016589917 0.026967851 -0.010918283
0.032536816 -0.02792155 0.03211179 0.037491493 -0.025023915 0.010883493 -0.00042660334 0.024645196
-0.01891473 -0.043500494 0.022113387 -0.058270484 -0.039996084 0.02649738 0.008924322 0.05112759
0.043382145 0.018254053 0.045458157 0.002515674 -0.013929718 -0.016941782 -0.015554099 -0.047500294
-0.009613807 -0.019929124 -0.019110173 0.021843428 0.015619211 0.057858843 -0.0029708901 -0.052918386
0.027977422 0.024352618 0.020621054 0.005859392 0.015669607 0.021402286 0.056530166 0.006056371
-0.01046204 -0.01724211 -0.028794145 0.04626005 0.05356977 -0.0383783 0.021316905 0.053464618
0.0006988377 -0.028441977 -0.04164343 0.061863348 -0.00351186 -0.00357192 -0.04577317 -0.035816908
-0.026148764 0.005753944 -0.019420896 -0.015272543 -0.019351067 0.04031246 0.00075865566 -0.02848462
-0.037836004 -0.0122117 0.028282175 -0.04751496 0.0041786777 0.057837293 0.015742915 0.020087633
-0.015359736 0.016918648 -0.010988622 -0.041302003 -0.038071193 0.03553916 0.06230764 -0.023273183
00000000: b3f1 773d 5684 afbb 93df fe3c e34d 1a3c
00000010: 7586 1cbc f8a9 32bd ab0b 323d 641f bbbb
00000020: ee49 00bd 3c66 153d 304c 7bbd 40d8 61bd
00000030: 14d8 653d 52e6 b3bb 5c65 063d 30c1 433d
00000040: 81b9 2ebd bd41 c63c 7fe9 78bd cf18 9f3a
00000050: 4206 363d 7e4c c03c 4af2 1fbc ba47 38bd
00000060: 810a 80bd 6f56 2d3c 4f79 633d ee4c 643d
00000070: 07f0 fbbc a67f 1a3d b8a7 4b3d ee3a 48bd
00000080: 07eb 7abd bf05 4d3d 6dc8 3dbd 5b5c 54bd
00000090: 9c4a 7fbd 2648 513d e2f8 11bd 9fb3 533d
000000a0: 8917 0b3d 3e6e e93c ef65 033d 4157 3f3d
000000b0: 1e15 073c 9f0c 193b 7e14 86bc 3580 c73c
000000c0: 5f34 54bd d229 503b 503e 13bd 185c a7bc
000000d0: eaaa aebb 5184 5a3d cf7e 7c3d 0840 57b8
000000e0: d947 4fbc dcdd 0e3d dd24 603d 9274 0abb
000000f0: a27e 723d 8e2e 33bd 343b 123d 86ec 143d
00000100: e365 bc3b c79b 5d3d 4eab 273d 76c4 5e3d
00000110: 0fa8 4ebd cf57 343d cacc 41bc a6c3 cabc
00000120: 0671 1c3d 8304 39bd 1ea5 783d 11c1 203d
00000130: 9dab 963c 9054 68bd 40d9 523d 2962 283c
00000140: fc2f 3a3c 58a5 a7bc e56f 403c c890 1ebd
00000150: 194d 19bc 3ec2 563d 05a6 353d 1cfc 133d
00000160: 8a69 be3c 221c 7fbd e91b 143c b4ba 7e3c
00000170: 2b84 2fbd ea64 2cbd 9365 8bbb db5c 0a3d
00000180: 51a8 113c 99b6 663d f57a 37bd 4ef1 4f3c
00000190: 13e0 833a ce7e e5bc a1e3 5bbd 91e1 02bc
000001a0: 484e 35bd abb0 7ebb 663c 9bbc ccf6 25bd
000001b0: aff0 dd3c 29a7 633c 396e c0bb a408 ed3c
000001c0: 8ac7 1cbd eab5 053d e57c 54bd 46c9 3c3c
000001d0: 85d6 63bd f984 69bb cbb1 433c 5ffc 2abd
000001e0: b8b3 20bd 4dbc 513d 756c 75bd 8c4a 443b
000001f0: bb65 6cbd 4c2d d43a 3346 553d c1f3 c8bb
00000200: 37b4 75bd ad41 723d f771 553d 966a 7abd
00000210: c747 dc3c a5b6 3b3d a1e0 cdbc f9fc 5fbd
00000220: 2959 79bb 0af5 54bd b1db 55bd e478 ffbc
00000230: af08 8b3c 014f 5e3d b8e2 21bd da53 723d
00000240: d162 48bd 80a4 6abd 70d7 e93c f3cb c23b
00000250: c4c4 43bd 40c1 0abd ecbe 543a 2c13 0abb
00000260: aea4 2bbd 5e92 51bd d1ec 393d 047f 193a
00000270: 20fb 18bd 1b59 1ebd 6917 bc3c 92b8 da38
00000280: 4ffc 54bd 56af 2a3d be41 983c 8761 d83b
00000290: 605b e9bc 2090 02bb b6fc 073b fca2 253d
000002a0: 7c48 753d c833 0b3d fb16 4a3d a006 1f3d
000002b0: ca5e 563d 94e7 87bc afeb dc3c 99e2 32bc
000002c0: 5345 053d bcbb e4bc a787 033d ae90 193d
000002d0: f4fe ccbc ae50 323c bba9 dfb9 b9e4 c93c
000002e0: 10f3 9abc 932d 32bd 2227 b53c 08ad 6ebd
000002f0: efd2 23bd 0911 d93c 5237 123c 2a6b 513d
00000300: 7ab1 313d 8689 953c 5532 3a3d 02de 243b
00000310: 7939 64bc 7ec9 8abc 9fd6 7ebc ab8f 42bd
00000320: 3b83 1dbc 6742 a3bc f08c 9cbc fdf0 b23c
00000330: b8e7 7f3c 65fd 6c3d 44b3 42bb f3c0 58bd
00000340: e830 e53c 247f c73c 7ced a83c 2500 c03b
00000350: 8c5d 803c d953 af3c 2d8c 673d 8674 c63b
00000360: fa68 2bbc 533f 8dbc b3e1 ebbc 2e7b 3d3d
00000370: fa6b 5b3d 9032 1dbd caa0 ae3c b7fd 5a3d
00000380: 3432 373a 26ff e8bc 4d92 2abd 6c64 7d3d
00000390: 3c27 66bb e016 6abb a67c 3bbd c0b4 12bd
000003a0: ef35 d6bc 958b bc3b 9218 9fbc b039 7abc
000003b0: 2186 9ebc ae1e 253d 85e0 463a 9458 e9bc
000003c0: edf9 1abd 9513 48bc 05b0 e73c 0c9f 42bd
000003d0: 4aed 883b cce6 6c3d 49f7 803c d28e a43c
000003e0: 67a7 7bbc fa98 8a3c 9f09 34bc 4a2c 29bd
000003f0: 8af0 1bbd 8391 113d 4c36 7f3d 67a7 bebc

rnn.weight_hh_l0 f4 [256, 256]
-0.044829622 0.059245456 0.041326847 -0.045803346 0.047845997 0.04376472 -0.0073017934 0.056016736
0.05072865 -0.012421221 -0.033866577 0.005431658 0.025266243 -0.03150839 -0.027650544 0.038967986
-0.054717872 0.024413185 0.012637395 0.008061801 0.055619072 -0.019370856 0.05908794 -0.0529224
0.0048005623 -0.01964251 0.009615239 0.062130205 0.015921738 0.0012561594 -0.024388053 -0.03535183
-0.001877115 -0.03484925 -0.054110497 -0.048834845 0.013352398 0.038848665 0.012330577 0.028557282
-0.028520927 0.05314975 -0.057648882 0.0081064 -0.03592834 -0.024071224 0.01336326 -0.05114964
-0.024734208 -0.019558204 -0.008636334 0.034021005 -0.048290554 0.021156205 0.04496821 -0.04884246
-0.058982033 -0.04867503 0.025512699 -0.019796854 0.057554822 0.05592093 0.053039372 -0.027878957
-0.057206076 0.05113918 -0.021044547 -0.026029253 -0.050014198 0.046535473 -0.054505423 -0.024262108
-0.04977043 -0.009174213 -0.012656544 -0.05341345 -0.0066708643 -0.02940685 -0.039040737 -0.060073934
-0.02762716 0.043264758 0.059248976 0.058300793 -0.016105773 0.037808046 0.0107503915 0.035239812
-0.017280996 -0.028264428 0.017450135 -0.015424619 0.030171162 -0.05086263 0.0074992 -0.028497268
0.03494997 0.040885683 -0.058278352 -0.056552198 0.014546 -0.025752092 0.014780521 0.042360883
0.014550588 0.024362093 0.062161744 0.055329327 -0.03806036 -0.04879008 0.0017722609 0.011448299
-0.03369096 -0.057863567 0.023149027 -0.04011198 0.02317083 -0.02021816 -0.043702956 -0.0234181
0.051297728 0.041328315 -0.04995093 -0.027964232 0.03752679 -0.0521073 -0.0511975 0.044341505
0.04070422 0.06078876 0.027634766 0.011727771 0.005348615 -0.007953461 0.033491142 -0.009091087
0.03398291 0.057646524 0.028002825 0.011565444 -0.023860855 0.02656832 0.048406497 0.017306114
0.0168861 0.06026076 -0.0025874383 0.033850845 0.0036507247 -0.043527573 -0.0143453 -0.052160133
-0.0507949 -0.00383369 0.0078389915 0.0010742293 0.048691235 -0.030775305 0.011805794 -0.053675108
0.006756192 0.016470987 -0.050746247 0.04733182 0.00048951484 -0.011349811 -0.013671194 0.04510005
0.050008398 -0.0014750692 0.018984431 0.028797971 -0.0023868303 -0.013397552 -0.002184269 0.043175887
-0.033890788 -0.04612261 -0.029371828 -0.043226745 -0.024843184 -0.04687769 0.031509873 -0.051471952
0.03034255 0.048631925 0.037337314 -0.023469655 -0.008485316 0.013122538 -0.0075248685 0.04204291
-0.058547802 0.03747377 -0.03299261 -0.04928213 -0.0014442636 0.00818651 -0.03544334 -0.053370573
0.053618323 -0.017688705 -0.019126344 -0.0025234984 0.009760062 -0.05770839 0.0014324794 -0.031998735
-0.022690238 0.022132576 -0.003858357 -0.03222214 0.050036255 -0.0036971185 0.049711145 -0.048281692
-0.047087546 0.052786306 0.010144106 0.040760808 -0.05466235 -0.046012975 0.008890132 -0.055178214
-0.010975983 -0.033769906 -0.0052608238 0.013946391 -0.006517807 0.040715132 0.014337818 0.04581609
0.013127537 0.016607199 0.047107425 -0.045198947 -0.03135725 -0.040291656 -0.00030323057 -0.0008168667
-0.025106104 0.024266208 -0.06111809 -0.003045687 -0.04703477 0.00024528193 0.028525593 0.023114588
-0.048832413 0.0013915576 -0.003610508 -0.010089556 -0.052033234 -0.0008868829 0.032322016 0.05536021
00000000: 449f 37bd 5dab 723d 5746 293d 4a9c 3bbd
00000010: 2afa 433d a342 333d e243 efbb ce71 653d
00000020: d8c8 4f3d 6082 4bbc aeb7 0abd 0dfc b13b
00000030: 27fb ce3c f10e 01bd 6583 e2bc e59c 1f3d
00000040: d91f 60bd 29fe c73c 140d 4f3c a515 043c
00000050: d3d0 633d a1af 9ebc 3206 723d 29c5 58bd
00000060: 094e 9d3b 54e9 a0bc 3c89 1d3c 3e7c 7e3d
00000070: 4e6e 823c b7a5 a43a 74c9 c7bc 15cd 10bd
00000080: 8709 f6ba 16be 0ebd f8a2 5dbd 0c07 48bd
00000090: 04c4 5a3c c71f 1f3d 3006 4a3c f6f0 e93c
000000a0: b8a4 e9bc 8db3 593d 3c21 6cbd b5d0 043c
000000b0: 9829 13bd 0431 c5bc 93f1 5a3c 4982 51bd
000000c0: 659f cabc 8738 a0bc 697f 0dbc 9c59 0b3d
000000d0: 51cc 45bd c74f ad3c 9630 383d 080f 48bd
000000e0: 2597 71bd 785f 47bd 0200 d13c 032d a2bc
000000f0: 9bbe 6b3d 580d 653d d03f 593d 6962 e4bc
00000100: eb50 6abd 5177 513d 9d65 acbc 4d3b d5bc
00000110: b0db 4cbd fb9b 3e3d 1441 5fbd 54c1 c6bc
00000120: 14dc 4bbd 704f 16bc 655d 4fbc 10c8 5abd
00000130: 4497 dabb a2e6 f0bc 2ee9 1fbd 1610 76bd
00000140: 5b52 e2bc 6336 313d 0eaf 723d d0cc 6e3d
00000150: 41f0 83bc 9cdc 1a3d 6922 303c 9f57 103d
00000160: e090 8dbc cd8a e7bc 96f3 8e3c 8bb7 7cbc
00000170: 8329 f73c 5555 50bd d9bb f53b 1a73 e9bc
00000180: b327 0f3d bf77 273d 48b5 6ebd 47a3 67bd
00000190: 5952 6e3c 0df6 d2bc 002a 723c 9b82 2d3d
000001a0: 9765 6e3c 0393 c73c 509d 7e3d 01a1 623d
000001b0: 2ee5 1bbd 1bd8 47bd 354b e83a a591 3b3c
000001c0: 88ff 09bd 5902 6dbd 07a3 bd3c 764c 24bd
000001d0: c1d0 bd3c 8ea0 a5bc df01 33bd 51d7 bfbc
000001e0: 911d 523d e147 293d 5999 4cbd 3f15 e5bc
000001f0: b1b5 193d 776e 55bd 78b4 51bd 709f 353d
00000200: 78b9 263d a3fd 783d 4e62 e23c d625 403c
00000210: 6f43 af3b 3c4f 02bc 022e 093d c8f2 14bc
00000220: aa31 0b3d c31e 6c3d 2e66 e53c fd7c 3d3c
00000230: d777 c3bc cea5 d93c e445 463d 8dc5 8d3c
00000240: b854 8a3c fdd3 763d 0392 29bb 2fa7 0a3d
00000250: ff40 6f3b f849 32bd 8d08 6bbc dda5 55bd
00000260: 500e 50bd a53e 7bbb 1d6f 003c 27cd 8c3a
00000270: 7670 473d 7e1c fcbc 176d 413c 6eda 5bbd
00000280: 0c63 dd3b 2aee 863c 4cdb 4fbd 03df 413d
00000290: c952 003a 8ff4 39bc 25fd 5fbc d4ba 383d
000002a0: 9bd5 4c3d 1c57 c1ba 3d85 9b3c b9e9 eb3c
000002b0: 5e6c 1cbb 6881 5bbc f425 0fbb 33d9 303d
000002c0: 11d1 0abd 10eb 3cbd 309d f0bc 870e 31bd
000002d0: ef83 cbbc d202 40bd 7f10 013d 41d4 52bd
000002e0: f090 f83c 4532 473d 03ef 183d 6f43 c0bc
000002f0: ff05 0bbc eaff 563c 2c93 f6bb 3035 2c3d
00000300: d2cf 6fbd 197e 193d 4223 07bd 0fdc 49bd
00000310: 724d bdba b620 063c 092d 11bd 1a9b 5abd
00000320: e39e 5b3d e7e7 90bc daae 9cbc 4761 25bb
00000330: abe8 1f3c a25f 6cbd 08c2 bb3a 1b11 03bd
00000340: e1e0 b9bc 604f b53c 7ddc 7cbb 5dfb 03bd
00000350: d1f2 4c3d 5b4b 72bb ea9d 4b3d 06c3 45bd
00000360: dfde 40bd 7436 583d 7733 263c cef4 263d
00000370: a1e5 5fbd 1a78 3cbd eba7 113c 8d02 62bd
00000380: 9cd4 33bc 5052 0abd fd62 acbb 677f 643c
00000390: 5493 d5bb e9c4 263d 2be9 6a3c a7a9 3b3d
000003a0: e214 573c d20b 883c b7f3 403d 8822 39bd
000003b0: 7670 00bd dd08 25bd ebfa 9eb9 ff22 56ba
000003c0: 51ab cdbc edc9 c63c f656 7abd 269a 47bb
000003d0: 88a7 40bd 2f99 8039 81ae e93c ce5a bd3c
000003e0: 7f04 48bd ed64 b63a 469e 6cbb aa4e 25bc
000003f0: cd20 55bd b47d 68ba 1764 043d 63c1 623d

rnn.bias_ih_l0 f4 [256]
-0.022774484 0.033709902 0.0545401 -0.010707831 0.044163696 0.01109212 0.0146696195 0.009585472
-0.03943077 0.03360678 0.014791403 0.044046517 0.021284245 0.03379669 -0.0076078046 -0.0006803606
-0.0020655682 0.04308552 -0.019634776 0.0070353113 0.041893207 0.043677304 0.040152196 0.05426488
-0.0114910705 0.055728003 -0.02238945 -0.06226969 -0.011290634 -0.025186477 0.004545026 -0.027597263
-0.009832836 -0.020024298 0.048036177 -0.05463454 -0.0103480965 -0.035997674 0.0035657878 0.0040981416
0.057226337 0.032940324 0.033722587 -0.04908206 0.031808678 -0.008733162 0.03235414 0.05521493
-0.060863867 -0.0057696984 -0.025861552 0.023165133 0.059625864 0.03570406 0.021943552 0.020986352
-0.006561803 0.036529593 -0.00013528731 -0.02376584 -0.014770884 0.06231505 -0.042325374 -0.035926353
-0.0049384804 0.052073274 -0.020201981 0.05777783 -0.039653704 0.057619914 0.047698833 -0.005024634
0.05232894 0.029676152 0.049374353 0.022264374 0.016688261 -0.05878198 -0.013463831 0.021239169
0.00858948 0.055348862 -0.039548505 -0.03733689 -0.04315967 -0.023116114 -0.02965035 -0.044023123
0.012661103 -0.044405796 0.020628817 -0.0025775568 -0.006562737 -0.038855027 0.029801158 0.0621851
0.033238754 0.0011946231 0.059321202 -0.014907959 -0.051004674 0.049018875 -0.027633343 -0.057663847
-0.029412167 0.0034700986 -0.043276954 -0.009091256 -0.024048813 -0.018637367 -0.059822068 -0.045822103
-0.006774476 0.0015966296 -0.017307188 0.058876112 -0.001178275 -0.022890417 0.023269383 -0.03733349
-0.062320497 0.010873664 0.010084009 -0.040675048 0.055676065 -0.001710305 -0.0022101258 -0.032553885
0.049353655 -0.039650448 0.0500069 0.023212386 0.035119195 0.034047205 -0.057400417 0.012345652
-0.022823771 0.025838885 0.010910109 -0.059689745 0.011858869 0.057907585 -0.005580436 0.0065264553
0.04456522 0.040459376 0.0057244194 -0.016610298 0.012262095 0.01645778 0.005329478 0.032047596
0.007359704 -0.004040737 0.055884205 -0.026443947 0.018150853 -0.008769818 -0.031683505 -0.024223983
-0.051635183 0.038077082 0.017402735 0.02770885 -0.062052757 -0.011884852 0.05248049 -0.059669062
0.04953535 -0.022841072 -0.04608926 0.00047461726 0.034919366 0.057436805 0.051400486 0.03440163
-0.016405238 -0.04311557 -0.04988449 -0.02536507 0.01806926 0.019246649 0.014045289 0.029085731
0.038920097 -0.0072890846 -0.036168464 0.03435799 0.017111668 -0.005392604 0.029562071 0.04297904
0.034670707 -0.03641391 -0.017594596 -0.043542564 -0.05728992 -0.016164118 0.05911023 -0.01894761
-0.017207386 0.015806014 -0.059446238 -0.05917537 -0.03651963 0.05765971 0.0141080385 0.05195339
0.025713423 0.014887482 -0.016397575 0.049021043 -0.00883698 -0.011993365 -0.01713246 -0.02512472
-0.0099401735 0.04807019 0.005672768 0.05937642 -0.0357507 -0.0028608127 0.024090085 -0.017854685
-0.020562137 0.058705267 -0.051142696 -0.036039475 0.009523085 0.0025370023 -0.048517387 -0.029209303
0.059694238 0.06076523 0.014681699 -0.0355401 -0.0609261 -0.006051527 -0.027460855 -0.014700299
0.013293284 -0.05180505 -0.060981855 -0.0279098 -0.01687535 -0.0055631367 -0.049657073 0.0033567615
-0.009775649 0.011501864 0.042781018 0.0010012261 0.006773282 -0.015551118 0.030693784 -0.03674604
00000000: 8e91 babc 6513 0a3d 7165 5f3d e66f 2fbc
00000010: fee4 343d b9bb 353c d858 703c 620c 1d3c
00000020: 2982 21bd 43a7 093d a457 723c 1f6a 343d
00000030: 4c5c ae3c 666e 0a3d e44a f9bb 3a5a 32ba
00000040: 7c5e 07bb 717a 303d 1cd9 a0bc 7888 e63b
00000050: 3698 2b3d f9e6 323d a176 243d da44 5e3d
00000060: 0b45 3cbc 0c43 643d 146a b7bc 810e 7fbd
00000070: 5afc 38bc df53 cebc 71ee 943b a813 e2bc
00000080: e719 21bc ff09 a4bc 95c1 443d 78c8 5fbd
00000090: 108b 29bc 4c72 13bd feaf 693b b449 863b
000000a0: 2a66 6a3d 6fec 063d b220 0a3d 450a 49bd
000000b0: d149 023d 8915 0fbc c685 043d 0d29 623d
000000c0: 644c 79bd bd0f bdbb 9bdb d3bc cec4 bd3c
000000d0: 403a 743d 6c3e 123d f7c2 b33c 92eb ab3c
000000e0: 6504 d7bb 0ea0 153d e9db 0db9 94b0 c2bc
000000f0: 9401 72bc 113e 7f3d 5f5d 2dbd 8327 13bd
00000100: fad2 a1bb c94a 553d a07e a5bc 72a8 6c3d
00000110: ec6b 22bd dc02 6c3d da5f 433d afa5 a4bb
00000120: df56 563d 671b f33c c33c 4a3d c763 b63c
00000130: d2b5 883c 60c5 70bd 6697 5cbc c4fd ad3c
00000140: e4ba 0c3c 7db5 623d 9dfd 21bd 91ee 18bd
00000150: 32c8 30bd 015e bdbc 4ae5 f2bc 9751 34bd
00000160: 8470 4f3c dae2 35bd c4fd a83c 3aec 28bb
00000170: 3a0c d7bb 7326 1fbd 8f21 f43c ceb5 7e3d
00000180: 5c25 083d e694 9c3a cafa 723d 8340 74bc
00000190: 47ea 50bd 04c8 483d 525f e2bc ed30 6cbd
000001a0: c9f1 f0bc 986a 633b 2d43 31bd 7ef3 14bc
000001b0: 0402 c5bc 64ad 98bc fc07 75bd f5af 3bbd
000001c0: 6cfc ddbb 0046 d13a cec7 8dbc 1428 713d
000001d0: 5970 9aba af84 bbbc 6f9f be3c 00eb 18bd
000001e0: c743 7fbd 7427 323c 6637 253c e19a 26bd
000001f0: 960c 643d 502c e0ba c2d7 10bb 3957 05bd
00000200: 0f27 4a3d 8268 22bd 09d4 4c3d e727 be3c
00000210: 25d9 0f3d 1575 0b3d b31c 6bbd 6b45 4a3c
00000220: ebf8 babc 12ac d33c 50c0 323c 3c7d 74bd
00000230: b44b 423c 8130 6d3d 17dc b6bb e0db d53b
00000240: 058a 363d bbb8 253d e993 bb3b 5212 88bc
00000250: f4e6 483c 77d2 863c e7a2 ae3b 5744 033d
00000260: ac29 f13b 2968 84bb d6e6 643d faa0 d8bc
00000270: 19b1 943c 48af 0fbc 90c6 01bd 6071 c6bc
00000280: 6a7f 53bd b7f6 1b3d 2e90 8e3c acfd e23c
00000290: 082b 7ebd afb8 42bc c8f5 563d 8c67 74bd
000002a0: 94e5 4a3d 331d bbbc 18c8 3cbd 0dd6 f839
000002b0: 9c07 0f3d db42 6b3d 5189 523d b9e8 0c3d
000002c0: 4764 86bc f499 30bd ae53 4cbd 68ca cfbc
000002d0: fc05 943c 26ab 9d3c 361e 663c 3345 ee3c
000002e0: ae6a 1f3d 46d9 eebb 6225 14bd f7ba 0c3d
000002f0: c52d 8c3c 71b4 b0bb 282c f23c ca0a 303d
00000300: df02 0e3d c126 15bd 8b22 90bc b059 32bd
00000310: d6a8 6abd 9d6a 84bc 921d 723d 0538 9bbc
00000320: 81f6 8cbc 9d7b 813c e67d 73bd df61 72bd
00000330: 9c95 15bd 972c 6c3d 6725 673c 14cd 543d
00000340: f5a4 d23c a0ea 733c 3554 86bc 4aca 483d
00000350: fbc8 10bc d27f 44bc 5f59 8cbc 5bd2 cdbc
00000360: 1cdc 22bc 3fe5 443d a1e2 b93b b034 733d
00000370: 536f 12bd 797c 3bbb 9258 c53c fd43 92bc
00000380: ed71 a8bc ef74 703d 017b 51bd 219e 13bd
00000390: b706 1c3c d643 263b 2bba 46bd 5948 efbc
000003a0: f281 743d f6e4 783d 828b 703c 7f92 11bd
000003b0: a58d 79bd e34b c6bb 96f5 e0bc 86d9 70bc
000003c0: 13cc 593c 8831 54bd 1cc8 79bd 18a3 e4bc
000003d0: 2d3e 8abc f94a b6bb 3765 4bbd 1dfd 5b3b
000003e0: 0b2a 20bc 5072 3c3c 263b 2f3d 933b 833a
000003f0: 68f2 dd3b 1eca 7ebc 8871 fb3c 0483 16bd

rnn.bias_hh_l0 f4 [256]
-0.03137441 -0.0064801713 -0.050857138 0.043890033 0.010633874 0.006628555 0.036234424 -0.01409669
0.038697053 0.016284538 0.0022991311 -0.052556586 -0.01983665 -0.047668673 0.047751646 0.032674987
-0.037327647 0.0027063387 0.004943969 -0.045469396 -0.0511674 0.05221503 -0.014434214 0.022755032
-0.033271316 0.03940235 -0.060167983 0.048145737 0.031018788 -0.047168903 0.008335604 0.047796864
0.00967905 0.058133196 -0.026623474 0.0464198 0.061798945 -0.044298783 -0.023359446 0.00852211
0.053891744 -0.04979687 0.0014685456 0.005426346 -0.00094771426 -0.057468235 -0.020972783 0.041387156
-0.05597906 0.03307274 0.02888603 -0.04476312 0.060267232 0.0026819324 0.055519078 0.055799905
-0.04897881 -0.0022733188 0.041575246 0.0029227298 -0.0057476894 0.0032186848 0.0033585709 0.05619661
-0.0009475775 0.014059161 0.007052167 0.028021619 0.026002953 0.026581053 -0.0047668656 0.05472892
-0.060249683 -0.05262682 0.025972905 0.017837264 0.046543345 -0.04967004 0.023947353 -0.032802958
0.011008668 -0.045982976 -0.022319676 0.0014307284 0.008647671 -0.025563411 -0.0091544 -0.03531813
0.04712882 0.04888159 0.0037286782 -0.06249254 -0.021352837 -0.02728684 -0.015727943 0.0066031753
-0.050548933 -0.003022799 0.053088985 0.01887299 -0.011120089 0.0437866 0.055569317 0.0274727
0.046219457 -0.013021048 0.02734284 0.0068581966 0.05449697 0.03255058 -0.03518916 0.003750474
0.04167038 -0.017691126 -0.05715174 0.023490151 -0.035338737 0.022404501 -0.010115068 -0.0042802882
0.05308715 -0.027799852 -0.04742376 -0.05285504 0.0038361992 -0.019635491 0.010168621 0.011220053
0.030043153 -0.04419271 -0.030867577 0.03775148 0.0025891908 -0.02117922 -0.05526383 0.06166576
-0.03918154 -0.05817587 0.01186455 0.03875696 -0.04478584 -0.054079417 -0.05708244 -0.05796529
-0.022017661 -0.034368012 -0.031762972 0.0091739595 -0.011153061 -0.0036598218 0.040302303 -0.024459008
-0.056006014 -0.031377856 -0.023923365 -0.029911105 0.014330716 0.02893415 0.05634296 -0.015537536
0.04412178 0.012746121 -0.027081702 0.014252837 0.056699425 -0.053395692 0.045635983 -0.05932092
-0.009020449 -0.013585763 -0.044238128 -0.004976607 -0.023900995 0.03259648 0.058021408 -0.016988114
-0.06052762 -0.053990427 0.031445757 -0.061015453 -0.02248525 -0.02633192 0.051562116 -0.021448622
-0.017722256 -0.018364193 -0.04748252 0.043576363 -0.05334943 0.021555709 -0.0202695 0.0345098
-0.029833056 -0.05800924 -0.05333504 0.041819975 0.034474775 0.024133382 -0.0024515262 -0.032022573
0.030626629 -0.022896279 0.06201008 0.0032894348 -0.031375162 0.006207483 -0.035983764 0.030291058
-0.03512416 -0.05694548 -0.0066231727 -0.060008124 -0.019873355 -0.024129052 0.030814884 -0.028816236
-0.038097788 -0.036675524 0.028265009 0.03523171 -0.009472327 0.0061393217 0.05937561 -0.031306904
0.05483747 0.031787824 0.013121878 0.008435571 0.0021719972 0.05538653 0.026179446 -0.009059914
-0.060156077 -0.057652898 -0.0057282774 0.057048295 0.048427027 -0.024129955 0.04184366 0.04992674
0.037953634 -0.058647886 -0.029545287 -0.053442147 0.0345993 0.05774322 0.055218074 -0.030041952
-0.028895231 -0.020262254 0.051925868 0.046715293 -0.01587078 0.021217534 -0.0140289785 0.054682102
00000000: 7482 00bd 9e57 d4bb 934f 50bd 09c6 333d
00000010: b339 2e3c 5934 d93b 8c6a 143d cef5 66bc
00000020: cd80 1e3d 2767 853c 05ad 163b 9345 57bd
00000030: 7880 a2bc 3a40 43bd 3b97 433d 35d6 053d
00000040: e0e4 18bd d45c 313b 0501 a23b 1e3e 3abd
00000050: e894 51bd 6ddf 553d 7b7d 6cbc c368 ba3c
00000060: 8147 08bd 5c64 213d b472 76bd 7734 453d
00000070: 1d1b fe3c 2e34 41bd 0f92 083c a5c6 433d
00000080: e194 1e3c 131d 6e3d 7919 dabc b022 3e3d
00000090: e420 7d3d a472 35bd 4f5c bfbc 52a0 0b3c
000000a0: 97bd 5c3d cef7 4bbd 377c c03a 7dcf b13b
000000b0: 0770 78ba d063 6bbd 1dcf abbc 9485 293d
000000c0: 4c4a 65bd 4877 073d 65a2 ec3c 8959 37bd
000000d0: c6da 763d 5cc3 2f3b f967 633d 718e 643d
000000e0: 019e 48bd f6fb 14bb ce4a 2a3d 458b 3f3b
000000f0: 1d57 bcbb 92f0 523b 781b 5c3b 6b2e 663d
00000100: d966 78ba 6558 663c dd15 e73b 988d e53c
00000110: 2504 d53c 82c0 d93c 5e33 9cbb 6f2b 603d
00000120: 5fc8 76bd 388f 57bd 21c5 d43c 741f 923c
00000130: 3ca4 3e3d d072 4bbd 3d2d c43c 655c 06bd
00000140: b35d 343c a558 3cbd c1d7 b6bc 4787 bb3a
00000150: f6ae 0d3c 5c6a d1bc 56fc 15bc bea9 10bd
00000160: 260a 413d 1038 483d d75c 743b 2df8 7fbd
00000170: 25ec aebc a788 dfbc e3d7 80bc 735f d83b
00000180: 660c 4fbd 271a 46bb d673 593d 879b 9a3c
00000190: 0931 36bc 9459 333d a79c 633d 6e0e e13c
000001a0: 9d50 3d3d 3c56 55bc 17fe df3c b9ba e03b
000001b0: 3738 5f3d c253 053d 8222 10bd 83ca 753b
000001c0: 8fae 2a3d fbec 90bc f117 6abd 6b6e c03c
000001d0: 5abf 10bd a589 b73c acb9 25bc a941 8cbb
000001e0: e971 593d 84bc e3bc 6b3f 42bd 877e 58bd
000001f0: be68 7b3b 9cda a0bc 4a9a 263c 50d4 373c
00000200: 0f1d f63c 6a03 35bd 00de fcbc 4ca1 1a3d
00000210: 6aaf 293b 0b80 adbc 535c 62bd 3c95 7c3d
00000220: d37c 20bd d249 6ebd 8863 423c 9ebf 1e3d
00000230: 5b71 37bd 6182 5dbd 47cf 69bd 036d 6dbd
00000240: 625e b4bc 79c5 0cbd e419 02bd 604e 163c
00000250: 54bb 36bc 9fd9 6fbb 0714 253d 425e c8bc
00000260: 9066 65bd 1186 00bd effa c3bc 2208 f5bc
00000270: 61cb 6a3c 4f07 ed3c e0c7 663d 2691 7ebc
00000280: 0ab9 343d 1bd5 503c 72da ddbc bb84 693c
00000290: a83d 683d 71b5 5abd ccec 3a3d 7efa 72bd
000002a0: 81ca 13bc d296 5ebc 0a33 35bd ce12 a3bb
000002b0: 05cc c3bc e383 053d dba7 6d3d a82a 8bbc
000002c0: cfeb 77bd 1125 5dbd 44cd 003d 57eb 79bd
000002d0: fd32 b8bc 0ab6 d7bc cc32 533d 05b5 afbc
000002e0: 442e 91bc 8170 96bc 087d 42bd 217d 323d
000002f0: ef84 5abd 9995 b03c 390c a6bc 265a 0d3d
00000300: 7464 f4bc 199b 6dbd d875 5abd 6c4b 2b3d
00000310: 6c35 0d3d 5fb3 c53c c9a9 20bb 1a2a 03bd
00000320: b2e4 fa3c fa90 bbbc 48fe 7d3d 8f93 573b
00000330: 3e83 00bd 2468 cb3b b663 13bd f424 f83c
00000340: 5ade 0fbd aa3f 69bd 3307 d9bb 14cb 75bd
00000350: 72cd a2bc 4aaa c5bc 7f6f fc3c 0710 ecbc
00000360: 6d0c 1cbd 1339 16bd 058c e73c 204f 103d
00000370: d231 1bbc 5d2c c93b d733 733d ab3b 00bd
00000380: 419d 603d f333 023d 25fd 563c 5935 0a3c
00000390: 1158 0e3b fcdc 623d 4776 d63c 0970 14bc
000003a0: 3866 76bd 7225 6cbd 46b4 bbbb 79ab 693d
000003b0: 6b5b 463d 2fac c5bc 4264 2b3d fb7f 4c3d
000003c0: 4575 1b3d c438 70bd f508 f2bc 27e6 5abd
000003d0: ffb7 0d3d 2884 6c3d 592c 623d 8a1a f6bc
000003e0: b1b5 ecbc 07fd a5bc 38b0 543d 8958 3f3d
000003f0: 7003 82bc 65d0 ad3c cdd9 65bc 57fa 5f3d

rnn.weight_ih_l1 f4 [256, 256]
-0.018060109 -0.026134942 -0.058429636 0.054007817 0.0081525585 -0.02005976 0.0061682025 0.029054912
0.012056075 0.0027685512 -0.035718624 -0.031448904 0.0467312 0.036486674 0.011445578 -0.035909276
0.0048195687 -0.032179657 0.026207587 0.0032533207 -0.04604177 -0.03519313 0.024142437 0.024924783
0.044580285 0.003097616 -0.04160886 0.056337826 0.022038892 0.049091984 0.055189155 0.00427408
0.018394835 -0.004448124 -0.024792837 -0.008837034 0.014104623 0.010407892 -0.040281344 -0.03534284
-0.018585833 0.045004215 -0.02818155 0.048620753 -0.021157358 -0.02931571 0.008479823 0.027255017
0.032147765 0.03760591 0.045280155 0.029861398 -0.03214493 0.011212031 0.030591737 0.027749574
-0.004080656 0.00053629815 -0.04603756 0.028140504 0.029218895 -0.060464744 -0.0143161 -0.05066903
0.03120036 0.04134779 0.010932352 0.016986715 0.026795056 0.03120746 0.03809223 0.0024522105
0.05167017 0.009525847 -0.030365145 0.03359687 -0.0037973968 0.044503488 0.048637524 -0.06033901
0.0075168544 -0.017429652 -0.029132908 -0.048695974 -0.0543939 -0.015772495 -0.044660416 -0.05511837
-0.056677677 0.029127229 0.048242085 -0.053933453 0.054322053 -0.024872415 -0.023271272 -0.041927714
-0.05877776 -0.036335193 0.03340026 0.009903254 0.03846241 -0.038589045 -0.028368592 0.009748558
0.05650641 0.02706086 0.035252254 -0.04506624 -0.010381246 -0.0013070676 -0.055924762 0.039861765
0.044816468 0.041394018 0.0043037324 -0.0036054705 0.015662624 -0.0054691113 0.059746616 -0.030116066
0.004690219 0.05858413 -0.04949675 -0.04267834 0.020766666 -0.041244257 -0.0021552737 0.007968235
0.058289856 -0.010149682 -0.008195335 -0.047774244 -0.025838492 0.013049784 0.029295987 0.034920543
-0.009789078 0.022313057 -0.022029132 -0.058256727 -0.04773947 0.040122014 0.05633215 -0.036586247
-0.0602516 -0.01894476 0.023685137 0.046412934 0.01087024 0.05868236 0.031484053 -0.041184418
-0.0068960455 -0.017671082 -0.042701773 0.05025528 0.059247036 -0.022027137 0.014759816 0.024529668
-0.0044682156 0.05712551 -0.039891794 0.021293242 -0.007910284 -0.0033231326 -0.06031149 0.027766792
0.02991121 0.032622047 0.058258854 -0.05026843 -0.0017753146 -0.006393543 -0.00991656 -0.010508953
-0.012943315 0.016560048 0.014431469 0.054556128 0.019354612 -0.019534476 -0.044941675 0.04746052
0.01762118 -0.039100144 0.040271685 -0.05879986 0.05812251 0.016420463 0.04710514 -0.030641941
0.056539975 0.029010309 -0.008626933 -0.058899764 0.02166844 0.058841076 -0.040196072 -0.042502284
-0.052863415 -0.013479635 -0.020056069 0.046996687 -0.028214937 -0.0020826128 -0.033896856 -0.01356115
0.029359361 0.055549324 0.031033859 0.013318346 0.044471808 0.0461271 -0.061467733 -0.06132956
0.00012327374 -0.060412515 0.008532541 0.053400245 -0.036689404 -0.0020066323 0.0018135564 -0.029946698
0.061187644 -0.04389511 0.010742038 0.045075852 -0.033860642 -0.008958184 -0.055325888 -0.013095253
-0.058559414 0.03199183 -0.05896232 0.014029671 0.014668483 0.003044349 -0.0033172267 -0.059278134
0.055913858 0.032078773 -0.021407163 -0.053102046 0.010333931 -0.022119496 0.043719172 0.00038975355
0.011789651 0.027189098 -0.045926716 0.040933643 -0.017096128 0.00058202795 0.021348301 0.0028127744
00000000: cbf2 93bc f218 d6bc ea53 6fbd 4d37 5d3d
00000010: 4f92 053c 5e54 a4bc a21e ca3b 9104 ee3c
00000020: d886 453c 9570 353b b14d 12bd 91d0 00bd
00000030: 3769 3f3d 0d73 153d 3c86 3b3c 9b15 13bd
00000040: 79ed 9d3b d1ce 03bd 4bb1 d63c aa35 553b
00000050: 4c96 3cbd ac26 10bd 5cc6 c53c 0f2f cc3c
00000060: d199 363d 5f01 4b3b 0d6e 2abd 7ec2 663d
00000070: e88a b43c ad14 493d 060e 623d 950d 8c3b
00000080: c4b0 963c 92c1 91bb 591a cbbc 35c9 10bc
00000090: 1417 673c dd85 2a3c 0dfe 24bd a7c3 10bd
000000a0: 5141 98bc 5756 383d fedc e6bc 8e26 473d
000000b0: 3252 adbc 8027 f0bc f5ee 0a3c ea45 df3c
000000c0: 60ad 033d a808 1a3d af77 393d e49f f43c
000000d0: 67aa 03bd abb2 373c 869b fa3c 1353 e33c
000000e0: 06b7 85bb 5c96 0c3a e191 3cbd ea86 e63c
000000f0: 775c ef3c e1a9 77bd 138e 6abc 548a 4fbd
00000100: e697 ff3c 4d5c 293d 9c1d 333c b927 8b3c
00000110: 4e81 db3c caa6 ff3c 9906 1c3d 44b5 203b
00000120: 1aa4 533d 4c12 1c3c 53c0 f8bc df9c 093d
00000130: bfdd 78bb 4a49 363d 2438 473d 0a26 77bd
00000140: f24f f63b a1c8 8ebc 23a8 eebc 6e75 47bd
00000150: 23cc 5ebd 5235 81bc d7ed 36bd cdc3 61bd
00000160: da26 68bd 3a9c ee3c 7e99 453d 53e9 5cbd
00000170: cd80 5e3d 3cc1 cbbc 65a3 bebc 65bc 2bbd
00000180: f3c0 70bd 36d4 14bd b6ce 083d 4241 223c
00000190: c38a 1d3d 8c0f 1ebd 4065 e8bc 6ab8 1f3c
000001a0: 4473 673d bdae dd3c ab64 103d 6197 38bd
000001b0: 1a16 2abc e951 abba 5d11 65bd 1746 233d
000001c0: 7991 373d c68c 293d 5306 8d3b c249 6cbb
000001d0: e74e 803c 3b36 b3bb deb8 743d f8b5 f6bc
000001e0: 69b0 993b eaf5 6f3d 1bbd 4abd 7ccf 2ebd
000001f0: db1e aa3c bdef 28bd 7e3f 0dbb 338d 023c
00000200: 58c1 6e3d da4a 26bc ba45 06bc edae 43bd
00000210: 3fab d3bc c3ce 553c 23fe ef3c d808 0f3d
00000220: 5e62 20bc dfc9 b63c 7076 b4bc 9b9e 6ebd
00000230: 768a 43bd fb56 243d 8abc 663d 76db 15bd
00000240: 62ca 76bd 0b32 9bbc 5507 c23c 7d1b 3e3d
00000250: 1719 323c ea5c 703d 6cf5 003d feb0 28bd
00000260: 39f8 e1bb f2c2 90bc 0ee8 2ebd 7bd8 4d3d
00000270: 05ad 723d 4172 b4bc 28d3 713c 71f2 c83c
00000280: 1c6a 92bb 70fc 693d 9465 23bd 2a6f ae3c
00000290: 239a 01bc eac8 59bb 2e09 77bd 2f77 e33c
000002a0: 5b08 f53c b29e 053d d6a0 6e3d 45e6 4dbd
000002b0: acb1 e8ba ed80 d1bb 1179 22bc be2d 2cbc
000002c0: 3310 54bc f0a8 873c f871 6c3c 3f76 5f3d
000002d0: 908d 9e3c c406 a0bc c314 38bd f665 423d
000002e0: 4b5a 903c 7927 20bd ecf3 243d 1fd8 70bd
000002f0: de11 6e3d 3584 863c 52f1 403d cf04 fbbc
00000300: 7696 673d 07a7 ed3c fb57 0dbc e140 71bd
00000310: 0382 b13c 5703 713d a3a4 24bd e016 2ebd
00000320: 4f87 58bd b0d9 5cbc a04c a4bc 997f 403d
00000330: 0323 e7bc 727c 08bb 6ed7 0abd 962f 5ebc
00000340: 0b83 f03c b087 633d b83a fe3c 3135 5a3c
00000350: 1228 363d c5ef 3c3d 97c5 7bbd b434 7bbd
00000360: 0b43 0139 1d73 77bd 12cc 0b3c 37ba 5a3d
00000370: a147 16bd b481 03bb dbb4 ed3a c752 f5bc
00000380: e59f 7a3d 5ccb 33bd 5fff 2f3c 75a1 383d
00000390: 75b1 0abd 59c5 12bc 669d 62bd 798d 56bc
000003a0: ffdb 6fbd dd09 033d 7982 71bd b5dc 653c
000003b0: 1454 703c b383 473b d465 59bb a1cd 72bd
000003c0: ee05 653d 0865 033d 135e afbc 8881 59bd
000003d0: a64f 293c f233 b5bc e012 333d d657 cc39
000003e0: 6129 413c acbb de3c a71d 3cbd 09aa 273d
000003f0: 2e0d 8cbc 3c93 183a a2e2 ae3c 8656 383b

rnn.weight_hh_l1 f4 [256, 256]
-0.034882955 -0.038268447 0.05010227 -0.014888681 -0.0070461095 0.022049563 -0.0045868563 -0.056976255
0.0040926635 -0.0275514 -0.011340169 -0.034750883 0.013147958 0.039481957 0.045231238 -0.03194092
0.049128495 -0.05620226 -0.005325019 -0.02388191 -0.04333953 -0.02540301 -0.061386123 -0.0032703967
-0.03330151 0.06217927 -0.061881572 0.0084512355 0.029835377 -0.020373436 0.0020929272 -0.022036407
0.045078874 -0.048633397 0.026589124 -0.036288112 0.05433894 0.01257585 0.026076365 -0.0011091904
-0.033832833 -0.04649337 -0.06138821 0.06029225 -0.059125327 -0.000845445 -0.032790553 -0.027026393
0.030723056 -0.05067497 0.014095999 -0.058431078 0.031862866 0.02725489 0.050765023 0.021739079
0.007852951 -0.022950003 -0.0036026072 -0.049991943 -0.04036397 0.015465288 0.01348235 0.05383465
0.0077610016 -0.0154210385 -0.025249887 0.037297465 0.03168913 0.036533672 -0.045836426 0.051115226
-0.05123333 -0.042145528 -0.039958075 -0.05800297 -0.008191213 -0.05424801 -0.025375947 0.012731119
-0.005323062 -0.021358747 -0.04768841 0.054290507 0.058970116 -0.024036944 -0.06164707 -0.023644006
0.033460084 0.057667613 0.01942303 0.040096898 -0.050163213 -0.013561222 0.061746713 0.061650716
0.048531264 0.042320255 0.05585281 -0.019865442 0.04293818 0.0441426 0.012279348 -0.038816147
-0.050793882 0.019669775 0.055990808 0.011338251 0.0028607158 0.01914243 -0.04149313 0.010892317
0.049528144 -0.013719951 0.05229885 0.031392265 0.01988262 -0.012090584 -0.01053763 -0.03337645
0.0053049442 -0.039095066 0.040805396 -0.0032537188 -0.053202756 -0.03637047 -0.029821934 -0.02041949
-0.032244503 0.0053331144 0.024484472 0.03582021 0.061293006 0.046138793 -0.05196775 -0.0065469635
-0.028746024 0.0045333733 -0.016596355 -0.01931568 -0.004986354 -0.030068586 0.02297038 0.03488129
-0.042505644 -0.046052977 -0.014504962 -0.04016289 -0.015040796 0.032988835 0.009749581 0.030490307
0.039915632 0.0017837735 0.055873886 0.024384178 0.005979172 0.049383197 -0.0037609758 -0.004659226
-0.04100885 0.027163178 -0.059635606 -0.049179867 -0.028670993 -0.027963525 -0.036408707 0.041909765
-0.010190817 -0.029928893 0.002803897 0.041230038 0.02634241 -0.057575602 -0.033599284 -0.026468031
-0.053027328 -0.01933689 -0.0011069353 0.037541848 0.0015221336 -0.005301933 0.040157463 -0.013141654
0.04202149 0.016225295 0.05635184 -0.024151325 0.044052787 -0.011161368 0.002884174 -0.030429335
0.05724534 0.05400657 0.013267592 -0.031013677 0.017118065 0.052764345 -0.026664851 -0.05646037
0.036956016 -0.029271096 -0.024272246 0.013671171 -0.049420852 0.03479971 0.059100933 -0.014720814
-0.055305347 -0.021740438 -0.045150783 0.049699105 0.0154994065 -0.05869045 0.049188465 0.051035326
0.05079574 -0.04074904 -0.04599041 -0.010918321 -0.057672698 0.014580377 -0.051496 0.043937057
0.04966701 0.029825313 -0.03470492 -0.016157985 -0.013823714 -0.0008166439 0.031378668 0.024406618
0.02141655 0.047847033 0.050051205 0.0525361 -0.007043641 0.024558222 -0.03283188 0.06139282
0.025884153 0.036500543 -0.013197306 -0.021284072 -0.060719762 -0.053155676 0.0023063899 0.053398423
0.057663303 0.011749354 0.01955408 -0.025484536 0.0062695877 -0.02409448 -0.0018660267 0.0051998342
00000000: 6ee1 0ebd 60bf 1cbd 0a38 4d3d a7ef 73bc
00000010: 0de3 e6bb 49a1 b43c 574d 96bb ef5f 69bd
00000020: c01b 863b 79b3 e1bc 1ecc 39bc f156 0ebd
00000030: 886a 573c d5b7 213d 6444 393d 7bd4 02bd
00000040: f63a 493d 5734 66bd 7f7d aebb ffa3 c3bc
00000050: ca84 31bd f919 d0bc 0470 7bbd 2754 56bb
00000060: 2a67 08bd b1af 7e3d 8877 7dbd 0d77 0a3c
00000070: 5269 f43c 31e6 a6bc 7e29 093b b285 b4bc
00000080: a0a4 383d d033 47bd 6fd1 d93c d8a2 14bd
00000090: 8292 5e3d f00a 4e3c 1a9e d53c 4162 91ba
000000a0: 4c94 0abd d56f 3ebd 3472 7bbd 02f5 763d
000000b0: 662d 72bd dba0 5dba 634f 06bd 7466 ddbc
000000c0: ebae fb3c 8f90 4fbd e8f2 663c 6d55 6fbd
000000d0: a382 023d a645 df3c fcee 4f3d 2716 b23c
000000e0: aaa9 003c a501 bcbc b819 6cbb 5ac4 4cbd
000000f0: b154 25bd 1f62 7d3c 13e5 5c3c b981 5c3d
00000100: 0050 fe3b 86a8 7cbc dad8 cebc 3ac5 183d
00000110: 76cc 013d 55a4 153d fabe 3bbd 335e 513d
00000120: 0ada 51bd caa0 2cbd 14ab 23bd 8694 6dbd
00000130: 7034 06bc 2933 5ebd 38e1 cfbc 2f96 503c
00000140: 156d aebb 8af8 aebc ec54 43bd b95f 5e3d
00000150: a68a 713d 20e9 c4bc a381 7cbd 13b1 c1bc
00000160: 710d 093d e034 6c3d 0c1d 9f3c a53c 243d
00000170: f177 4dbd e32f 5ebc 1fea 7c3d 7685 7c3d
00000180: b8c8 463d 0158 2d3d ebc5 643d dabc a2bc
00000190: f2df 2f3d dfce 343d 522f 493c aefd 1ebd
000001a0: 3f0d 50bd 8222 a13c 9e56 653d 12c4 393c
000001b0: d97a 3b3b 96d0 9c3c b3f4 29bd b075 323c
000001c0: 06de 4a3d a5c9 60bc 5237 563d 2d95 003d
000001d0: e0e0 a23c 9617 46bc 06a6 2cbc bfb5 08bd
000001e0: 19d5 ad3b 2622 20bd 8f23 273d 583c 55bb
000001f0: 22eb 59bd 34f9 14bd 214d f4bc c646 a7bc
00000200: d012 04bd 68c1 ae3b a993 c83c 36b8 123d
00000210: 600e 7b3d 08fc 3c3d 23dc 54bd e987 d6bb
00000220: c87c ebbc b18c 943b 14f5 87bc eb3b 9ebc
00000230: 9264 a3bb 6552 f6bc 612c bc3c afdf 0e3d
00000240: 661a 2ebd 0ca2 3cbd 38a6 6dbc d881 24bd
00000250: ac6d 76bc 4d1f 073d b5bc 1f3c cfc6 f93c
00000260: 937e 233d 82cd e93a 04dc 643d 54c1 c73c
00000270: eeec c33b 0946 4a3d b47a 76bb 6cac 98bb
00000280: e5f8 27bd 5085 de3c 7744 74bd d470 49bd
00000290: 6edf eabc c313 e5bc 4c21 15bd 93a9 2b3d
000002a0: 62f7 26bc 702d f5bc 96c1 373b d4e0 283d
000002b0: 0acc d73c 65d4 6bbd 679f 09bd 7cd3 d8bc
000002c0: 2f33 59bd 6668 9ebc 9616 91ba 7bc5 193d
000002d0: 5482 c73a d6bb adbb 277c 243d 1850 57bc
000002e0: ba1e 2c3d e9ea 843c 30d1 663d 00d9 c5bc
000002f0: b270 343d 2cde 36bc 6904 3d3b f146 f9bc
00000300: 177a 6a3d fe35 5d3d 5060 593c 6510 febc
00000310: 2f3b 8c3c 6d1f 583d 3f70 dabc fd42 67bd
00000320: 315f 173d f0c9 efbc 97d6 c6bc 0cfd 5f3c
00000330: 856d 4abd 248a 0e3d d213 723d 922f 71bc
00000340: dc87 62bd 0119 b2bc 07f0 38bd 4a91 4b3d
00000350: 39f1 7d3c 6665 70bd d879 493d 6b0a 513d
00000360: 320f 503d 77e8 26bd 7160 3cbd c2e2 32bc
00000370: 353a 6cbd 89e2 6e3c 78ed 52bd 58f7 333d
00000380: a26f 4b3d 3754 f43c bf26 0ebd c05d 84bc
00000390: dc7c 62bc 0b14 56ba eb86 003d 63f0 c73c
000003a0: c371 af3c 40fb 433d 7e02 4d3d 1830 573d
000003b0: 58ce e6bb 532e c93c b97a 06bd 0a77 7b3d
000003c0: 010b d43c 9881 153d 8339 58bc ef5b aebc
000003d0: 49b5 78bd c4b9 59bd cd26 173b 4eb8 5a3d
000003e0: 5b30 6c3d 5d80 403c e12f a03c f2c4 d0bc
000003f0: 1d71 cd3b c961 c5bc 7795 f4ba 5f63 aa3b

rnn.bias_ih_l1 f4 [256]
0.010563075 -0.026983147 -0.055602405 0.055812944 0.043337833 0.04857899 0.04102893 -0.05959641
-0.037288386 -0.059768543 0.007855374 0.040022932 -0.0010088695 -0.030003646 -0.053534128 0.035943132
-0.011556106 0.0057835784 0.00072703144 0.057334527 0.027564159 -0.019005714 -0.02307827 -0.012586734
0.009626083 0.04767696 -0.06204736 0.057081845 -0.047984924 0.04681587 0.050532892 -0.041178077
-0.058516134 0.046284776 0.0471038 -0.060143735 0.051681586 -0.013946318 0.029883659 -0.0493617
-0.00021285863 0.031139212 0.0516835 0.027618473 0.02012231 -0.037235077 0.04648396 0.033412904
0.031113354 -0.035291083 -0.02732783 0.004348976 0.042788707 0.05177256 0.027099892 0.012566503
0.05326652 0.015737046 0.05821473 0.054109555 -0.0058056884 0.05167083 -0.021727063 0.008068452
0.05537565 -0.059501838 -0.008506992 0.0034876503 0.051063452 0.048708268 0.04607026 -0.0003749971
-0.0044226465 0.018843539 0.038097963 -0.04455368 0.038485344 -0.045422506 0.036298692 -0.05820323
0.046434302 6.3165695e-05 -0.055253033 0.008437066 0.011438471 0.039752852 -0.028546715 0.06163767
-0.037645463 -0.0051441537 -0.018160535 0.02088758 -0.005493169 -0.015676238 -0.02273112 0.038862877
0.046093334 0.06034714 0.041962285 -0.030964235 0.036491882 -0.024040569 -0.0016659843 -0.013725578
-0.009685754 0.02174351 -0.05455792 0.019395541 -0.017543355 0.02665107 0.052612796 -0.025771717
-0.057217415 0.061067514 0.025892384 -0.0034070087 -0.0060324376 -0.016682897 -0.035119925 -0.03906509
0.05454421 -0.030183991 0.037539035 -0.059808917 -0.020601658 -0.057775237 0.060550906 -0.025474563
0.023765387 -0.023795705 0.050874952 -0.04680473 -0.062077012 -0.04190038 -0.016999077 -0.02434225
0.017987514 -0.03112091 0.033488158 0.009512877 0.030454451 -0.020271853 0.017562335 0.047189984
-0.054483827 0.039629523 -0.002433502 0.057728175 0.03546604 0.05237569 0.015973026 -0.0030780442
0.041384436 -0.056184523 -0.04920537 0.029698875 -0.03405033 -0.027076015 0.060946353 0.060168054
-0.023136921 0.0007784603 0.019163886 0.027409311 0.0063578845 -0.019447315 -0.06215106 0.014303673
0.013527451 0.023525676 -0.02405366 -0.03507301 0.009307955 0.0065725427 -0.013963665 -0.047206953
-0.038107976 -0.027384983 -0.0446402 0.029982172 0.04340361 -0.016812894 0.024692647 0.05598292
-0.03386226 -0.026163125 0.048612244 -0.020378562 0.058054425 -0.019041719 0.057208724 -0.019444617
0.018711401 -0.055119503 0.043660548 0.0455436 -0.061289437 0.050060365 -0.024133828 -0.001916237
0.011788536 0.032432787 -0.043041863 0.036887024 -0.03902941 0.027782671 0.033619568 -0.04810153
-0.052843973 -0.052796215 -0.052466504 -0.04592307 -0.040034253 -0.0025355176 -0.05298712 -0.03743319
0.055728137 0.015333561 -0.01826734 0.025841162 0.013688297 -0.032693353 0.0029239855 0.024048213
-0.005875243 0.001508037 0.030938495 0.059737097 -0.0030655165 0.026680522 -0.029771859 0.041571274
0.04329213 -0.015497726 0.058788955 -0.007980366 -0.05042365 0.05013384 -0.031869393 -0.020933004
0.057501808 0.020934677 0.005515166 -0.039005093 -0.030927183 -0.0045110597 0.017226726 -0.035379138
0.016505405 -0.01803956 0.053738542 0.0586957 -0.005294234 0.02045485 -0.02829262 -0.035507504
00000000: bf10 2d3c c30b ddbc 59bf 63bd 1d9c 643d
00000010: 0383 313d c3fa 463d f40d 283d 5d1b 74bd
00000020: b5bb 18bd dccf 74bd d4b3 003c 16ef 233d
00000030: 0b3c 84ba 35ca f5bc 9a46 5bbd 1b39 133d
00000040: d255 3dbc 2c84 bd3b 4196 3e3a 9cd7 6a3d
00000050: 3bce e13c dfb1 9bbc a40e bdbc 9738 4ebc
00000060: b8b6 1d3c ea48 433d 5f25 7ebd a7ce 693d
00000070: d78b 44bd ffc1 3f3d 94fb 4e3d 58aa 28bd
00000080: 9dae 6fbd 1b95 3d3d eaef 403d 4759 76bd
00000090: 12b0 533d 197f 64bc 93ce f43c 7e2f 4abd
000000a0: ce32 5fb9 a917 ff3c 14b2 533d 2340 e23c
000000b0: 8bd7 a43c cf83 18bd f765 3e3d f8db 083d
000000c0: 6fe1 fe3c 628d 10bd 9dde dfbc db81 8e3b
000000d0: 3643 2f3d 770f 543d 9800 de3c bce3 4d3c
000000e0: ff2d 5a3d faea 803c 9272 6e3d fba1 5d3d
000000f0: a53d bebb cba4 533d f4fc b1bc 8a31 043c
00000100: 94d1 623d 33b8 73bd e960 0bbc 1091 643b
00000110: e927 513d 5282 473d 2bb4 3c3d 429b c4b9
00000120: d9eb 90bb c45d 9a3c 9c0c 1c3d eb7d 36bd
00000130: cfa2 1d3d f30c 3abd f0ad 143d 8366 6ebd
00000140: e531 3e3d d377 8438 0151 62bd 9f3b 0a3c
00000150: 6d68 3b3c e3d3 223d cdda e9bc c877 7c3d
00000160: 2132 1abd 4a90 a8bb 67c5 94bc 6e1c ab3c
00000170: 0b00 b4bb 746b 80bc 9d36 babc ae2e 1f3d
00000180: 5dcc 3c3d 902e 773d a5e0 2b3d b5a8 fdbc
00000190: 8378 153d baf0 c4bc 285d daba 3fe1 60bc
000001a0: ffb0 1ebc 721f b23c 2078 5fbd 66e3 9e3c
000001b0: 15b7 8fbc 5853 da3c 8480 573d 351f d3bc
000001c0: cf5c 6abd ee21 7a3d 441c d43c 1f48 5fbb
000001d0: c1ab c5bb 92aa 88bc e9d9 0fbd b702 20bd
000001e0: c069 5f3d 6b44 f7bc 88c2 193d 32fa 74bd
000001f0: cfc4 a8bc baa5 6cbd 3a04 783d 08b0 d0bc
00000200: a1af c23c 36ef c2bc 4162 503d 51b6 3fbd
00000210: 7744 7ebd bc9f 2bbd a641 8bbc 6669 c7bc
00000220: 8d5a 933c 47f1 febc e12a 093d e6db 1b3c
00000230: 9d7b f93c 2811 a6bc e3de 8f3c 494a 413d
00000240: 6f2a 5fbd 9152 223d 647b 1fbb 6174 6c3d
00000250: d744 113d e487 563d ddd9 823c 03b9 49bb
00000260: ba82 293d be21 66bd 928b 49bd 0e4b f33c
00000270: 5c78 0bbd 85ce ddbc e2a2 793d c772 763d
00000280: a489 bdbc 9611 4c3a 95fd 9c3c 7e89 e03c
00000290: cd55 d03b fa4f 9fbc 1c92 7ebd f459 6a3c
000002a0: 3ea2 5d3c ebb8 c03c 2e0c c5bc b7a8 0fbd
000002b0: 6580 183c 7c5e d73b dbc7 64bc 145c 41bd
000002c0: 1c17 1cbd 7956 e0bc a4d8 36bd 2c9d f53c
000002d0: fcc7 313d 32bb 89bc 3c48 ca3c 594e 653d
000002e0: 27b3 0abd 0d54 d6bc a21d 473d f1f0 a6bc
000002f0: 7aca 6d3d 61fd 9bbc b253 6a3d 514a 9fbc
00000300: a748 993c fdc4 61bd 67d5 323d ed8b 3a3d
00000310: a20a 7bbd 190c 4d3d 4eb4 c5bc 3e2a fbba
00000320: b424 413c 3ed8 043d aa4c 30bd d916 173d
00000330: 4ddd 1fbd 7c98 e33c acb4 093d 1c06 45bd
00000340: ec72 58bd d840 58bd 1ee7 56bd d419 3cbd
00000350: f5fa 23bd ed2a 26bb 0609 59bd 8b53 19bd
00000360: 3043 643d 9e39 7b3c 63a5 95bc d8b0 d33c
00000370: e144 603c 77e9 05bd 56a0 3f3b c200 c53c
00000380: 1c85 c0bb 53a9 c53a ba72 fd3c e3ae 743d
00000390: d5e6 48bb 1c91 da3c 1de4 f3bc a446 2a3d
000003a0: 1753 313d 2dea 7dbc b0cc 703d 15c0 02bc
000003b0: 0789 4ebd 2459 4d3d 7b89 02bd b17b abbc
000003c0: 0487 6b3d 337f ab3c 91b8 b43b cec3 1fbd
000003d0: 015b fdbc 83d1 93bb 101f 8d3c b7e9 10bd
000003e0: 5836 873c b3c7 93bc f21c 5c3d e76a 703d
000003f0: 417b adbb ee90 a73c edc5 e7bc 5170 11bd
