cnn.pth (torch, 938375 bytes, 10 tensors)

conv1.weight f4 [128, 3, 5, 3]
000000 f2 2c ab bd 42 de 2d bc b4 ed f4 3d c8 4a 11 3e
       -0.08358182 -0.010612072 0.11959401 0.14188683
000010 18 48 d1 3c c1 77 5f bd cc 89 97 bc ef 29 ca bd
       0.025547072 -0.054557566 -0.018498324 -0.098712794
000020 b9 2e 8d 3d 8f 4c c3 3d a3 70 ce bc cf 8d 3d 3d
       0.06893677 0.09536087 -0.025200194 0.046277817
000030 82 7e 01 bd 46 4c b3 bc 8a 8f 59 3d a2 52 5d bd
       -0.031614788 -0.021886956 0.053115405 -0.054033883
000040 0f 2e 42 3d 04 0c ca bd 6f d3 e0 3d 11 2e 1a be
       0.047407206 -0.09865573 0.10977828 -0.15056635
000050 fc a2 ba bd d8 f9 4b 3c 99 93 6a bd 0d 3f 2e bd
       -0.09113118 0.012449704 -0.057269666 -0.0425406
000060 86 a3 fa bd 26 8f 90 3d a2 85 dd bd 83 53 84 bd
       -0.12238221 0.070585534 -0.10816504 -0.06461241
000070 e3 9f 10 3e 2d 74 a8 3d 0b 1d da bd 23 92 19 3d
       0.14123492 0.08225284 -0.10650071 0.037492882
000080 84 26 74 3d e9 91 90 3d 63 12 fe bd a5 ab ee bd
       0.059607044 0.0705908 -0.12405851 -0.11653832
000090 33 a8 17 3e c6 be 90 bc 72 d2 90 bc 44 63 cd bd
       0.14810257 -0.017669093 -0.017678473 -0.10028699
0000a0 28 03 c6 bd 8f d9 20 3d bc 2d 26 bd 43 e8 46 3d
       -0.09668571 0.03926998 -0.04057096 0.048561346
0000b0 66 41 fc 3c e0 20 5a 3d 81 85 96 bd 3a 2e 14 bc
       0.030792903 0.05325401 -0.073496826 -0.009044224
0000c0 00 da 60 bb 82 35 ea 3d f6 e4 e1 bc c3 cc bd bd
       -0.0034309626 0.11435987 -0.027574997 -0.09267571
0000d0 a9 ed 95 bc c8 df c2 bd 20 e6 bc 3b 96 be 9d bd
       -0.018301802 -0.09515339 0.0057647377 -0.07702367
0000e0 07 65 93 3d 64 bc 3a 3d 98 58 67 bd 74 e2 01 3d
       0.07197004 0.04558982 -0.056480974 0.031710103
0000f0 55 26 13 3e 10 0d fc 3d 87 53 3b bd 7e a4 ca 3d
       0.14370091 0.12307179 -0.045733955 0.09894656
000100 25 3f 9b bc 2e b3 9e 3d b1 75 17 3e 33 57 be 3d
       -0.018951008 0.077490196 0.1479099 0.09293976
000110 4b cf 94 3c d8 8a 0b 3d b2 01 94 bd a6 10 f0 bc
       0.018165251 0.03406796 -0.07226886 -0.029304814
000120 60 27 54 bd e4 ae 47 3d a4 1d c1 bd c0 5b 70 3d
       -0.051795363 0.048750773 -0.094294816 0.05868125
000130 08 85 0d be 84 64 b4 bd 53 30 08 3e a3 ec bd 3c
       -0.13820279 -0.08808234 0.13299684 0.023184126
000140 e7 c6 fb bd f6 91 5b bd db 09 c4 bd ef 25 c4 3d
       -0.12293797 -0.053605996 -0.09572192 0.09577548
000150 f8 d3 b6 3d 8c e7 f1 3c 3b 18 66 3d eb a1 97 bd
       0.089271486 0.029529355 0.05617545 -0.0740393
000160 5a 6d ce bd 60 b5 c6 bd 1f e0 06 3e fc 8e 8c 3d
       -0.10079451 -0.09702563 0.13171433 0.068632096
000170 10 1a 0d bd c6 a9 1a 3e e3 2a 8b 3d f1 ff 8a 3d
       -0.034448683 0.15103826 0.06795289 0.06787098
000180 e7 1e 0d be 46 74 a8 bd ca f4 94 bd 8a 2d a1 3d
       -0.1378132 -0.082253024 -0.07273252 0.07870014
000190 89 6f 73 3d ff 8e 54 bd 82 18 7e 3d d4 af 11 be
       0.05943254 -0.051894184 0.06203509 -0.1422723
0001a0 d9 ed 31 bd bb 10 cd 3d 3b a3 0f 3e d6 80 a9 3b
       -0.04343972 0.10012957 0.14027111 0.005172829
0001b0 92 64 23 bd aa e7 2d 3d 49 16 17 be f5 30 4c bd
       -0.039890833 0.04245726 -0.14754595 -0.049851377
0001c0 d1 61 a3 bd 0f 75 b8 39 5b f4 77 bd 76 ac 9e 39
       -0.079776414 0.0003518243 -0.06053577 0.00030264602
0001d0 a4 af b8 bd 56 9d 08 3d 88 33 06 3e b6 0a b7 bd
       -0.09017876 0.033353172 0.13105595 -0.0893759
0001e0 76 32 f4 bd 03 fc 1d 3d 7d 0d 0e be 10 5a 0d 3e
       -0.11923687 0.038570415 -0.13872333 0.13803887
0001f0 22 1f 1e bd 15 34 2c 3b 57 f1 08 3e c7 40 b5 bd
       -0.03860391 0.002627616 0.13373314 -0.08850246
000200 a9 14 d1 3d 9c d6 0d 3e d3 f3 5b bd 80 a1 ae bd
       0.10209019 0.13851398 -0.053699326 -0.085268974
000210 52 01 59 3d b4 99 0d be d3 fb c5 bd 50 8a b7 3c
       0.052979775 -0.13828164 -0.09667172 0.02240482
000220 1c 31 07 be f8 d5 43 bd bf 62 91 bd 89 04 a1 3d
       -0.13202327 -0.04781148 -0.070989124 0.07862193
000230 11 e7 b6 bd a2 3c df bd 61 5d af 3c a4 b4 91 3d
       -0.08930791 -0.10900237 0.021406831 0.071145326
000240 d7 9e f9 bd 72 c7 10 3e 76 f0 ef 3d e2 0d da bd
       -0.121884994 0.14138582 0.11715786 -0.10647179
000250 ab 5e fe bd 78 e9 c8 3d f1 bb ac 3d 41 6c bb bd
       -0.124204 0.09810156 0.084342845 -0.09151507
000260 5a b9 d0 3d 51 85 99 3d 75 06 ea 3d f4 06 81 3b
       0.10191603 0.07496131 0.11427013 0.0039375965
000270 cc c1 3a bd 6a af 39 bc 42 f4 04 3e ad 6c e6 3d
       -0.045594975 -0.011333326 0.12983802 0.11251197
000280 4b 7f e8 3c 5b 4b 89 bd 05 a5 86 bc 54 f0 01 be
       0.02838101 -0.06703826 -0.01643611 -0.12689334
000290 08 0a 01 3d c9 cc d7 3d a3 33 31 3d 4c 5b cc 3d
       0.031503707 0.105371065 0.043262135 0.09978351
0002a0 e9 bb c1 bc 33 74 b0 bd 6f eb 7c 3d 17 86 b1 bd
       -0.023649173 -0.08615913 0.061747964 -0.08668154
0002b0 7e 16 5b bd 4b 01 84 bc 81 ea d2 3d 6b 51 f8 3c
       -0.053488247 -0.016113898 0.10298634 0.03031226
0002c0 3b de 63 bd 18 b4 e0 bd 18 3d 0c 3e be 91 0e 3e
       -0.055631857 -0.1097185 0.1369518 0.13922784
0002d0 a4 ab b8 bd 34 04 7d bd 80 6e 9b 3c 6c b4 05 be
       -0.09017113 -0.061771587 0.018973589 -0.13057107
0002e0 2e 3c e0 3d a8 ef dd bd c4 67 ae bd 42 31 35 bd
       0.10948978 -0.108367264 -0.085158855 -0.04423643
0002f0 c4 45 c2 bd e6 8b 41 bd e6 45 be bd 80 ab bb ba
       -0.09485963 -0.04725256 -0.09290676 -0.0014318079
000300 06 cf f0 3d 65 38 01 3e 26 ca 92 3d ba 20 82 3d
       0.117582366 0.12619169 0.07167463 0.06353898
000310 92 95 e3 3d 46 5d dd 3d b6 a8 e2 3d d9 f0 0a 3e
       0.11112513 0.10808806 0.11067335 0.13568439
000320 b0 f5 76 bc 7a 69 c9 3d 00 f9 6a 3c 01 d0 95 bd
       -0.015073225 0.09834571 0.014341593 -0.07315064
000330 f2 3b ff 3d d8 94 86 3d f0 04 62 bc 40 d5 d1 bc
       0.124626055 0.065713584 -0.0137951225 -0.02561438
000340 6e 41 d4 3d 03 b2 8b bd 56 c0 0c bd 2c 7a 28 bd
       0.10364042 -0.068210624 -0.034363113 -0.041132137
000350 03 db 91 bd 17 00 92 bd 00 98 37 39 38 72 88 3c
       -0.07121851 -0.071289234 0.00017508864 0.016656026
000360 6d 4b aa bd 32 af c7 3d 2c 00 60 3d 78 d2 94 3d
       -0.083151676 0.09750213 0.054687664 0.07266706
000370 dc 67 f5 bc ee 99 b3 3d 0d 07 04 3e e8 1d 63 3d
       -0.02995675 0.08769594 0.12893315 0.055448443
000380 c0 f4 b7 3c 48 b0 7c 3d 6c 4b 3a 3d ff 39 93 bd
       0.022455573 0.061691552 0.045482084 -0.07188796
000390 20 cc 9f 3b 62 a7 e2 3d 25 db 00 3e b2 76 07 bd
       0.0048766285 0.11067082 0.12583597 -0.03307218
0003a0 de 50 95 3d 60 0c bc bc b0 f0 8a 3c b0 36 0b bc
       0.07290815 -0.02295512 0.016960472 -0.008496925
0003b0 c4 2f 52 3d d4 a1 b3 3d 72 c4 cd bd 80 80 1b bb
       0.051315084 0.08771101 -0.100472346 -0.0023727715
0003c0 6b 38 05 3e b2 db 9a bd 21 c7 10 3e 18 fd 3a bd
       0.13009803 -0.07561435 0.14138462 -0.045651525
0003d0 da 59 d3 3d c0 91 a8 bc 2a fa 6a bd 8d c9 c4 bd
       0.10319872 -0.020577312 -0.05736748 -0.09608755
0003e0 d0 09 1e 3d 48 90 ac 3d 20 13 c1 3d c0 9d c9 3d
       0.038583577 0.08425957 0.09427476 0.098445415
0003f0 9e bb ce 3d 9c bf c5 bc 98 62 9a 3d 74 a1 26 3d
       0.10094379 -0.024139218 0.075383365 0.040681317

conv1.bias f4 [128]
000000 7b a5 e1 bd 75 f8 08 be 7c ce 15 be 02 22 b1 3d
       -0.11017891 -0.13376029 -0.14629549 0.086490646
000010 5a aa bb bd 50 c1 ba 3d 0c 5e 08 be 20 47 d8 bd
       -0.09163351 0.09118903 -0.13317126 -0.10560441
000020 fe df 00 3d 6c 0c 9d 3d 16 1d 71 bd ba 23 24 bd
       0.031463616 0.07668385 -0.05886563 -0.040073134
000030 f3 ff 1d bd a6 50 08 3e ce 08 a9 3d bd cc b0 3d
       -0.03857417 0.13312015 0.082536325 0.08632801
000040 18 ad f2 3d 9b f3 c5 3d b0 a8 20 3c 0c c5 7a bd
       0.11849421 0.09665605 0.009805843 -0.061223075
000050 00 f0 a2 3b b3 77 7f bb a9 a3 b9 bc fb 28 bb bd
       0.004972458 -0.0038981258 -0.022661047 -0.09138676
000060 b3 5b bf bd 46 22 ec bd 05 19 0b 3e 28 aa ac 3d
       -0.09343662 -0.11529975 0.13583763 0.08430892
000070 c3 47 af 3d fc 4d 7b 3c 0d 6e 10 be 14 67 e1 bd
       0.08558609 0.015338417 -0.14104481 -0.11005989
000080 0d 68 09 3c 5a a0 c5 3d de 2e bd bd 57 f1 ed 3d
       0.008386624 0.09649725 -0.09237455 0.116182975
000090 dc 44 9b bd e2 f6 53 bd b0 1a c7 bd a7 24 8a bd
       -0.07581493 -0.051749118 -0.09721887 -0.06745272
0000a0 1e 0f b6 3d 92 2d cf 3d 42 91 10 be be 05 01 3e
       0.08889602 0.10116114 -0.14117911 0.12599847
0000b0 fa 96 f2 3d 80 8a df 3b c2 83 0f be 10 dd 75 bc
       0.11845203 0.0068219304 -0.14015105 -0.015006319
0000c0 97 47 e4 3d 5c 05 9d 3b 8b 97 4d 3d 18 26 a9 3d
       0.11146467 0.0047918987 0.05019335 0.08259219
0000d0 20 b9 6b bd d8 e5 8a 3d a5 19 15 3e 09 99 13 be
       -0.057549596 0.067821205 0.14560564 -0.14413847
0000e0 bc 0f 5f bd db d9 03 3e 97 3d 78 bd 26 0a b1 3c
       -0.054458365 0.12876074 -0.06060561 0.021611284
0000f0 97 ba 1f bc ce 3f 04 3e f8 a9 81 3c 79 04 45 bc
       -0.009749076 0.12914965 0.015828118 -0.012024992
000100 85 59 00 3d 43 c8 dd bd d0 99 29 3d b0 0a 1e 3c
       0.031335372 -0.108292125 0.041406453 0.009646103
000110 3d 24 15 3e a0 60 d9 bd 76 91 c3 3d b3 69 99 3b
       0.14564605 -0.10614133 0.09549229 0.00468179
000120 e0 6d 64 3d 50 5a b9 3d 6d 2e f7 3d 00 4a 77 3b
       0.055768847 0.09050429 0.12069402 0.0037733316
000130 40 65 03 bd 4b 8a 05 3e 63 10 a8 3c 02 9d 94 3d
       -0.03207898 0.13041036 0.020515626 0.07256509
000140 9f 9f dc 3c b4 cc cf 3c 8e 82 7c bd 72 2a ea bd
       0.026931582 0.025366165 -0.061647944 -0.11433877
000150 df f2 c3 bd b5 bb 5e bd e2 18 d6 3d 65 8d c3 bc
       -0.09567808 -0.05437823 0.10453965 -0.023871133
000160 a2 bd f0 bd ae 63 02 be b6 89 89 3d 1e 72 da bd
       -0.117549196 -0.12733337 0.067157194 -0.106662974
000170 90 e7 3a bd 93 84 15 be b8 30 bb 3d 00 bc 9e ba
       -0.04563099 -0.14601354 0.09140152 -0.0012110472
000180 c4 b0 d1 bc 68 32 0a be d7 b5 b2 bd a9 ce 19 be
       -0.025596984 -0.13495791 -0.087260894 -0.15020241
000190 21 07 12 be 69 44 a1 bd 41 74 0b bd 90 df 46 bc
       -0.14260532 -0.07874376 -0.034046415 -0.012138262
0001a0 14 40 82 bd e3 fe ee 3d f0 5f 82 3c b6 14 1a 3d
       -0.06359878 0.116697095 0.015914887 0.037617408
0001b0 eb ce e5 bc 73 07 70 bc 36 59 e5 bd a8 65 60 bd
       -0.028052768 -0.0146502135 -0.11198656 -0.054784447
0001c0 b2 26 60 3d e3 a2 12 bd a7 1b 79 3c 22 ca 61 3d
       0.054724403 -0.035799872 0.015204347 0.05512441
0001d0 16 07 90 bc fa 6c f6 bd b6 b7 c4 bd 1d 30 20 3c
       -0.017581504 -0.120325044 -0.096053526 0.009777096
0001e0 5a e4 a8 3d 65 c0 0b be 56 45 89 3d 3e 8b 87 bd
       0.082466796 -0.13647611 0.06702678 -0.06618355
0001f0 62 fe f5 bd dd 72 bf 3d c2 28 c9 bd e1 32 05 3e
       -0.1201141 0.0934808 -0.09822227 0.1300769

conv2.weight f4 [56, 128, 3, 3]
000000 79 cd 90 3c c2 fc 5e 3b 78 52 33 bc d2 16 21 3b
       0.017676102 0.0034025167 -0.010944955 0.0024580252
000010 d8 df 84 3c e0 83 b7 bc 08 7a 17 3a 85 03 59 bc
       0.016220018 -0.02240175 0.0005778377 -0.013245468
000020 2c 61 80 bb 78 8d 2d 3c 60 78 e4 bc 7c f6 b7 bb
       -0.003917834 0.010592811 -0.02788943 -0.0056141
000030 6c 56 19 3b e0 fa 56 3a 6f 89 e7 bc a5 14 c6 3c
       0.0023397459 0.00082008354 -0.028263776 0.024179766
000040 88 d3 da bc 13 a1 b7 3c d8 39 99 3c 43 a3 74 3c
       -0.026712194 0.022415673 0.01870434 0.014931503
000050 dc 8e bc 3c 06 f6 26 3d c7 93 20 3c a4 f3 10 bb
       0.02301734 0.04076197 0.009800858 -0.0022117877
000060 4b d1 51 3c b0 f8 31 ba 7f a9 df 39 46 c1 cb bc
       0.012806247 -0.00067890715 0.0004266016 -0.024872433
000070 c6 69 57 3c 40 8a bf b9 cf ef c4 bc 45 87 7e bc
       0.013147777 -0.00036533363 -0.02404013 -0.01553518
000080 80 19 b2 bb e7 e9 72 bc 0c be f0 bb b2 fc 82 bb
       -0.0054351687 -0.0148262745 -0.007346874 -0.003997409
000090 bf f2 da 3c 7f 1e 93 3c 94 5c ce 3b dc 11 8e bc
       0.026727078 0.017958878 0.0062976573 -0.0173425
0000a0 b7 5e e1 bc c9 3d 8e 3c 8e 04 cb bc be cb aa bc
       -0.027510984 0.017363446 -0.024782445 -0.020849105
0000b0 3c 07 06 bc 45 bd e2 3c 6c 73 97 3b d0 be dc ba
       -0.008180436 0.027678141 0.0046219137 -0.0016841535
0000c0 96 74 6d 3c 73 47 d0 3c 93 fc ca 3c 62 55 8b bc
       0.014493128 0.025424695 0.02477864 -0.017008487
0000d0 3b 6d c7 3c 08 a2 f2 bb 45 85 3a bc 32 67 e8 3c
       0.024344077 -0.0074045695 -0.011384313 0.02836952
0000e0 ef 7c e5 3c ae 13 90 39 d4 48 73 3c 50 30 45 bc
       0.028013675 0.00027480483 0.014848907 -0.012035444
0000f0 75 f7 8d bc 13 36 fa 3b 63 b2 91 bc 4b c8 92 3b
       -0.01732991 0.0076358407 -0.017785257 0.004479443
000100 a6 05 06 3c 87 f9 ef bc ce 99 33 3b b8 20 bd bb
       0.008180058 -0.029293789 0.0027404907 -0.0057717226
000110 d1 7a cd 3c 5a 28 00 3d 2b b4 b7 3c b4 51 90 bb
       0.025082977 0.031288482 0.022424778 -0.004404271
000120 21 15 c5 3c e6 37 12 3c e6 18 24 3c ed 94 b3 3c
       0.024057927 0.00892446 0.010015702 0.0219216
000130 60 c9 98 bb 4e 76 e4 bc 61 58 83 ba 27 31 ae 3c
       -0.0046626776 -0.027888443 -0.0010020846 0.021263672
000140 4f 06 86 3c 3f 79 55 bc 2e 53 54 3c 4f d4 1d bc
       0.01636043 -0.013029396 0.012959285 -0.009633138
000150 73 b4 12 3d b6 2b a1 3c 3d 6c ea 3c 4a 6d 25 bc
       0.03581662 0.019674163 0.028616065 -0.010096857
000160 27 38 a9 3a 6b 5f 92 3a f5 4d bd bc 63 aa 90 bc
       0.0012910411 0.0011167353 -0.023108462 -0.017659372
000170 a6 ec f0 3c a0 8c d4 bc 7c fe c0 3c f0 17 e9 bc
       0.029409718 -0.025945961 0.023558848 -0.028453797
000180 d3 42 63 bb 9e 1c 61 3c 19 17 7b bc 16 8b c2 bc
       -0.0034677282 0.013739733 -0.015325331 -0.023747962
000190 34 74 29 bc 7c 3e e9 3b 83 a5 eb 3c c2 34 11 3c
       -0.010342646 0.0071180444 0.028765446 0.008862676
0001a0 1e 6e 8c bc 55 3e cb 3c c1 d4 9f 3c e9 98 98 3c
       -0.017142352 0.024809996 0.019510629 0.0186276
0001b0 80 39 6c b9 7b 93 ef 3c cf 00 96 3c e0 f2 a9 ba
       -0.00022528134 0.029245129 0.018310932 -0.0012966059
0001c0 aa 07 09 3c 6e d5 ae 3c 92 57 52 3c 4c d9 9d bc
       0.008363644 0.021342006 0.012838261 -0.019268654
0001d0 75 f1 ef 3c d9 2a c4 bc 69 16 c3 3c cd 2c d9 bc
       0.02928994 -0.023946213 0.023814397 -0.02651062
0001e0 2b 86 4f 3c 6e f5 62 3c 66 4f 23 3c 22 2b 00 bc
       0.0126662655 0.01385246 0.0099676605 -0.007822784
0001f0 d8 98 91 bb a2 6a 81 bc 98 f5 15 bb 60 b4 c5 3a
       -0.004443269 -0.015797917 -0.002288198 0.0015083663
000200 01 c7 82 3c 32 1d 9e bc 7e 12 62 3c e6 d6 30 3c
       0.015964033 -0.01930103 0.013798354 0.010793423
000210 f8 e7 2f 3b 98 c2 58 3b ce 3f 17 3c 6e a8 f9 3b
       0.0026841145 0.0033074971 0.009231521 0.0076189553
000220 d1 a2 2d bc e0 7b cf 3c ec f6 e9 3b 6c 24 be bb
       -0.0105979005 0.025327623 0.007140031 -0.0058026817
000230 40 f7 af bc 87 82 1d 3d 0c 59 8e 3c f0 60 a4 3c
       -0.021480203 0.03845456 0.017376445 0.020065755
000240 03 dd 4c 3d 79 8c e5 bc c5 a9 b6 3c 4a 10 99 3b
       0.05001546 -0.028021084 0.02229775 0.0046711313
000250 4e 1e 34 ba 83 a8 bb bc 48 18 8a 3c 5d 1e a0 3c
       -0.0006870971 -0.022907501 0.016857281 0.019545728
000260 fe b1 68 bb 35 76 77 3c e8 4a b3 bc b4 d6 8f 3c
       -0.0035506482 0.015103866 -0.021886304 0.017558433
000270 f0 70 30 bc 5f 19 db 3c f7 00 c1 bc b6 b4 3d bc
       -0.010769114 0.026745496 -0.02356003 -0.011578729
000280 0b a8 ab bc fd cb cb bc de e0 90 3b 2c aa 94 bc
       -0.020954153 -0.024877543 0.0044213375 -0.01814755
000290 12 96 0c bc 2a 51 0e 3d 46 c7 6c 3c 43 02 41 bc
       -0.008580701 0.034745373 0.014451807 -0.011780324
0002a0 54 7d b8 3c f8 49 24 3c d0 ce 84 ba c2 4c 00 bc
       0.022520699 0.010027401 -0.0010132436 -0.0078308005
0002b0 e0 6c 08 bc c2 4b 13 3c b2 de 35 3c d0 5c c7 bb
       -0.008326739 0.00899023 0.011100458 -0.006084062
0002c0 99 4c 9f 3c 62 92 71 3c 43 07 92 3c 3c d1 9c bc
       0.019445704 0.014744373 0.017825728 -0.01914274
0002d0 a4 f4 cf bc 60 5c 70 bc d0 78 6d bc ce 60 67 3c
       -0.025385208 -0.014670461 -0.014494136 0.014122201
0002e0 9a 39 c3 bc 31 7f cd 3c a0 5a d7 ba 93 0b e7 3c
       -0.023831178 0.025085064 -0.0016430207 0.028203761
0002f0 f5 77 8b 3c 56 83 19 3d 14 b6 02 bc c2 42 d1 3c
       0.017024973 0.037478767 -0.007977981 0.025544528
000300 09 a5 33 3d 50 3c 8d bc 8f c6 2f bc e2 14 5a 3c
       0.04385856 -0.017240673 -0.010728492 0.013310643
000310 7e da 93 3b d6 5c a1 bc 86 44 d0 bc 98 80 03 bb
       0.0045121303 -0.019697588 -0.0254233 -0.0020065662
000320 1c c7 ce bb 45 6c 9d 3c 31 56 c5 bc 88 83 4c bc
       -0.006310357 0.019216666 -0.02408895 -0.012482531
000330 66 33 87 bc a4 99 25 bc 0c ce 31 3c 8c cf 2b bc
       -0.016504 -0.010107432 0.010852348 -0.010486495
000340 6f 74 35 3c 09 24 5a 3c f8 82 92 3c 8c ee 38 3c
       0.011075123 0.0133142555 0.017884716 0.011287343
000350 75 fb de 3b ac aa 93 3c e8 5c c1 bc c0 92 89 3c
       0.0068048784 0.018025719 -0.023603871 0.016793609
000360 03 03 65 ba 0c 36 1a bc 35 48 b2 bc 68 61 f7 3c
       -0.00087361055 -0.0094123 -0.021762947 0.030197814
000370 5c d7 95 bc 1b bc 53 3c 38 f6 f1 3b f6 94 d5 3b
       -0.018291168 0.012923266 0.007384088 0.0065180017
000380 46 89 aa 3b ba ba 5e 3c 24 cf 60 bc fc f8 b1 bb
       0.0052043526 0.013594324 -0.013721261 -0.0054312926
000390 39 17 f1 3c 73 b8 c5 3c fc 5b 19 bc 97 52 94 3c
       0.029430019 0.024135804 -0.00936031 0.018105788
0003a0 28 a8 49 3b 0e 6a 23 bc 87 9d ae bb 04 be c2 3c
       0.0030770395 -0.009974016 -0.0053288373 0.023772247
0003b0 e7 1e 27 bb ab e6 d1 3c 61 9f d3 3c f1 69 c4 3c
       -0.0025500597 0.025622686 0.025832834 0.023976298
0003c0 a9 89 8a 3c a3 4f 2b bc 1a 6e 79 bc 4e c6 48 3c
       0.016911345 -0.010455999 -0.015224004 0.012254311
0003d0 2e 54 c5 bc a4 37 1a bc 5c f2 3b bc 28 20 4e 3b
       -0.024087992 -0.00941268 -0.011471357 0.0031452272
0003e0 14 e9 9f 3b bc 43 65 bc f0 2d 3d bc 90 bd 83 ba
       0.00488008 -0.0139932 -0.011546597 -0.0010051001
0003f0 fc 10 ae 3b ad 3c b2 3b 3d a8 a4 3b 72 4f 41 3d
       0.0053120833 0.005439362 0.0050249384 0.047194906

conv2.bias f4 [56]
000000 53 7b 67 3c 5d 22 63 bc 06 e5 f1 bb d2 34 3c 3b
       0.014128524 -0.013863173 -0.007382038 0.0028718007
000010 0b e1 e5 3c 30 2f 51 bc ff 0c cf bb ec c2 a1 bc
       0.02806141 -0.012767598 -0.006318688 -0.019746266
000020 f2 09 3f 3c 11 03 dd bc 30 22 5d 3c 04 16 cd bc
       0.011660086 -0.026979001 0.0134969205 -0.025034912
000030 ba b4 1d 3c bb 2e 89 3c 78 ac 24 bc 86 4e 14 3c
       0.009625608 0.016745916 -0.010050885 0.009051925
000040 06 aa b5 3c 3f ca c2 3b 0d a2 cb 3c bc 22 8a bc
       0.0221758 0.00594452 0.024857545 -0.016862266
000050 99 37 d2 3b 20 12 9b bb 6d 0e b6 bc 4c 6c 79 bc
       0.006415319 -0.0047323853 -0.022223676 -0.015223574
000060 4d 33 cc ba f0 11 ab bc 85 8c 46 3c 2f 0e d2 3c
       -0.0015579254 -0.020882577 0.012118463 0.025641529
000070 68 a6 2d bc 18 d8 16 3b 5f ba 94 3c b8 6a 43 3b
       -0.010598756 0.0023016986 0.018155275 0.0029818248
000080 b9 e9 93 bc 79 f6 5f bc 5a f7 d5 bc ab 1b a6 bc
       -0.018055784 -0.0136696035 -0.026118923 -0.020276865
000090 07 54 47 bc 24 35 b0 bb 09 c5 57 bc 19 11 df bc
       -0.01216603 -0.0053774286 -0.013169535 -0.027229832
0000a0 60 ac b7 ba 18 df f1 3b 6c a3 88 3c 4e 88 07 bc
       -0.0014013164 0.007381331 0.016679488 -0.008272244
0000b0 18 c3 c6 bc ea 6a 27 3c 40 27 a6 b9 73 54 b5 3c
       -0.02426295 0.010218361 -0.0003169123 0.022134995
0000c0 69 69 25 3b 87 14 36 bc 2a f7 63 3c a4 3e 44 bc
       0.0025239831 -0.011113293 0.013913909 -0.011977825
0000d0 9b 17 86 bb a2 f9 e8 3c b2 df 18 3c b6 ba 14 3c
       -0.0040921695 0.028439347 0.009330677 0.0090777185

fc1.weight f4 [256, 504]
000000 40 e5 f9 ba 80 9f 8a 3a a7 a2 22 bd 98 bd 38 3c
       -0.0019065514 0.0010576099 -0.0397059 0.011275671
000010 b0 60 5b bb bc 5c 11 bd 20 d3 d1 bc f4 b9 f5 3c
       -0.0033474378 -0.03548883 -0.025613368 0.029995896
000020 93 1e d8 bc bc 64 28 3d 34 65 78 3c 39 7a eb bc
       -0.026381766 0.041111693 0.015160847 -0.028744804
000030 b0 c0 af 3c d8 67 fc 3b 2f d7 2e bd 98 0b ce 3c
       0.021454185 0.007702809 -0.042685684 0.025152013
000040 10 93 9c bc cc 81 8b 3c f6 53 83 bc 88 3e ee bc
       -0.019113094 0.017029665 -0.016031247 -0.029082552
000050 8a 85 e0 bc 1d 3f 31 bd 6c 08 0f bd 04 76 0d bc
       -0.027407426 -0.04327308 -0.03492014 -0.008634094
000060 d6 cf 60 bc ef 22 e9 bc 1d 30 06 bd 6c c9 1d bc
       -0.013721427 -0.02845904 -0.03276073 -0.009630542
000070 0e 4b b2 bc fc f3 02 3d 0c 72 f9 bc 68 a3 c9 bc
       -0.021764304 0.031970963 -0.03044989 -0.024614051
000080 a4 59 55 3c 44 f9 e3 3c 04 50 5e 3c 80 77 cf 3b
       0.01302186 0.02782882 0.013568882 0.006331384
000090 c0 81 e3 3c 51 fb e6 bc d4 d7 8e 3c b2 25 2e 3d
       0.02777183 -0.028196009 0.0174369 0.042516418
0000a0 78 5c dd bb f8 82 aa bc e8 b8 b2 3b 22 85 04 3d
       -0.006755408 -0.020814404 0.0054541714 0.032353528
0000b0 00 09 b9 ba 54 f8 6d bc b0 b5 96 3b e4 f7 fd 3c
       -0.0014117062 -0.014524538 0.0045992956 0.031001993
0000c0 64 2c 8d 3c e0 51 24 bb fd 50 a6 bc 70 cc 17 3c
       0.017233081 -0.0025073215 -0.02030229 0.00926505
0000d0 24 34 a5 3c 08 2d 05 bd e4 2b cc 3c a0 41 13 bd
       0.020166464 -0.03251365 0.024923272 -0.035951257
0000e0 0b 78 9a bc 1c e6 31 3d 24 2a f2 3c 50 c3 09 bd
       -0.01885607 0.04343234 0.02956111 -0.03363353
0000f0 2c 94 3b 3c 46 c7 86 3c 6c 60 62 3c 8c 2a 0d 3c
       0.011448901 0.016452443 0.013816934 0.008616101
000100 f8 e3 1a bc 98 0c 47 3c 20 3e ea 3a 29 33 90 bc
       -0.009453766 0.012148999 0.0017871298 -0.01760252
000110 3d 8b fe bc 20 b5 fa 3c 2d b6 b8 bc 8d c2 18 bd
       -0.031072253 0.030603945 -0.022547806 -0.037294913
000120 2c 43 06 3c 80 44 36 3b c1 09 d9 bc 38 22 0f 3d
       0.008194726 0.0027811825 -0.026493909 0.034944743
000130 ef 03 89 bc b8 05 f0 3c 80 67 9e 3b 27 0a 26 bd
       -0.016725508 0.029299602 0.0048341155 -0.040537026
000140 80 08 35 bd 90 2c 84 3c 00 16 f6 3c ac e0 2b 3d
       -0.04419756 0.01613453 0.030039787 0.04196231
000150 d0 58 28 bd d8 a2 e2 3c fe 9e 6b bc d2 47 c4 bc
       -0.041100323 0.02766554 -0.014381168 -0.023960028
000160 ab 23 ca bc 40 17 2b ba 08 bc d8 3c cb 4e a5 bc
       -0.024675211 -0.0006526597 0.026456848 -0.020179173
000170 c3 85 8e bc 60 89 b6 3c 20 aa 8e 3a c9 da 1b bd
       -0.017397767 0.022282302 0.0010884441 -0.038050447
000180 d0 d0 cf 3c 9c 52 85 3c 20 e3 f4 bc e5 9f 04 bd
       0.025368124 0.016274743 -0.029893458 -0.03237905
000190 78 8b fe bb 78 c3 ef 3c 6c 3b e7 3c 10 12 0d bc
       -0.007768091 0.029268011 0.028226577 -0.0086102635
0001a0 ce 68 11 bd 46 8f 0e 3d 4a ba 7a bc 80 9a f9 bb
       -0.03550034 0.034804605 -0.015303204 -0.007617295
0001b0 8d b0 98 bc b0 8d 85 3c ee a3 33 3d cc 15 33 3d
       -0.018638873 0.016302913 0.043857507 0.04372196
0001c0 98 45 fa 3c 04 90 0f 3c 84 cd fd bc 30 7e d4 3c
       0.030550763 0.008762363 -0.030981787 0.025939077
0001d0 04 d7 09 3d 56 07 0b bd c4 6b 25 3c 36 fd 2f 3d
       0.03365232 -0.033942543 0.010096494 0.04296609
0001e0 26 35 04 3d 98 c0 c4 bb cc ed 4a bc 30 0a 1b bc
       0.03227725 -0.0060044043 -0.012385797 -0.009462878
0001f0 48 ce fc 3c 90 9c f3 3c 80 6f 12 3b 00 75 21 bb
       0.030860081 0.02973774 0.0022344291 -0.0024636388
000200 b2 a7 15 3d 60 59 ec 3c 60 39 69 3b 48 b9 17 bc
       0.03653688 0.028851211 0.0035587177 -0.009260483
000210 43 b6 1a bd 7a 59 5e bc 40 ff c8 3a 16 a1 99 bc
       -0.037771475 -0.013571138 0.001533486 -0.01875357
000220 76 61 90 3c 1a f4 22 bd e8 95 ac 3b 22 37 8c 3c
       0.017624598 -0.039783575 0.0052668937 0.017116133
000230 78 35 ac bb 58 4f 58 3c b2 18 87 3c c6 89 60 bc
       -0.0052553974 0.013202511 0.016491268 -0.013704723
000240 24 79 ed 3c 88 f1 1d 3c 90 58 20 bc 4c 75 fe 3c
       0.028988428 0.009640105 -0.00978674 0.03106179
000250 8a 58 21 3d 00 f7 8a bc c0 57 c0 3c 39 48 0a bd
       0.039391078 -0.016963482 0.023479342 -0.033760283
000260 9a 03 34 bd d8 e9 af 3c 20 5e 65 3b 98 80 ed bb
       -0.043948747 0.02147381 0.003499873 -0.0072479956
000270 12 1c 72 bc b7 26 d4 bc 10 5a 7d 3b 87 35 cd bc
       -0.0147772 -0.025897367 0.0038658418 -0.025049938
000280 66 16 13 3d 7a d5 f8 bc a0 fc 99 ba 38 5c 07 bd
       0.035910033 -0.030375231 -0.0011748262 -0.03304693
000290 7d f8 bb bc 10 7b 37 3b 14 75 f7 3c db 9a 87 bc
       -0.022945637 0.0027996935 0.030207194 -0.016553333
0002a0 c6 a3 24 bd a1 7d cf bc 5c bb 24 3d d0 20 1b 3b
       -0.04019525 -0.02532846 0.040217742 0.002367068
0002b0 60 39 fd bc 0c be b9 3c 3a 80 86 bc 81 77 db bc
       -0.030911148 0.02267363 -0.016418565 -0.026790382
0002c0 38 bf 21 3d 94 79 c2 3c 38 9a ee 3c 80 6d 4d 3b
       0.039489 0.023739614 0.029126272 0.0031345785
0002d0 d8 18 7c bc 90 1b 39 3c b8 5a 28 3d 00 d9 ff 3c
       -0.015386783 0.011298075 0.04110214 0.031231403
0002e0 ea 6d 09 3d d8 99 c1 3c f6 53 22 bd c6 0b 0f bd
       0.033552088 0.023632929 -0.039630853 -0.034923337
0002f0 69 f4 9f bc e8 04 f0 bb 20 85 22 3d 68 c3 55 3c
       -0.019525724 -0.0073248036 0.03967774 0.013047077
000300 16 60 29 3d 02 dc 32 3d a0 9e 5c 3c 97 f8 b8 bc
       0.0413514 0.043666847 0.0134655535 -0.022579474
000310 90 ad 17 bc f4 4a 19 bd 14 47 0b 3d 87 48 c1 bc
       -0.009257689 -0.037424996 0.034003332 -0.023594154
000320 32 35 12 3d 94 64 7b 3c cc 05 72 3c 5e 14 12 bd
       0.035695262 0.015343804 0.01477189 -0.035663955
000330 c0 4c f8 bb a0 f5 60 3c f0 92 da 3c 9c 15 2a bd
       -0.0075775087 0.013730437 0.026681393 -0.041524515
000340 f0 7d 3d bc e0 22 4a 3c e8 d3 5f 3c 28 77 e8 3c
       -0.01156567 0.012337416 0.013661362 0.02837713
000350 7d 6e 0f bd ab 4d 8a bc 9c 00 fa 3c 6b e1 2a bd
       -0.03501748 -0.016882738 0.030517869 -0.04171888
000360 08 3a e3 3b d8 db 30 3d 80 f9 0d 3b b6 4e 08 3d
       0.006934408 0.04317841 0.0021663606 0.03327819
000370 9c 2a dc 3c 06 1e 94 bc f8 ce 1e 3d 04 ad a4 3c
       0.026875786 -0.018080723 0.0387716 0.020102032
000380 80 61 cb ba f9 db 0a bd f0 07 2b 3c 4f 3a b6 bc
       -0.0015516728 -0.03390119 0.010438904 -0.0222446
000390 c2 3d 2a bd 65 8c 0d bd 00 47 22 bc 16 90 a6 bc
       -0.041562803 -0.03455772 -0.009904623 -0.020332377
0003a0 b4 25 83 bc 5c 1a 69 bc e9 ba 9d bc c0 5e 88 ba
       -0.01600919 -0.014227476 -0.019254165 -0.0010404214
0003b0 4e d2 f1 bc e2 66 02 bd 10 4c a8 bb 91 2c 04 bd
       -0.029519226 -0.031836398 -0.0051360205 -0.032269064
0003c0 50 93 96 bb 90 fc 9b 3b 08 6e 10 bc f0 44 2b 3d
       -0.0045951977 0.0047603324 -0.008815296 0.04181379
0003d0 70 d9 29 3d 94 9c e6 3c 9c f5 1c 3d 9a 04 ee bc
       0.04146713 0.028150834 0.03832017 -0.029054929
0003e0 20 3b 7a bb 86 ad 22 bd 46 81 2f 3d c0 07 15 bb
       -0.0038182214 -0.039716266 0.042847894 -0.0022740215
0003f0 1e a9 23 3d 60 cb 14 bd ec 03 90 3c 40 18 51 ba
       0.039956205 -0.036326766 0.017579995 -0.0007976331

fc1.bias f4 [256]
000000 07 69 a9 bc 61 a6 b1 bc 9d 12 14 bc 54 c3 2a 3c
       -0.020679964 -0.021685781 -0.009037641 0.010422546
000010 dc 2f a5 3b c0 11 23 3d d0 f0 0f 3d 74 53 9e 3c
       0.0050411057 0.03981185 0.035141766 0.019326903
000020 bd d3 1b bd 44 e6 18 3c 01 32 fb 3c 90 41 9f 3c
       -0.038043726 0.009332243 0.030663492 0.019440442
000030 cc b1 ce bc e2 28 8e 3c 8b c8 2e 3d 62 1f b3 bc
       -0.025231265 0.017353479 0.04267172 -0.02186555
000040 f6 2c 0e bc 43 2f 40 bc 83 eb 22 bd fc 5c 03 3d
       -0.008677712 -0.011730018 -0.039775383 0.0320711
000050 38 4f ff ba 0a 01 cf bc bb 3b 8d 3c d2 cc 85 3c
       -0.0019478565 -0.02526905 0.017240396 0.016333017
000060 06 af 9b 3c 62 83 e2 3c a0 bd 37 3d d3 09 ac bc
       0.019004356 0.027650539 0.044858575 -0.021000778
000070 93 46 43 3d fd 1a 8d bc 6d 90 df bc c8 bb db 3a
       0.047674727 -0.017224783 -0.027290547 0.0016764337
000080 30 64 16 3c a3 a5 2f 3d 39 7d 2c bc f4 6a 02 bd
       0.00917916 0.042882573 -0.010527902 -0.03184028
000090 20 c1 2c 3b 48 8a e7 3b 31 4c 0e bc 3f af 9b bc
       0.0026360229 0.007066045 -0.008685158 -0.019004462
0000a0 78 3b 07 bc b8 d2 b9 3c dc c7 54 bc bc 59 0c 3d
       -0.008253925 0.022683486 -0.012987103 0.034265265
0000b0 40 1f c4 bb 9e de 6d bc 9d 06 2e bd 65 46 00 bc
       -0.0059851706 -0.014518408 -0.042486776 -0.007829283
0000c0 d4 12 cc 3c 94 57 0d 3d ec 6b 00 bd 85 32 9d bc
       0.024911322 0.03450735 -0.031352922 -0.019189129
0000d0 f6 3b 66 bc 48 84 aa 3b b0 8e be 3b a9 0e e7 3c
       -0.014052382 0.0052037574 0.0058153495 0.028205233
0000e0 f8 26 dc bc 70 c8 27 bb d1 0b 56 bc 14 6e 04 3d
       -0.02687405 -0.0025601648 -0.013064341 0.03233154
0000f0 1a 93 11 bd 37 e0 ed 3c ff b3 b0 3c fd 5c 48 bc
       -0.035540678 0.029037578 0.021570204 -0.012229201
000100 d4 73 1c 3d 24 0b a4 bc 6a b2 33 bd 07 a9 d3 bc
       0.0381964 -0.020024844 -0.04387132 -0.025837434
000110 ab 70 34 bd dc f7 2e bc 69 d7 0c bd 18 1e 04 3c
       -0.04405276 -0.0106792115 -0.03438512 0.0080638155
000120 6a d3 8f 3b e0 40 3e bc 81 a0 9c 3c e8 2a ef 3c
       0.004389216 -0.011612147 0.019119503 0.029195264
000130 c5 9a 41 bc e1 1f 26 bd 54 6b 48 3c 59 3c 29 bb
       -0.011816685 -0.040557746 0.01223262 -0.0025823324
000140 aa a8 c5 bc d0 5b c5 3c 9d e5 09 bd 1b 15 e8 bc
       -0.024128277 0.024091631 -0.033666242 -0.028330376
000150 ce d6 25 bc eb 41 ef bc 25 c6 52 3c c2 06 ec bc
       -0.010122014 -0.029206237 0.012864624 -0.028811816
000160 2d d1 22 bd cc bc 4a 3c de c6 84 3c b4 0f 88 bc
       -0.039750267 0.012374114 0.016208109 -0.01660905
000170 07 23 3c bd 66 9b a3 bc aa 5d 15 bd 5f db 95 3c
       -0.045931842 -0.01997156 -0.036466278 0.01829308
000180 c2 ad 1b bd 66 1b 1f 3b 2d 04 23 3c 93 96 f4 bc
       -0.038007505 0.0024277805 0.009949726 -0.029856956
000190 f8 af 53 3c a3 8b 00 bd 98 d8 83 3b 7e bf c2 3c
       0.012920372 -0.031383168 0.0040236227 0.023772951
0001a0 3b 0c 43 3c 38 fb 11 3d 2f 1e 26 3c 67 bb fc bb
       0.011904771 0.03563997 0.010139032 -0.00771277
0001b0 a7 2c 11 3b b0 d3 37 bb 64 29 44 3c c6 aa 20 b9
       0.002215186 -0.002804976 0.011972759 -0.00015322407
0001c0 b3 c8 c0 bc ce d4 9d bc a7 56 03 3d c2 ce 8d 3c
       -0.0235332 -0.019266512 0.03206506 0.017310504
0001d0 33 d7 07 bd b5 03 fa 3c 13 bf b4 bc 23 dd 12 3d
       -0.033164214 0.030519346 -0.022063768 0.035855424
0001e0 54 ad 54 bc 61 f8 ec 3c 39 23 2f bd 7c b8 f6 bc
       -0.012980778 0.02892703 -0.0427582 -0.030117266
0001f0 a5 ae f6 bb 3c 96 14 3d 54 a3 d5 bc 9c 85 21 3d
       -0.0075281435 0.036276087 -0.026078857 0.03943406
000200 c9 13 b5 bc b1 03 45 bb d5 62 0a 3d c7 63 b8 ba
       -0.02210416 -0.0030062015 0.03378566 -0.0014067822
000210 57 fc ab bc e0 06 aa ba 07 e9 34 bd 18 ef a6 ba
       -0.020994348 -0.001297202 -0.044167545 -0.001273605
000220 6f 43 49 3d 42 28 14 3c cd f2 83 bc 77 0e 2c bc
       0.049136575 0.009042801 -0.016106987 -0.010501496
000230 22 e3 87 3c fe 90 31 3d 9c ec 84 bb 38 79 1a bc
       0.016587798 0.043351166 -0.0040565263 -0.009428315
000240 c0 9b 1b bb 27 85 b3 bc 2b 5e f9 3c e4 ed bb 3c
       -0.0023743957 -0.021914078 0.03044041 0.022940584
000250 01 21 e6 3c e1 8e 2d 3d 34 70 a2 bc 99 24 2f bd
       0.02809191 0.042372588 -0.019828893 -0.04275951
000260 45 8d 90 bc 44 03 d1 bc 34 5c d8 3c 40 ff 83 3b
       -0.017645488 -0.025514252 0.026411153 0.004028231
000270 56 aa 01 bc f3 5c e2 3b 3d bc ce 3c 8b bf 23 bd
       -0.007914146 0.006908053 0.025236243 -0.03997759
000280 c0 01 85 bc 44 1d 65 bc c0 fb 12 bd 50 ae c4 3b
       -0.016236186 -0.013984028 -0.03588462 0.006002225
000290 1b 92 fd bc 9c cd 3a bb df 11 13 3d c1 81 0a bd
       -0.030953458 -0.00285039 0.035905715 -0.03381515
0002a0 68 1d 28 bd 7c b1 b0 3a 42 43 ff 3b a8 68 e1 bc
       -0.04104367 0.0013480629 0.00779 -0.027515724
0002b0 78 96 98 bc 84 6a 90 3c d0 35 c7 bc 4f e1 96 bc
       -0.018626437 0.017628916 -0.024317652 -0.018417982
0002c0 9a 7d c8 3c ca c1 27 bd ce 37 d9 bc 78 d2 be bc
       0.024473954 -0.040956296 -0.026515868 -0.023293719
0002d0 94 76 19 3d 0e 0f 78 bc b1 81 ce 3c 69 ef 0e bd
       0.0374666 -0.015140308 0.025208326 -0.034896288
0002e0 a3 ef a0 bc 78 75 28 3c 01 08 d4 3c 2d bd 1b bd
       -0.019645518 0.010281913 0.025882723 -0.03802221
0002f0 12 4a 9d 3c 7c 55 0d bb 61 19 2c bd ed 0b 8b 3c
       0.019200359 -0.0021565845 -0.04201639 0.01697346
000300 4a f5 1d bd c2 42 ec bc c1 57 ce bc be 33 bc bc
       -0.038564004 -0.028840426 -0.025188329 -0.022973891
000310 86 27 ea bc 8c 2f 37 bc 83 d8 15 bd bf 76 fb 3c
       -0.0285833 -0.01118077 -0.036583435 0.030696271
000320 a9 eb c6 bc 51 fe f8 ba af 61 39 3d d0 c7 35 bd
       -0.024282293 -0.0018996691 0.045259174 -0.04438001
000330 f6 6b 36 bc 71 84 de 3c 5a 0e 98 bc f0 51 ec bb
       -0.011134138 0.027162762 -0.01856153 -0.007211916
000340 47 76 eb bc f4 3d df 3c c3 28 f8 3c 0d 1c 13 3d
       -0.028742922 0.027251221 0.030292874 0.035915423
000350 48 9e 0a 3d b1 42 72 bc 1a d0 02 3d af fd 9c 3b
       0.033842355 -0.014786408 0.031936742 0.0047909836
000360 61 7b f0 bb e7 02 dc 3c d0 7f 22 3d 77 3a 0b 3d
       -0.0073389267 0.026856853 0.039672673 0.033991303
000370 8e 77 26 3d 33 08 8a bc 05 b9 64 38 9a ca e5 bb
       0.04064136 -0.016849613 5.453175e-05 -0.0070126774
000380 0c 65 0e 3d 35 42 20 bd b3 5f 0f 3c 3a 57 da 3c
       0.034764335 -0.03912564 0.008750844 0.026652921
000390 73 36 a9 bc b0 ca e7 3c 28 71 2e 3d 0f 4f cf 3b
       -0.020655846 0.028294891 0.042588383 0.006326563
0003a0 de b0 05 3d 76 5f 68 bc d3 57 2a 3d ee 9e 15 bd
       0.032639377 -0.014182916 0.041587662 -0.03652852
0003b0 4d 18 c0 3c 66 30 24 3d 83 a0 ba bc 9f 81 13 3c
       0.023449088 0.04008522 -0.022781616 0.009003072
0003c0 1c 5d 59 3c 41 29 d7 3c af 8e 0c 3c 29 04 d7 bc
       0.013266828 0.026264789 0.00857894 -0.0262471
0003d0 6f d6 17 3d b1 71 13 3d 42 5a 1e 3d 76 9f 0b 3d
       0.037069734 0.035997096 0.038660295 0.03408762
0003e0 e0 6d 2e 3d ba 90 05 3d 5f b4 57 bb 00 fa 62 b9
       0.042585254 0.032608725 -0.0032913906 -0.00021646172
0003f0 4a ef b2 3c 00 23 48 3a 17 78 a8 3b 6c 6c 09 3d
       0.021842618 0.000763461 0.005141269 0.033550665

fc2.weight f4 [128, 256]
000000 80 fb 0b 3d 7a b9 5b bd b4 38 d2 3c 38 43 d5 3c
       0.034175396 -0.05364368 0.025661804 0.026033029
000010 97 cb ef 3c 95 93 11 3d b2 88 49 3d 44 0c 2c 3d
       0.029271884 0.035541136 0.04920263 0.042003885
000020 92 32 a4 bc 80 98 5c bc 59 e9 88 bd f4 c1 05 bd
       -0.020043645 -0.013464093 -0.066851325 -0.03265567
000030 36 29 33 3d 24 10 9a 3c 82 40 19 3c c0 0e 8a ba
       0.043740474 0.018806525 0.009353759 -0.001053296
000040 f4 8e 5d 3b f3 6b 22 bd 7a f7 66 3d e2 10 20 bd
       0.003380713 -0.03965373 0.056388356 -0.0390786
000050 c2 87 3a bd c3 ec 43 3c c2 0d 2b 3d b0 48 4f 3d
       -0.045539625 0.011958304 0.041761167 0.05060643
000060 fe 59 6a bd 5a 1d ca bb a6 6e 0e 3d 30 a5 ba bb
       -0.05721473 -0.0061680498 0.03477349 -0.0056959614
000070 7d 70 84 3d c8 fe 85 3c 74 a9 0e bd 64 ef 15 bd
       0.06466768 0.01635684 -0.03482957 -0.036605254
000080 ee e2 cd bb 67 6b 4e 3d a7 06 f7 3c 28 b4 de 3b
       -0.0062831556 0.050395396 0.03015454 0.0067963786
000090 38 2f e8 bc 88 44 30 3c 38 ba bc bc 94 f9 7f 3d
       -0.028342828 0.010758527 -0.023038015 0.062493876
0000a0 1c 10 5e bd 30 71 a8 bb 48 67 34 bd 07 bf 6e 3c
       -0.05421458 -0.005140446 -0.04404381 0.014571912
0000b0 72 d6 6d bc 5e f4 41 3d 9c 0c 31 3d f9 c9 36 3d
       -0.01451646 0.047352187 0.043224916 0.04462621
0000c0 f8 54 86 3d 32 57 1b 3d 7c 25 3d 3d c5 42 28 3d
       0.06559175 0.037924953 0.046178326 0.0410793
0000d0 7a c3 5d bd 50 64 81 bb a1 bb de bc ca 56 f4 3c
       -0.0541415 -0.0039487258 -0.027189078 0.02982654
0000e0 dc 58 99 bc 9e 6c 69 bd c9 0f 11 bc 97 17 68 3d
       -0.01871913 -0.05698835 -0.008853861 0.056663122
0000f0 f7 29 14 bc d4 20 1f bd 59 65 34 3d f9 a9 76 3d
       -0.009043208 -0.038849667 0.044041965 0.060220692
000100 83 b9 6c bd 56 12 3f 3c 26 d6 66 bd ad 55 7a bc
       -0.057794105 0.0116620865 -0.05635657 -0.015279216
000110 40 64 3b 3c 08 15 1f bd bf 27 60 bb c8 86 67 bd
       0.011437476 -0.038838416 -0.0034203378 -0.05652502
000120 2a ce eb bc aa 9c d2 3c 67 4a c3 3c 78 66 73 3c
       -0.02878483 0.025709469 0.023839189 0.014855973
000130 31 9d 35 3d a8 01 84 bd 80 fb 55 bc 47 49 22 3d
       0.044339363 -0.064456284 -0.013060451 0.039620664
000140 3e 72 c7 3c 62 e6 24 3d 84 a0 01 3d 30 3d 2c bc
       0.024346467 0.040258773 0.03164722 -0.010512635
000150 37 39 5f bd 2b 50 ab bb b5 a4 20 3d 52 83 11 bd
       -0.054497924 -0.0052280626 0.039219577 -0.035525627
000160 fd 5f 28 bd eb 78 a9 bb 00 10 bb bd 24 b6 51 bd
       -0.041107167 -0.0051718852 -0.09133911 -0.051199093
000170 5b a2 4d bd ec d3 02 bb c0 b1 96 bd c3 cd 66 bc
       -0.050203662 -0.001996274 -0.07358122 -0.014087143
000180 2c 25 c0 bc 7b 3b 6a 3d ee f3 37 bd b6 d9 8c bc
       -0.023455225 0.05718563 -0.044910364 -0.017193656
000190 ea bc 28 3d a8 f8 09 bd 29 38 5e bd b7 54 41 bd
       0.041195787 -0.033684403 -0.054252777 -0.04719993
0001a0 60 43 6a 3d b7 d5 48 3d 6c d8 eb 3c 50 a9 8c bd
       0.05719316 0.04903194 0.028789721 -0.06868231
0001b0 9d 39 24 bd 5a 6a 39 3d 48 09 63 bc de 95 44 bd
       -0.040094007 0.04526744 -0.013857193 -0.047994487
0001c0 e2 67 82 bd 43 71 bf bc ab 3b 0a bc f6 19 ea 3c
       -0.0636747 -0.023369437 -0.0084370775 0.028576832
0001d0 dc c2 ae 3c 6e 32 82 3c d4 87 e4 3c 75 b8 28 bc
       0.02133315 0.015893187 0.0278968 -0.010297884
0001e0 00 54 07 bc 45 d7 38 bc 68 04 50 bd 10 cd 1c bc
       -0.008259773 -0.011281793 -0.050785452 -0.009570375
0001f0 49 f9 2a 3d 1b 7d 05 3d 40 8a 4b 3d 80 82 67 3a
       0.041741643 0.032590013 0.049692392 0.00088313967
000200 b4 1a 06 bd 21 5a 97 3c e5 31 b3 bc 2b dc f9 bc
       -0.03274031 0.018475594 -0.021874378 -0.030500492
000210 68 57 32 bd 00 41 1a 3d ac 8a 31 3d 3e 81 78 bd
       -0.04354039 0.037659645 0.04334514 -0.06067013
000220 6d 01 0c 3d 8b 2f 96 ba dc 6a a6 bd 1a ba 02 3d
       0.034181047 -0.0011458261 -0.081258506 0.03191576
000230 68 ad 61 3d 2a 2e a0 3c 56 80 e4 3c f8 54 29 3d
       0.055097014 0.019553263 0.027893227 0.0413408
000240 28 e8 17 bd 92 71 65 3d 6b 63 03 3d 17 f1 3f 3d
       -0.037086636 0.056016512 0.032077234 0.04686078
000250 c8 17 16 bd 5c b0 1b 3d a6 e8 5b bd b0 f3 88 bc
       -0.036643773 0.038009986 -0.053688668 -0.016717762
000260 e8 96 34 3c 7d a5 a9 3d d1 11 63 3d 3a 5a 0b 3d
       0.011022307 0.082835175 0.055436913 0.034021594
000270 b6 92 52 bd f0 dd 50 bd dd e8 91 3c 7e c2 f6 bc
       -0.051409446 -0.050992906 0.017811233 -0.030122038
000280 fe 15 08 3d 20 88 c9 3c 05 21 5b bd 80 57 2c 3a
       0.0332241 0.024601042 -0.053498287 0.0006574318
000290 64 c2 e5 bc f4 e1 6d bc 32 dd 52 3d 7c f7 6e 3d
       -0.028046794 -0.014519203 0.05148048 0.05834149
0002a0 81 19 c9 bc 4d ad 29 3d b2 87 7f 3c 6c d7 62 3d
       -0.024548294 0.041425038 0.015596317 0.055381224
0002b0 20 17 cc bb 3a 0b b8 3b d0 0b bf 3b 50 1c 89 3c
       -0.0062283427 0.0056165727 0.0058302656 0.016737133
0002c0 cb 0e d2 bc 2f 8f 7c bb e2 c3 38 bd 44 0f fb 3c
       -0.02564182 -0.0038537493 -0.045108683 0.030646928
0002d0 34 ac ed 3c cb 83 97 bc dc 25 ad bc 08 77 0e 3c
       0.029012777 -0.018495461 -0.021136217 0.008695371
0002e0 71 77 29 bd 32 89 a3 bb 21 63 de 3c 10 dd 55 bd
       -0.041373674 -0.00499072 0.027146878 -0.052212775
0002f0 53 f2 d5 3c 66 bc 63 3d bd 39 04 bd 29 66 94 3c
       0.026116526 0.055599593 -0.032281626 0.01811512
000300 98 78 62 bc ea cc 72 bd 48 4b 0b bd 4d cb f4 bc
       -0.013822697 -0.059277453 -0.03400734 -0.029882098
000310 d0 d7 e9 bb 20 82 2b bb 81 03 b9 3a 1f ad 60 3d
       -0.0071363226 -0.002617009 0.0014115424 0.0548526
000320 0f f0 af 3b f6 e3 3b bd a8 d7 84 3d 00 a6 53 3a
       0.0053691934 -0.045871697 0.06486446 0.0008073747
000330 33 b0 f5 3c ec b8 df 3c 6a 03 2b 3d ca 57 05 3d
       0.029991245 0.027309857 0.041751303 0.032554425
000340 6c b6 c3 3c 6d 96 18 3d 34 81 39 3d 7c 55 87 bc
       0.023890696 0.037252832 0.045289233 -0.016520254
000350 49 b9 cc 3c 70 3e f7 3c ae 36 65 bd 62 57 c0 bc
       0.024990695 0.03018114 -0.05596035 -0.023479167
000360 37 49 ef 3c 8b ca 4a 3d d1 9c 2e bd 57 21 85 bb
       0.029209716 0.049509566 -0.04263002 -0.0040628123
000370 77 a9 0d 3c f2 44 1d bd 05 cd 31 3c a8 72 b1 3b
       0.008646361 -0.03839583 0.010852103 0.0054152794
000380 77 a9 af 3c 70 ce 98 bb ef e4 fd 3c 0f c7 13 bd
       0.021443112 -0.004663281 0.030992953 -0.03607851
000390 bc 87 4b bd e4 5e ac bd d3 b0 ff 3c ec ab 2a 3d
       -0.049689993 -0.084165365 0.031212246 0.041667864
0003a0 be 07 3b bd db 4f 74 3d bb af fd 3c 9e 14 12 3d
       -0.04566168 0.05964647 0.030967584 0.035664193
0003b0 eb e3 2b bd cf 3f 3a 3d 75 87 03 3c 10 cd 63 bd
       -0.041965406 0.04547101 0.008027901 -0.055615485
0003c0 c8 fb 26 bd 87 22 40 bd e6 81 06 3c 78 69 68 bd
       -0.04076746 -0.046907928 0.008209681 -0.056741208
0003d0 fb d4 50 bb be 40 c8 bc e5 a9 40 3c 24 f2 2c bd
       -0.0031865228 -0.024444934 0.011759256 -0.04222311
0003e0 9c 8a 7c bb d1 36 3f bd 0f 1f 79 3a 10 72 52 3c
       -0.0038534766 -0.046683136 0.0009503224 0.012844577
0003f0 42 3c ac 3c 22 11 62 3d e9 5b 42 3d 22 bd 89 bb
       0.021024827 0.05519212 0.047450934 -0.0042034546

fc2.bias f4 [128]
000000 1a b8 2a bd 4f 84 bf 3d bb ae 7c bc 21 ab 53 bd
       -0.04167948 0.09351408 -0.015422518 -0.051676873
000010 a4 6e 7a bd cf 90 ca bc 8c 27 0d 3d de ae 17 bd
       -0.06114067 -0.024727253 0.034461543 -0.037032
000020 47 6e 9e 3c bf 87 76 3c 06 40 dc 3c a6 77 c0 3c
       0.019339694 0.015047013 0.026885998 0.023494553
000030 78 bc 2c bd 36 3b 32 3d 8a d0 61 3d 0c c3 34 3a
       -0.042171925 0.0435135 0.05513052 0.00068955193
000040 0d 00 83 3d 05 38 2a 3c 54 2a 1b 3d ac c2 4e 3d
       0.06396494 0.010389333 0.037882164 0.050478622
000050 5f ef ed bc f6 3a 66 bd f4 12 16 bd 69 4a 05 3d
       -0.029044805 -0.056208573 -0.03663917 0.032541666
000060 bc b2 ed bc 43 c9 19 3d 59 a8 02 3d da 6f 36 3d
       -0.029015891 0.037545454 0.03189883 0.044540264
000070 40 9d 09 bd cf b0 a3 bb 6a c4 08 bd 73 40 68 bd
       -0.03359723 -0.0049954425 -0.03339044 -0.05670209
000080 b6 59 ec 3c 3a ae 48 3d d4 85 7c 3d 84 1f 40 3d
       0.028851371 0.04899428 0.061651066 0.046905056
000090 62 f0 36 bd 3a c4 06 bd 20 f1 9f bc 76 b8 c1 3c
       -0.04466284 -0.03290198 -0.019524157 0.023647528
0000a0 a2 1e 77 bd 20 bf 69 bc 80 96 9c 3c a2 45 6d bd
       -0.060331948 -0.014266759 0.019114733 -0.057927735
0000b0 92 3c 06 3d c8 5a 82 bb c0 7a db 3c 5f 47 72 3c
       0.032772608 -0.003978107 0.02679193 0.014787524
0000c0 2f 48 86 3c 0c dc 02 bd aa 90 3c 3d 0b c5 c9 3c
       0.016391842 -0.031948134 0.0460364 0.02463009
0000d0 0c c8 7d bd 9d 7f df bb b5 0c 89 3d 4a 4e 23 3d
       -0.061958358 -0.0068206326 0.06691877 0.039869584
0000e0 ca 81 8d 3c 89 bf d2 bc e0 5b 2f bd da 4b 10 bc
       0.017273802 -0.025726097 -0.04281223 -0.008807147
0000f0 de 07 82 3d f5 c0 a1 bc ae 19 39 3d 7b 7e 87 bd
       0.06349157 -0.01974533 0.045190506 -0.06615921
000100 17 33 16 3a 57 3e 7e bd ae ed 54 3d 1e 8d 52 bc
       0.0005729659 -0.06207117 0.05198448 -0.012851028
000110 6c 43 7f 3d ca bb 58 bd e3 56 1f 3d f9 e9 4a 3d
       0.062320158 -0.052913465 0.03890122 0.04953954
000120 47 eb 08 3d 19 7a 85 3d 53 94 02 3d b4 ed 0b bd
       0.033427503 0.06517429 0.031879734 -0.03416224
000130 48 97 52 bc 96 ec 55 bd be 4a 3f 3c 80 9c 85 3c
       -0.012853451 -0.05222758 0.011675535 0.016309977
000140 f9 21 59 bd 96 f6 9f bc 44 2a af 3c da 00 e9 3c
       -0.053010914 -0.019526761 0.021382459 0.028442789
000150 68 0d 35 3d a0 d5 cc bb 1d 97 24 3d c8 d8 51 bc
       0.04420224 -0.006251052 0.040183175 -0.012808032
000160 9f f5 94 3d 0e e7 52 bd 92 f6 32 bd 68 65 34 bc
       0.07273411 -0.051489882 -0.04369218 -0.011010505
000170 69 dc 0c bd b2 dd 17 3d 52 8b 0e 3d da 43 5f 3d
       -0.034389887 0.03707666 0.034800835 0.054508068
000180 a5 26 39 3d 11 d0 9e bc 3d a0 6b bd 34 c9 48 bd
       0.04520287 -0.019386323 -0.057525862 -0.049020007
000190 be 26 13 bd e3 d3 6d 3d f9 e9 13 3b aa be 84 3d
       -0.03592562 0.0580634 0.0022569878 0.06481679
0001a0 77 c6 cb bc 74 a3 73 bd 98 16 4f 3c 65 99 1e 3d
       -0.024874909 -0.059482053 0.012639664 0.038720507
0001b0 4e 25 22 bd 60 ec e7 3c f7 ad d3 3c 80 54 28 3b
       -0.039586358 0.028310955 0.025839789 0.0025685132
0001c0 4a c2 1f bd e4 58 2b bb 9e f9 b1 3c fa 02 44 3d
       -0.039003648 -0.0026145512 0.021725472 0.0478544
0001d0 6d 59 38 3d 31 4e 2f 3d 7c 49 3d 3d 15 88 f2 3c
       0.045007158 0.04279918 0.04621266 0.029605905
0001e0 be 5e 12 3d 0d 75 e1 3c 38 03 34 3d 48 a1 3e 3d
       0.035734884 0.027521634 0.043948382 0.04654053
0001f0 d8 c1 b7 3c ae 6c 00 3d 1d 61 8e ba 9f 18 96 3c
       0.0224313 0.031353645 -0.0010862682 0.018322287
