cnn.pth (torch, 416903 bytes, 10 tensors)

conv1.weight f4 [128, 1, 3, 3]
000000 78 7c 6e 3d cc 07 82 be d8 88 98 be 6e 63 0c 3e
       0.05822417 -0.25396574 -0.29791903 0.13709804
000010 37 9e 93 3e 4f 96 a4 3e b0 31 8d 3d 73 26 3c be
       0.28831646 0.32145926 0.06894243 -0.18374042
000020 00 f2 a2 3d c0 a0 cc 3c f6 f2 3d 3e ca 4a 2d 3e
       0.07956314 0.024978995 0.18549713 0.16923061
000030 55 df 8d 3e 67 38 90 3e e6 2b ec bd 10 5f a3 bc
       0.2770945 0.28168032 -0.115318105 -0.01994279
000040 50 05 de bc e0 55 4a be 70 ff 8c be ca 38 8e be
       -0.027102143 -0.19759321 -0.27538633 -0.27777702
000050 1c 36 0e be f7 ce a3 be 06 78 0c 3d da 90 7b be
       -0.13887829 -0.3199384 0.03429415 -0.24566975
000060 3a 75 8c be 93 dd 7c 3d 09 f7 43 be dc 7f 9e be
       -0.27433187 0.061734747 -0.19137205 -0.30956924
000070 60 4c 0f be 15 f3 aa bb 72 31 7b be 53 2a 81 3e
       -0.13993979 -0.005216966 -0.2453058 0.25227603
000080 cc 4e 99 bc da 10 a9 3e 99 29 1f bd 4b a9 a2 be
       -0.018714331 0.3302067 -0.03885803 -0.31769785
000090 28 f6 51 be 49 83 a0 3e 86 db ff bd a9 5a 9d 3e
       -0.20504057 0.31350163 -0.12493043 0.3073323
0000a0 bc d8 6d be 2d f7 7c bd 80 5c ac bd 40 b2 83 3e
       -0.23227209 -0.061759163 -0.084160805 0.2572193
0000b0 9a 7f a9 ba 9b 91 3f be b5 e3 46 3e bd e7 b2 bd
       -0.0012931705 -0.18707888 0.19422801 -0.08735607
0000c0 20 cc c5 bd cb 90 a9 3d 4e 60 d0 bd db ee 51 be
       -0.096580744 0.0827957 -0.10174619 -0.20501272
0000d0 45 71 28 3e b1 63 5b be c5 c7 e2 3d 36 66 83 3e
       0.16449459 -0.21424748 0.11073259 0.25663918
0000e0 ca b8 8c be 5e b6 07 be 9a 26 85 3d 42 4a 94 3e
       -0.27484733 -0.13253161 0.06501503 0.28962904
0000f0 2a 28 80 be 80 61 30 3e 1c 67 81 be fa 61 9d 3e
       -0.25030643 0.17224693 -0.2527398 0.30738813
000100 f2 9b 72 3d fa a1 83 be 6d 94 d8 bd d4 85 a3 bc
       0.059230752 -0.25709516 -0.10575185 -0.019961275
000110 18 55 dc 3d 93 00 17 3e cf 52 5d be 08 a1 a0 be
       0.10758418 0.14746313 -0.2161362 -0.31372857
000120 94 f0 a3 3d c0 13 e6 3c 23 3d 4d be 09 42 05 bb
       0.08004871 0.02808559 -0.20042853 -0.002033355
000130 3c 7d 10 3e 60 a2 66 bc 28 36 fd bd 0f 1f 8c 3e
       0.14110273 -0.014076799 -0.12363845 0.27367446
000140 39 54 a1 3e 70 a5 a4 3d d9 a7 95 3e 36 0a 43 be
       0.3150957 0.08039367 0.2922962 -0.19046864
000150 1e d7 25 be 8c 65 f8 3d 71 7d 82 3e 56 5a f5 bd
       -0.16195342 0.121287435 0.2548633 -0.11980121
000160 9d 25 a7 3e e0 4e 6e be 31 aa 13 be b9 9d 40 3e
       0.32645884 -0.23272276 -0.14420392 0.18810166
000170 48 66 26 be 1f 3a ab 3d f0 ce 96 be 31 48 85 be
       -0.16249955 0.08360695 -0.29454756 -0.2603164
000180 70 4e 9e be 44 1a 05 be 2f 28 95 3e 62 59 4b 3e
       -0.30919218 -0.12998301 0.2913222 0.19858316
000190 4e 8f 32 be 2a 10 43 3e 90 57 a4 bc f6 6f 4d 3e
       -0.17437479 0.19049135 -0.020061284 0.20062241
0001a0 44 c0 80 3d de 64 0a be f2 ba 0a 3e 60 1f 79 bc
       0.06286672 -0.1351504 0.13547876 -0.015205234
0001b0 75 55 7b be d7 a0 a7 bb 29 26 82 be 4e 81 02 be
       -0.24544318 -0.005115609 -0.2541974 -0.12744638
0001c0 7b fb 43 be f3 d3 0e 3d 33 fb 64 be 50 08 6e 3e
       -0.19138901 0.0348701 -0.2236145 0.23245358
0001d0 1f 59 44 be 6b a7 2b be e0 63 3f 3e 5d d0 7f 3d
       -0.19174622 -0.16763084 0.18690443 0.06245457
0001e0 50 85 d9 3d 63 8b a4 bd 3d 01 09 bd 77 a3 4f 3e
       0.106211305 -0.080343984 -0.033448447 0.202772
0001f0 df c2 95 be f9 53 03 3e c0 4a a3 be 17 d0 9c 3e
       -0.29250237 0.12825002 -0.31892967 0.3062751
000200 a0 98 60 bd 40 a9 99 bd a9 3e a5 3e 06 fd 17 3e
       -0.054833055 -0.07502985 0.32274368 0.14842615
000210 56 4f 88 be be 3f 26 3e 12 d7 54 3e 12 a9 87 be
       -0.2662303 0.16235253 0.20785168 -0.26496178
000220 19 02 af 3d f6 c7 9b be 9c f7 be bd a8 6f cc 3d
       0.08545322 -0.30425996 -0.093245715 0.09982234
000230 97 1d c0 bc ea 89 46 3e 12 1e ab bd e9 ed 5f 3d
       -0.02345161 0.19388548 -0.08355345 0.05467025
000240 b1 4d 74 be c9 c6 2c be fb 20 0e be fe a9 e4 3d
       -0.23857762 -0.16872706 -0.13879769 0.11165236
000250 64 65 14 bd 0a 5a 25 be cc 73 83 be fc 92 28 be
       -0.036229506 -0.16147628 -0.25674284 -0.1646232
000260 24 44 92 3d e0 2b 38 bd 5b 66 73 be b9 e2 8c 3e
       0.07141903 -0.044963717 -0.23769514 0.27516726
000270 be 2c 72 3e bd ba 23 3e 0e b5 fc bd 45 5c 8d 3e
       0.2364988 0.15989204 -0.12339221 0.2760946
000280 17 b6 81 be a2 64 43 3d 04 9f d0 3c 22 ff 2f be
       -0.25334236 0.047703393 0.02546645 -0.17187169
000290 0f 84 93 3e 3b ef 89 be c6 36 19 be 24 a0 d0 bd
       0.2881169 -0.2694033 -0.149623 -0.101867944
0002a0 31 08 98 3c 33 ee 30 be 14 8b a2 be 70 6e 18 be
       0.018558593 -0.17278366 -0.31746733 -0.14885879
0002b0 2f 1b 6c 3d 94 1c 78 3d ec 20 28 3e 63 68 a1 be
       0.05764311 0.06057413 0.16418809 -0.31524953
0002c0 b3 0a 14 be ca 17 54 3e ce 3a 1c be f1 ed 42 be
       -0.14457206 0.207122 -0.15256807 -0.1903608
0002d0 00 65 11 3c 1b fb 0d be f8 ea 88 be e8 19 52 be
       0.008874178 -0.1386532 -0.26741767 -0.20517695
0002e0 70 c7 e6 3c 9a 2b 21 3e 79 96 90 3e 8d 44 99 3e
       0.028171271 0.15739289 0.28239802 0.29935113
0002f0 76 ad 88 be 06 11 0e 3e ce f6 1e be 6b 72 81 be
       -0.2669484 0.13873681 -0.15523836 -0.25282606
000300 e1 c7 9a 3e 51 a4 e3 3c 16 1a 84 3e 1b 03 95 3e
       0.3023062 0.027788313 0.25801152 0.29103932
000310 b7 be 49 3d f2 de 4e be a5 58 a0 3e 24 3c 0c be
       0.049254145 -0.20202234 0.3131763 -0.13694817
000320 81 25 b8 3d 8d a0 a0 be 1b 8e 69 3d 7f 42 9e be
       0.08991528 -0.3137249 0.057020288 -0.30910107
000330 9c c0 5e 3e 56 45 08 bc e5 0e 9f be 00 5d c0 3c
       0.21753162 -0.008317312 -0.3106605 0.023481846
000340 9c 68 a0 3d c0 4e 91 3c 73 2a 8d be a6 1c ac bd
       0.07832453 0.017737746 -0.2757145 -0.08403902
000350 60 db 7b 3d 2e ba 44 3e dc 40 f1 3d e0 63 52 be
       0.06148851 0.19211647 0.11779949 -0.20545912
000360 c6 24 89 be fa 3e e1 bd dd 6e 10 3c 67 ba 3f bd
       -0.26785868 -0.1099834 0.008815494 -0.046808627
000370 5d 10 95 3e 77 3f 6b bd f4 cc 55 be 26 8a 5a 3e
       0.29114047 -0.05743357 -0.20878965 0.21341762
000380 c0 80 81 bd 38 5e 26 bd dd e4 45 3e 85 1b 7e be
       -0.06323385 -0.040617198 0.19325586 -0.24815185
000390 00 1a 3c bd d9 fa 34 3e d8 46 08 3e a0 64 12 3e
       -0.045923233 0.17673816 0.13308275 0.14296198
0003a0 36 35 aa 3e 86 8a d4 bd 8c 5e dc bd 50 a9 63 3e
       0.33243722 -0.10377984 -0.10760221 0.22232556
0003b0 43 2d 31 be b8 28 e3 3d 04 a1 40 3c 73 b8 25 bd
       -0.17302422 0.11091751 0.011757139 -0.040459108
0003c0 c5 fa 3e be 23 c8 44 be 58 e0 98 be 5b b7 a2 bd
       -0.18650348 -0.19216971 -0.2985866 -0.079451285
0003d0 18 b4 44 be 2a cb 9a be 43 0c e5 bd 53 57 aa 3e
       -0.19209325 -0.30233127 -0.11183979 0.33269748
0003e0 93 9e aa 3d 39 a3 98 3e 09 85 cc 3d 37 a6 80 3d
       0.08331027 0.2981203 0.09986312 0.06281703
0003f0 70 dc aa 3d 5d d2 8d be 80 03 15 3e c6 ee 6b be
       0.08342826 -0.27699557 0.14552116 -0.23040304

conv1.bias f4 [128]
000000 24 3b 85 be 93 e7 90 be 8d f8 7a 3e 96 20 c3 37
       -0.26021683 -0.28301677 0.24508877 2.3260985e-05
000010 a4 4f 9a 3c de 8d 8a be ee 7f 3f 3e 1e ae 80 be
       0.018836804 -0.2706136 0.18701145 -0.2513284
000020 27 da 94 3e f8 7f 2e 3d 8f 74 9d bd ec 3e e8 3d
       0.29072687 0.04260251 -0.076882474 0.113401264
000030 79 8f 8f be 94 c9 02 be 50 61 e0 bd 2c 22 b3 bd
       -0.28039148 -0.12772208 -0.10956061 -0.08746752
000040 5e 68 30 3e a7 ee 97 bd ca cd 99 be df bf 65 be
       0.17227313 -0.07418566 -0.30039817 -0.22436474
000050 52 82 8b be 7c 3f 03 be a6 9e 94 3e fb 4b 5d be
       -0.27247864 -0.12817186 0.2902729 -0.21611015
000060 11 79 05 bb 1e 14 a3 3e 66 1c 89 3e 3d e9 da 3d
       -0.002036635 0.31851286 0.2677948 0.10689018
000070 d8 25 0f 3e 96 6a 92 3e 9e 40 44 3e 07 84 7e be
       0.1397928 0.28596944 0.19165275 -0.24855052
000080 85 f9 dc bd 80 51 e6 bd 39 63 41 3e c4 20 0e bd
       -0.107897796 -0.11246014 0.18885507 -0.034699216
000090 c5 a7 7b 3e 01 18 b0 3d 81 07 2b 3e 26 bc 9f be
       0.24575718 0.085983284 0.16702081 -0.31198233
0000a0 3c 63 87 3e 94 f9 74 3e 33 38 91 be 15 7a de bd
       0.26442897 0.23923331 -0.2836319 -0.10863129
0000b0 c0 14 61 bd 5e 1b 4d be af 74 08 be cf 6d a1 3e
       -0.05495143 -0.20029971 -0.13325761 0.3152909
0000c0 c7 1d 54 3e ec 3d 81 3e ab 70 11 be a6 a2 20 be
       0.20714484 0.25242555 -0.14203136 -0.15687045
0000d0 30 26 a4 3e 5b 47 0a be 1d ef 18 3e 99 ac 38 3d
       0.32060385 -0.13503782 0.14934964 0.045086477
0000e0 cf a4 8a 3e 02 ae 11 3d 61 e2 90 3e f3 c6 bb 3c
       0.27078864 0.035566337 0.28297713 0.022922015
0000f0 4c 1b 69 be 9b d4 14 3d b3 a9 20 be 14 f0 b4 3c
       -0.22764319 0.03633557 -0.15689735 0.022087134
000100 36 da 41 bd 29 94 87 3d d4 e5 01 3e a3 d7 94 bd
       -0.047327243 0.06620056 0.12685329 -0.07267692
000110 fd 78 95 3e be ca 9b be 36 e0 d0 3d 50 eb 29 be
       0.2919387 -0.30428118 0.10199015 -0.16593671
000120 a3 64 92 3e c9 91 75 be 8a 0c 96 3c 40 17 61 bd
       0.28592405 -0.23981394 0.018316526 -0.054953814
000130 86 34 98 3e f2 04 93 3e 9a bf 37 be 27 57 43 be
       0.29727572 0.2871471 -0.17944184 -0.19076215
000140 9e ff 43 be c0 a7 9c be ac 46 8d 3e eb a7 95 3e
       -0.19140479 -0.30596733 0.2759298 0.29229674
000150 e1 0f 99 3e 51 89 66 be fb c6 54 3e b0 33 68 be
       0.29894927 -0.2251332 0.2077903 -0.22675967
000160 70 7b aa be 40 0c 5f 3d 09 8d b6 bd 11 3c 27 be
       -0.332973 0.054455042 -0.08913619 -0.16331507
000170 ce 97 da 3c fd c2 97 be 02 a0 96 bd ed 5d dd 3d
       0.026683714 -0.29640952 -0.07354738 0.108089305
000180 53 75 7a 3e 47 9a ce bd 14 4f 8c 3e 6d 58 85 3d
       0.24458818 -0.1008802 0.27404082 0.065110065
000190 28 bc 41 be a0 7f e9 3c a1 d0 50 be 9e dc 0e 3e
       -0.18919432 0.02850324 -0.20392086 0.13951346
0001a0 be ca 26 3e 52 89 3d be c4 27 15 3e 43 69 98 be
       0.16288278 -0.18509415 0.1456595 -0.29767808
0001b0 85 f9 83 3e 70 c3 99 be 0f e8 db bc f2 c9 9e be
       0.25776306 -0.3003192 -0.026844053 -0.31013447
0001c0 37 07 8b be fe d7 39 3e a7 65 94 3e 9f d9 92 3e
       -0.27153942 0.181488 0.28983805 0.28681657
0001d0 64 ed c1 3d a2 22 6f 3d b7 13 98 3e ed 07 8d 3e
       0.09469107 0.058382638 0.2970254 0.2754511
0001e0 23 27 51 be 48 b4 58 3d 75 25 46 be db 72 6f be
       -0.20425086 0.052906305 -0.19350226 -0.23383658
0001f0 3b c9 18 be 95 81 26 be 16 ef 4a 3e ff f3 ed bd
       -0.14920513 -0.16260369 0.19817767 -0.11618804

conv2.weight f4 [56, 128, 3, 3]
000000 4f 15 8c 3c d9 28 a0 3c 59 83 a2 3c af c2 df 3c
       0.017100004 0.019550728 0.019838022 0.027314512
000010 db d7 ce 3c 12 c0 30 3c 08 24 16 3b cb 47 d6 3c
       0.025249412 0.010787981 0.002290966 0.02615728
000020 fe 5c 96 bc a0 42 91 ba 9a 2a 02 3c aa fb b5 bc
       -0.018354889 -0.0011082478 0.007944727 -0.02221473
000030 76 3d 03 3c b9 96 7d bc b9 0a f0 3c cf 8f 74 bc
       0.008010259 -0.01547783 0.029301988 -0.014926865
000040 3c f5 12 bc ae 53 73 3c da 2b 27 3c 6d b9 c0 3c
       -0.008969601 0.014851494 0.010203326 0.023525918
000050 80 6a 5b bc 1e 54 26 3c e5 56 96 bc 8c 69 c4 bc
       -0.013392091 0.010151891 -0.018351981 -0.02397611
000060 d9 ce 82 3c 4a c1 36 3c 00 7b 20 39 38 85 20 3b
       0.015967773 0.011154482 0.0001530461 0.0024493467
000070 c4 0d 9b bc 75 e0 bd 3c c2 3a 4a 3c 47 c1 80 3c
       -0.018927462 0.023178319 0.0123431105 0.015717162
000080 de 53 a4 bc f4 53 b9 bb b1 be 85 3c 1e 28 70 3c
       -0.020059522 -0.00565576 0.01632628 0.014658002
000090 86 ff 07 bc 00 55 03 3a 42 05 9d bc 4c e5 58 bc
       -0.008300668 0.00050099194 -0.019167546 -0.013238262
0000a0 bb d8 e4 3c 60 a7 c2 bb b2 14 58 3c 90 bc eb 3a
       0.027935376 -0.005940363 0.013188528 0.0017985273
0000b0 86 7a 60 bc 42 d6 9c bc 3f 3a ae 3c 01 1a c4 3c
       -0.013701087 -0.019145135 0.021268008 0.02393818
0000c0 3e d1 9a bc 80 e5 1c bb 39 1f e8 bc c4 f5 c2 3b
       -0.018898603 -0.0023940504 -0.0283352 0.0059497077
0000d0 cc e0 b6 bc e7 ef a4 bc e9 71 ca 3c 6a ed 90 bc
       -0.022323988 -0.020133926 0.02471252 -0.017691333
0000e0 0a 72 7e 3c 80 be 30 b9 44 8c a4 3b c4 57 fb bb
       0.015530119 -0.00016855635 0.005021604 -0.0076703746
0000f0 e8 58 4e 3b 72 bd 08 3c 71 b7 eb bc 68 e0 83 bc
       0.0031486098 0.0083459485 -0.028773995 -0.016098216
000100 ed da b9 3c d4 54 90 3b be 2e 52 bc a6 22 2f 3c
       0.0226874 0.0044046436 -0.012828527 0.010689413
000110 2c cb 50 bc e0 96 11 ba 36 c9 78 3c 29 73 b0 bc
       -0.012743752 -0.0005553793 0.015184691 -0.021539288
000120 44 02 c2 bb de 56 22 3c 54 3e d2 3b df 1f 86 3c
       -0.0059206802 0.009908406 0.0064161215 0.01637262
000130 c4 6d c3 3b 4a c9 ef bc a4 c7 c3 bb 58 e0 74 3b
       0.005964013 -0.029270787 -0.0059747268 0.0037365165
000140 2c de ed 3b b1 2a e9 bc 65 64 d2 3c e2 b6 22 3c
       0.007259151 -0.02846274 0.025682637 0.009931298
000150 19 5c 8c 3c b9 8c d0 3c 72 51 23 3c dd f3 cb 3c
       0.01713376 0.025457727 0.009968149 0.024896557
000160 30 3c e1 3a 99 e0 89 bc 0c 35 f1 3b 48 3d 8b bc
       0.0017184075 -0.01683073 0.00736106 -0.016996995
000170 b4 fd 9a 3b 00 90 0a 38 c1 ed d2 bc f0 bf ae ba
       0.004729951 3.3035874e-05 -0.025748136 -0.0013332348
000180 16 c7 50 3c 82 a5 ce bc b2 57 e2 bc 38 46 90 bb
       0.012742778 -0.025225405 -0.027629707 -0.004402902
000190 87 f0 9b 3c f6 77 ed bc 00 d6 59 b9 59 54 f1 3c
       0.01903559 -0.028987866 -0.00020774454 0.029459165
0001a0 51 f9 e0 bc 40 4f b9 b9 fe 2c 9e bc 27 01 9a 3c
       -0.027462633 -0.00035344996 -0.019308563 0.018799378
0001b0 e0 e6 e8 bc 81 c5 a6 3c eb ac bb 3c f8 57 98 bc
       -0.028430402 0.02035785 0.022909602 -0.018596634
0001c0 77 97 ba bc 13 d9 b8 bc 59 0b a3 3c 02 74 6b 3c
       -0.022777302 -0.022564447 0.019902872 0.01437092
0001d0 13 29 67 bc 31 87 91 3c db f2 a8 3c 3d ad d5 3c
       -0.014108914 0.01776466 0.020623615 0.026083583
0001e0 4e 22 26 bc eb 68 b6 3c 09 cc c5 bc 69 b8 c2 3c
       -0.010140015 0.022266826 -0.024145143 0.023769574
0001f0 bc 32 8a bc 5c ab 98 bb f8 4c 21 3b a6 b5 18 3c
       -0.016869895 -0.0046590995 0.0024612527 0.009320652
000200 6c 31 b2 3b 68 26 44 3b b4 b6 95 3b 00 0c 39 bc
       0.0054380205 0.0029930118 0.004568899 -0.011294365
000210 b2 18 e5 bc 60 ea f6 bb f8 2f fb bb f7 0d 94 3c
       -0.027965877 -0.007535264 -0.0076656304 0.018073065
000220 f3 03 ed bc bf a9 90 bc 04 71 b5 bb 2c 14 bb bc
       -0.028932547 -0.017659066 -0.005537154 -0.022836767
000230 58 b0 ca bb 68 b1 02 bb c5 8d e1 3c 98 25 bc bc
       -0.0061855726 -0.0019942168 0.027533421 -0.022967145
000240 f6 f9 69 3c 67 bc de 3c 20 3f 92 bb 60 f2 09 3a
       0.014280787 0.027189447 -0.0044630915 0.0005262252
000250 28 5f 29 3b 48 f1 81 bc 2f 21 b8 3c 00 7a a4 bb
       0.002584407 -0.015862122 0.02247676 -0.0050194263
000260 32 11 37 3c 60 3a 84 bc 53 18 e7 3c d3 31 e7 3c
       0.011173533 -0.016141117 0.02820984 0.028222
000270 44 bc d0 3b 36 e3 09 bc a8 35 36 bc ea 55 8e bc
       0.0063700993 -0.008415988 -0.011121191 -0.017374951
000280 8c 2b 18 bc c8 b8 30 3b 4d 9e ec bc f0 29 48 bc
       -0.009287726 0.0026965607 -0.028884077 -0.01221703
000290 a9 0e ea bc bd af e4 3c 80 28 f3 bb 58 76 a2 bc
       -0.028571444 0.02791583 -0.0074205995 -0.019831821
0002a0 06 32 e0 bc e6 66 f0 bc 56 34 16 bc d6 69 52 bc
       -0.027367603 -0.02934594 -0.009167751 -0.012842616
0002b0 fa 92 03 bc 93 cd e8 bc 2d 3a d7 3c 7d 74 92 bc
       -0.008030647 -0.028418338 0.026272858 -0.017877812
0002c0 78 3d 01 bb 97 c5 e0 3c 09 02 c7 bc 29 11 e4 bc
       -0.0019720476 0.027437968 -0.024292963 -0.027840214
0002d0 a0 cc 9f ba 07 c6 a0 bc 1c cc 80 3b d1 6e 90 3c
       -0.001219172 -0.019625677 0.0039305817 0.017630966
0002e0 99 cd b9 3c b2 85 3e 3c 23 a0 c6 3c 19 cd d2 3c
       0.022681044 0.011628555 0.024246281 0.025732564
0002f0 84 02 9a 3b c4 27 b3 3b f3 b8 d2 3c 31 f9 8f 3c
       0.004700007 0.005467387 0.025722956 0.017574878
000300 e0 b9 0d ba 69 46 c1 3c d4 83 8a bc 49 68 ea 3c
       -0.00054064207 0.023593144 -0.016908564 0.02861418
000310 82 e0 78 3c b4 fe ef bc 70 aa ea bb 06 e4 77 3c
       0.015190246 -0.029296257 -0.007161431 0.015130049
000320 72 f7 1b bc a0 82 f0 bc 32 d6 e5 bc 2b 31 8c 3c
       -0.009519445 -0.029359162 -0.028056238 0.017113289
000330 1d de be 3c 7e 8f 9e bc 2a f1 64 3c 88 ed 93 bc
       0.023299271 -0.019355532 0.013973514 -0.0180576
000340 d5 42 8f 3c 09 1f e5 3c 90 bb 15 bb 98 ba 84 bc
       0.017487923 0.0279689 -0.0022847392 -0.016202256
000350 43 40 b3 3c 62 d8 b2 bc 42 40 8d bc 70 fc 60 bb
       0.021881228 -0.021831695 -0.017242555 -0.0034330152
000360 54 30 d1 3b 00 2c ef b7 d9 69 6d bc b5 42 81 3c
       0.006383935 -2.851151e-05 -0.014490568 0.015778879
000370 35 7e c5 3c 3b b3 9c 3c 30 d4 ef bc 28 c4 04 bb
       0.024108032 0.019128432 -0.029275984 -0.002025852
000380 60 47 cb bb 8c 18 07 bc af 8c 88 3c 06 44 17 bc
       -0.006203577 -0.0082455985 0.016668646 -0.009232527
000390 fe 9d 58 bc 87 fc d5 3c ba ab 26 3c 28 af 76 3b
       -0.013221262 0.026121391 0.010172779 0.0037641022
0003a0 6d be c6 3c cc f1 1f bc a5 79 e6 bc 98 58 20 3b
       0.024260724 -0.009762239 -0.028134177 0.0024466868
0003b0 10 c1 92 ba 60 5a 6e bb 8b 49 a4 3c 00 6e ce b8
       -0.0011196453 -0.0036369786 0.0200546 -9.8433346e-05
0003c0 fe 53 c3 bc e8 4e 59 3b 96 af 82 bc ea e4 0c bc
       -0.023843762 0.0033158604 -0.015952867 -0.008599499
0003d0 8b 93 ee 3c 09 ae bb 3c 8a 6b 33 3c 96 bd 52 3c
       0.029123088 0.022910135 0.010950932 0.012862584
0003e0 9e c8 2b bc 9f ac c2 3c 53 a4 cb 3c be 15 21 bc
       -0.010484843 0.023763953 0.02485863 -0.009831844
0003f0 58 95 f8 bb b0 f0 cd ba c8 a2 3a bc e1 d8 d9 bc
       -0.0075861625 -0.0015711989 -0.011391349 -0.026592674

conv2.bias f4 [56]
000000 b4 af 21 bc 13 48 77 3c 78 84 97 bc f3 27 9e 3c
       -0.009868551 0.015092867 -0.018495783 0.019306159
000010 74 69 bd 3b f2 53 3c ba a3 80 c7 bc c0 9c 51 3c
       0.0057803933 -0.00071841397 -0.024353331 0.01279372
000020 9b 91 14 3c 4a 49 9d bc 4f 68 96 3a b2 d4 c1 bc
       0.009067918 -0.019199986 0.0011475178 -0.023660991
000030 36 3b a9 bc 1e 3d ad bc 4e f8 a0 bc bc e3 1c bb
       -0.020658117 -0.021147307 -0.01964965 -0.0023939451
000040 85 f3 45 3c 7d db 5d 3c 4c 26 e5 3b d6 d3 15 3c
       0.012081985 0.0135411 0.0069930907 0.009144744
000050 f2 cb 44 bc 04 3d 9d 3b 8a 82 bb 3c 80 fa 7a bb
       -0.012011515 0.0047985334 0.022889394 -0.0038296282
000060 87 03 3d bc 3b 78 b5 3c ec f2 ed 3b 8f 23 8a 3c
       -0.0115364855 0.022152057 0.0072616246 0.016862659
000070 c0 72 77 bb 7f ab ce bc 3a aa 52 bc ae 2c a9 bc
       -0.0037757605 -0.02522826 -0.012857968 -0.020651188
000080 82 7c 4b 3c 31 c9 ba bc e9 87 70 bc bf 94 ee bc
       0.012419822 -0.022801014 -0.014680841 -0.029123662
000090 e2 d8 1e bc 0a 2f 5f bc 73 88 95 bb e1 c1 ac 3b
       -0.009695264 -0.013622055 -0.004563385 0.0052721356
0000a0 d6 b7 ab bc 4b 8f 7c 3c 69 c2 99 bc 54 de 8b bc
       -0.020961683 0.015415023 -0.01876946 -0.017073788
0000b0 c5 86 cb 3c 79 43 90 3c ca 29 fd bb 0a f8 35 bc
       0.024844537 0.017610298 -0.007725929 -0.0111065
0000c0 87 5c e2 3c 52 40 23 bc 00 46 8a bc 17 5a 83 3b
       0.027632011 -0.009964066 -0.016879082 0.0040085423
0000d0 35 f9 03 bd 1f 43 ed 3c 9e 64 61 3c d8 03 48 bb
       -0.032220084 0.02896267 0.013756899 -0.003051987

fc1.weight f4 [128, 224]
000000 88 c0 54 bd 1e 5f 51 3d a4 92 f1 3c 64 96 52 3d
       -0.051941425 0.0511161 0.029488869 0.051412955
000010 c3 61 91 bd 6c 49 5e bd 95 3b 6d bd 6e 6c 28 3d
       -0.07098725 -0.05426924 -0.05791815 0.04111903
000020 2a 0e 2f 3d 50 ac 92 3b cc b0 27 bd be 1b 39 3d
       0.042738117 0.0044761077 -0.04094009 0.045192473
000030 e5 69 48 3d 5d bc ec bc de 89 66 bb 68 30 ae 3c
       0.048929114 -0.028898412 -0.003517739 0.021263316
000040 6f d4 81 3d 00 65 85 ba aa 67 b0 bc 6a 17 7d 3d
       0.063393466 -0.0010177195 -0.021533806 0.061789908
000050 58 2c 1d 3d e6 ad 04 3d bb 06 0c 3d 40 21 68 3d
       0.038372368 0.032392405 0.034186106 0.056672335
000060 3c f0 1f 3d 68 44 4a 3d 20 0f 89 bb 5e f7 e5 bc
       0.039047465 0.049381644 -0.0041827112 -0.028072055
000070 e4 3f f3 3c 9a 2f a5 bc 9a f2 d6 3c ad 4c ab 3c
       0.029693551 -0.0201643 0.026238728 0.020910585
000080 57 12 28 bd ec cf 06 bd 00 31 9f 3c 02 6d 01 bd
       -0.041033115 -0.032913134 0.019432545 -0.0315981
000090 b0 4d f4 3b 3c 8f 67 3d 4e 81 c2 bc 78 e9 73 3c
       0.00745555 0.056533083 -0.023743298 0.014887206
0000a0 09 9d 4d bd 24 a1 6e 3c f5 74 6c bc 79 b4 8a bd
       -0.05019859 0.014564786 -0.014432182 -0.06772704
0000b0 09 92 a9 3c 05 96 54 3d 9a ba 29 3d 49 2f 52 3c
       0.020699518 0.051900882 0.041437723 0.0128286565
0000c0 3c de 92 3c b1 db 78 bd 94 02 31 3d 06 71 18 3d
       0.017928235 -0.06075639 0.04321535 0.037217163
0000d0 d8 0d a3 3c de f3 76 bd 28 8c 91 3c ac c3 1f 3d
       0.019904062 -0.060291164 0.017767027 0.039004967
0000e0 b5 b2 64 bd 30 c4 13 3c 35 9a 66 bd 84 3f 29 bd
       -0.05583449 0.009018943 -0.056299407 -0.04132034
0000f0 f6 e0 74 3c d2 ee 77 3d 23 6a 4b 3d f9 b1 14 3d
       0.014946213 0.06053049 0.049661767 0.03630254
000100 65 cf 15 bd 69 a7 13 3c f0 9e 72 3d 61 64 85 3a
       -0.03657474 0.009012082 0.059233606 0.001017701
000110 bd af 25 3b 1e d9 2e 3d 4f f9 da bc d8 1d d2 bb
       0.002528175 0.042687528 -0.026730208 -0.006412249
000120 b3 ed 80 3d c0 a2 be bc 1e 9b 9f bc 24 fa 53 3d
       0.062953375 -0.023270965 -0.019483145 0.051752225
000130 08 8b 9a 3c b0 ea 97 3c c0 fa 94 ba 00 7f d2 bb
       0.018865123 0.018544525 -0.0011366233 -0.006423831
000140 80 68 ef 3b b8 b9 11 bd 70 0e 3d 3c 86 18 6b 3d
       0.0073061585 -0.035577506 0.011539087 0.057396434
000150 76 19 e1 bc fa d3 28 bd ef 63 43 3d c5 36 eb 3c
       -0.027477961 -0.04121778 0.047702726 0.02871264
000160 85 fe 0d bc 72 06 aa bc 3a 1a 48 bd 79 02 d3 3c
       -0.008666639 -0.020755026 -0.048853137 0.025758015
000170 f8 f9 27 3d 67 0e 7a bd 58 4c 6f 3c 60 c3 11 3d
       0.041009873 -0.06104889 0.014605604 0.035586715
000180 fd 09 aa bc 6e db 15 bd 43 e3 41 3d 70 be 5f 3d
       -0.020756716 -0.036586218 0.047335874 0.054624975
000190 6e d6 18 bd 18 2a f8 3c c0 c6 d6 bc 14 ca 9c bc
       -0.03731387 0.03029351 -0.026217818 -0.019139327
0001a0 45 10 73 bd 94 62 dc 3c 70 de bb 3c 9a 10 6e 3d
       -0.059341688 0.026902474 0.022933215 0.0581213
0001b0 40 05 fc ba 2e e8 6c 3d d2 dc 12 3d c5 5f 00 bd
       -0.0019227639 0.05783861 0.035855122 -0.031341333
0001c0 20 52 af bb ac 2d ec 3c 28 b6 4e 3c 90 5e ce bc
       -0.0053503662 0.028830372 0.012616672 -0.025191575
0001d0 14 94 06 3d fc fa 4b 3d c8 ee 29 bd a0 79 2a bc
       0.032856062 0.049799904 -0.041487485 -0.010404974
0001e0 f0 8e 36 bc 74 46 08 bd d2 c5 9e bc 2d 12 4d bd
       -0.011142477 -0.033270314 -0.019381437 -0.050066162
0001f0 1a ef 10 3d 22 33 55 3d fa 62 ad bc b0 86 83 3b
       0.035384275 0.052050717 -0.02116536 0.0040138587
000200 c0 dd 37 3c a8 ac d9 3c e7 91 5f bd 48 55 62 3d
       0.011222303 0.026571587 -0.054582503 0.05525711
000210 80 c8 5e bb bc 6b 89 3c 74 ef 83 bc 32 b2 30 3d
       -0.003399402 0.016775005 -0.016105391 0.04313869
000220 e5 a3 cd bc 19 03 ff 3c 29 d8 27 bd 6d 95 1f bd
       -0.025102565 0.031129407 -0.04097763 -0.038960863
000230 08 cf d3 bb c1 ca 84 bd a0 f1 1d bd 74 9b b3 bc
       -0.006463889 -0.06483985 -0.03856051 -0.021924712
000240 d8 58 3f 3d 79 b4 3a bd 2d b5 72 bd be e0 6d 3d
       0.046715587 -0.04558227 -0.059254814 0.05807566
000250 16 d9 eb bb ef 8b 8b bd 7b 4a 09 bd 68 12 40 3d
       -0.0071975095 -0.068137996 -0.033518296 0.046892554
000260 fa 84 e4 3c e2 a4 d2 3c 5e a5 07 3d 40 f5 7b 3d
       0.02789544 0.025713388 0.03311669 0.061513186
000270 21 87 51 39 9c 77 47 3d f6 34 32 3d 68 ce 59 3c
       0.00019982133 0.048698053 0.04350754 0.01329384
000280 60 8b 78 3c de 8f 68 bd e0 2e bc bc a2 4c 7c 3d
       0.015169948 -0.056777827 -0.02297157 0.06159652
000290 99 00 1f bd c6 d8 67 3d 67 43 f9 bc ea db ae 3c
       -0.03881893 0.056603216 -0.030427648 0.021345098
0002a0 bc 88 a7 3c 04 7e 29 3d bc e7 11 bc 34 ce b9 bc
       0.020450942 0.041379943 -0.008905347 -0.022681333
0002b0 f4 57 cd 3c 0b 55 86 3d 14 d0 2d 3d 94 1a e0 3c
       0.025066353 0.065591894 0.042434767 0.027356423
0002c0 e4 8e 51 3d ae 68 30 3d c6 2c 2d bd 7e 1f 60 3d
       0.05116166 0.04306858 -0.042279027 0.054717533
0002d0 37 ed 80 3d e0 5b 52 bc 10 d1 c2 3c f6 75 0e 3d
       0.06295245 -0.0128392875 0.02378133 0.034780465
0002e0 a3 60 f8 3b c5 e6 95 bc 1a 3c ea 3c 82 a8 27 3d
       0.0075798794 -0.018298516 0.028593112 0.040932186
0002f0 6f 4c 7e 3d 16 df 7c 3c 40 7a 4a 3c 0f 23 07 bc
       0.06208461 0.015434047 0.012358248 -0.008248105
000300 52 bc 26 3d b4 06 c1 3c 86 5b df bc 74 10 7e bd
       0.04070694 0.023562767 -0.027265321 -0.06202741
000310 a8 76 7e bd 66 3a 0f 3d 80 47 c6 ba 3a 14 74 3d
       -0.06212488 0.034967802 -0.001512751 0.059589602
000320 c6 e6 24 3d c2 47 8a 3d 6d 52 dd bc cd 18 71 3d
       0.040259145 0.06751968 -0.027016843 0.058861542
000330 b8 16 21 3d 0e f7 84 bd b2 5c 5c 3d 78 0b 09 3d
       0.039328307 -0.064924344 0.05379934 0.033458203
000340 b4 d0 e4 3c d6 3c 25 3c 71 0b 78 bc fa ca 44 bd
       0.027931549 0.010085305 -0.015139447 -0.048045136
000350 72 9f 77 3d cc 18 7a bc da 84 22 bd c6 6a 21 3d
       0.060454793 -0.015264701 -0.03967748 0.039408468
000360 56 37 2e 3c 14 72 67 bd e0 f8 de 3c 2b 7c 0f bb
       0.01063331 -0.056505278 0.027218282 -0.0021894078
000370 80 36 66 3b 44 f4 ce 3c b9 6c 20 bd 40 07 4d bd
       0.00351277 0.02526296 -0.039166186 -0.050055742
000380 8a 41 72 3d 40 7b b6 3c 30 7f 5f bc 00 e1 6a bd
       0.059144534 0.022275567 -0.013641164 -0.057343483
000390 19 af 75 bd d4 cd 9e bc 38 f7 6a bd 74 d9 f0 3c
       -0.05998144 -0.019385256 -0.057364672 0.029400565
0003a0 3a 20 15 3d 55 82 81 bd 6a a1 88 bd 00 f5 82 bd
       0.036407687 -0.06323687 -0.06671412 -0.06394386
0003b0 38 72 d6 3c 90 28 d6 3b 40 55 a2 3b 5c 3d 67 bc
       0.02617751 0.006535597 0.0049540102 -0.01411375
0003c0 74 b0 02 bd 50 68 81 3c a2 19 78 bd c0 71 20 3d
       -0.03190656 0.01579681 -0.06057132 0.03917098
0003d0 48 a7 2a bd d4 ab e2 3c b1 2b 83 3d a6 1d 06 3d
       -0.041663438 0.027669825 0.06404818 0.03274312
0003e0 8e 08 7e 3d b8 dc dd bc cd 13 85 3d 66 c7 e7 bc
       0.062019877 -0.027082786 0.06497917 -0.028293323
0003f0 8f 25 f2 3b 51 fa 35 3d 69 dd 2c bd df a7 88 bd
       0.0073897312 0.044428173 -0.04220334 -0.06672644

fc1.bias f4 [128]
000000 1b 8e f2 3c 22 9a 29 bd 95 4b 13 bc c8 e5 8f bc
       0.029608777 -0.041406758 -0.008990188 -0.017565623
000010 44 4c eb bc b6 b4 1e 3d 4a 62 40 bd ca 46 e9 ba
       -0.02872289 0.038746558 -0.046968736 -0.0017797586
000020 49 bd b2 bc bb 79 03 bb 01 d7 e5 3c c4 e5 ec bb
       -0.021818774 -0.002006157 0.028056623 -0.0072295386
000030 8e d7 41 bd c1 5c 9d bc b9 17 c2 3c 90 ef 8a bc
       -0.04732471 -0.019209268 0.023692952 -0.016959935
000040 e8 9d 9d bb 2a c0 81 bd 9c 5b 47 bd 76 db 4c bd
       -0.0048100837 -0.063354805 -0.04867135 -0.05001398
000050 21 d7 8a bd 99 02 82 3b 2d 40 a8 ba 73 68 65 bd
       -0.06779314 0.003967595 -0.0012836509 -0.056007814
000060 81 3d fb 3c 39 35 6d bd da ad c0 3c 84 bd 25 bc
       0.030668976 -0.057912085 0.023520399 -0.010115985
000070 79 a0 b1 bc d6 a5 37 bd 5e 49 d1 3c a7 1a 43 3c
       -0.021682965 -0.044835888 0.02554768 0.01190821
000080 de 29 db bc 82 f0 6d 3d 8b 84 22 3d fe a6 d9 bc
       -0.026753362 0.058090694 0.039677184 -0.026568886
000090 37 6c 9e bd c4 e8 a2 bc a6 b6 11 3d 18 de d0 bb
       -0.07735484 -0.019886382 0.035574578 -0.006374132
0000a0 92 f5 54 bd 5a cf a3 3c c9 95 06 bc cc e0 5d 3c
       -0.051992007 0.019996334 -0.0082144225 0.013542365
0000b0 a4 96 ea bc 81 a5 b6 bc 9b 6c 93 3c a1 c3 3f bd
       -0.028636284 -0.022295715 0.017996123 -0.046817426
0000c0 51 d5 46 ba 50 fc 67 bb b2 7d 14 3d 9c 85 70 bc
       -0.0007584887 -0.0035398193 0.036252685 -0.014680292
0000d0 31 02 d5 3c 6b 60 fe 3c b2 fa ee bc 20 86 09 3d
       0.026002022 0.031051835 -0.029172275 0.033575177
0000e0 f3 42 ee 3c 09 3d 15 bd 27 9a 00 bb 47 62 75 bd
       0.029084658 -0.03643516 -0.0019623132 -0.059908178
0000f0 e2 9a 4f 3d 50 ab 9f bc a8 a3 4d bd a5 38 5c ba
       0.050684817 -0.019490868 -0.050204903 -0.00084007747
000100 94 ed 4d 3d dc 5a 4f bd f0 f4 d0 3c 7f fd b7 3c
       0.0502754 -0.05062376 0.02550742 0.022459744
000110 61 85 22 3c aa 5c 94 bb e6 1b 78 bd a4 e8 95 bc
       0.009919495 -0.004527648 -0.06057348 -0.018299408
000120 c7 d1 b9 bc 32 a2 05 3c e6 6a 71 3c ce 9a 02 bd
       -0.022683037 0.008156346 0.014734959 -0.031885915
000130 ad c6 9d bd 91 4e 88 bc a0 7f 30 3d 60 7b 46 3d
       -0.0770391 -0.016639026 0.043090463 0.048457503
000140 c9 48 b7 3c 90 14 e5 bb 73 3f 01 bd 68 4a 34 bb
       0.022373574 -0.0069909766 -0.03155465 -0.002751017
000150 4f 6d 9e bc 52 9f 66 3c fd 31 86 bd 0e 3c 87 bd
       -0.019339232 0.014076071 -0.06552503 -0.066032514
000160 e9 97 23 bd 0c 81 41 bd dd ce 19 3d 34 4f 23 3d
       -0.039939795 -0.04724221 0.037550796 0.039870456
000170 89 01 0a 3d 46 3d 0a 3d d0 b9 75 ba bc 15 2f 3d
       0.03369287 0.03374984 -0.00093736965 0.042745337
000180 f8 83 43 bd 69 83 5d ba 34 c7 45 bd 94 69 31 3d
       -0.047733277 -0.00084500626 -0.048285678 0.043313578
000190 3d 0c 61 bd 20 6e 8f bc 88 95 aa bc db a2 31 3d
       -0.054943312 -0.017508566 -0.020823255 0.0433682
0001a0 79 6a 51 bd f4 92 16 bb 80 e4 79 bd 1c d6 f2 ba
       -0.05112693 -0.0022975774 -0.06100893 -0.0018526944
0001b0 54 0e 96 bd 4d 19 a6 bb 51 bb 79 3d 60 68 98 3d
       -0.073269516 -0.005068934 0.060969654 0.07441783
0001c0 4a 91 9e bc 13 43 0b bd a6 06 5b 3d 2b c7 c3 3c
       -0.019356389 -0.033999514 0.053473137 0.023898682
0001d0 6b b0 cd 3c 7b 63 b9 ba f6 49 49 bb 7b 22 81 3d
       0.025108537 -0.0014144027 -0.003071425 0.06305405
0001e0 e7 31 af ba 65 78 32 bd 9e ca a7 3a 71 cf 84 bd
       -0.0013366312 -0.04357185 0.0012801473 -0.06484879
0001f0 6b f0 65 bb d2 71 40 3d e0 c1 41 3d 9a 60 1e bd
       -0.0035085927 0.046983548 0.047304034 -0.038666345

fc2.weight f4 [64, 128]
000000 d7 fc 80 3d 2d c8 5c bd ee 87 40 bd 52 99 5d bd
       0.062982254 -0.05390184 -0.047004633 -0.054101296
000010 4a 05 d0 bd ce fd 73 3d 18 9d 15 3d a2 19 90 3d
       -0.10157259 0.05956822 0.03652677 0.07036139
000020 e4 a8 50 3c 5b 33 68 bc 80 07 31 bd ad 6e 95 3c
       0.012735579 -0.0141724 -0.043220043 0.01824125
000030 21 e7 93 3d cc c3 d0 3c cc 66 44 3d d7 c0 74 bd
       0.07221819 0.025483988 0.047949597 -0.05975422
000040 a8 29 7a 3c 80 4f f4 3a 34 b7 8c bd 11 12 7c bd
       0.015268721 0.0018639416 -0.06870881 -0.061540667
000050 48 68 12 3c 8e 9a 3b bd a9 bb 29 3d 6c a8 9c bd
       0.008935995 -0.04580169 0.041438732 -0.076493114
000060 b8 26 8d 3b a3 ac c0 bd af 3a 93 3d e1 f7 23 bd
       0.004307594 -0.09407928 0.071889274 -0.040031318
000070 87 01 34 3d 09 c9 96 3d 30 7b 8b bd b4 fe 80 3c
       0.04394677 0.07362563 -0.068106055 0.015746452
000080 2d 97 8f 3d d6 4c de bd f5 35 1a bd bf 23 99 3d
       0.07011256 -0.10854499 -0.037649114 0.07477521
000090 60 2e 33 bb a3 b6 0c bd fd 96 31 3d 08 0c 54 3c
       -0.0027340874 -0.034353863 0.043356884 0.012942322
0000a0 58 fd 4a bd 15 37 67 3d c3 31 29 3d f7 d8 da bc
       -0.049558014 0.056449015 0.041307222 -0.026714785
0000b0 94 41 92 bc 38 b3 97 3d 03 ad 84 bd 7c 59 41 3c
       -0.017853536 0.0740723 -0.06478312 0.01180112
0000c0 c6 15 c6 bb 14 2b 3c bd 2f 10 96 bc c8 57 a2 bd
       -0.006045076 -0.04593952 -0.018318264 -0.07926899
0000d0 39 05 cb bd 59 8d 2d bd 96 f3 f7 bc 00 13 9e bd
       -0.099131055 -0.042371128 -0.030267518 -0.07718468
0000e0 1b 24 70 3d 37 9c c3 3c d7 b9 96 bd 80 00 fb 3c
       0.058628183 0.0238782 -0.07359665 0.030639887
0000f0 a7 1f 9e bd 11 7c b0 bc 42 1e 92 bd ca ae 92 bd
       -0.07720881 -0.021543534 -0.071346775 -0.071622446
000100 d8 60 74 bd 3b 60 41 bd 9f 19 ce bd e4 86 0e 3d
       -0.05966267 -0.047210913 -0.100634806 0.03479661
000110 21 bc f7 bc f6 89 84 bd 82 e8 6f bd a5 08 46 3c
       -0.030241074 -0.064716265 -0.058571346 0.012087022
000120 92 53 5b bd 73 57 79 bd 6f 1e 83 3c 18 8b 98 bd
       -0.053546496 -0.060874414 0.016005723 -0.07448405
000130 8d 87 84 bd e6 fc 5f bd 07 9a 4f 3d 88 4e 90 bd
       -0.06471167 -0.054684542 0.050684 -0.07046229
000140 90 08 c3 bd e2 61 81 bd 33 a5 02 3d a2 97 86 3d
       -0.095231175 -0.06317498 0.031895828 0.065718904
000150 a0 9c 88 bd 20 a7 76 bd 90 60 87 bd 70 e6 a2 3c
       -0.06670499 -0.060217977 -0.06610215 0.019885272
000160 48 c9 a6 bd 9b 91 5e bd bd b7 64 bc 22 8a 35 3d
       -0.0814386 -0.05433808 -0.013959822 0.044321187
000170 53 7c 47 bd 44 01 f3 bb 06 6c ee bc d0 4f 96 3d
       -0.04870255 -0.0074159224 -0.029104244 0.07339442
000180 c0 71 78 3c d2 87 35 bc 33 d5 d5 3b 3c e4 76 3d
       0.015163839 -0.011079745 0.0065256595 0.060276255
000190 ab e9 59 bd 69 0f 97 3d ee 1d 03 3d 0f c8 27 bd
       -0.05320136 0.07375986 0.032010965 -0.040962275
0001a0 0b df 46 3d 40 00 96 bc 4d 41 ac bd c6 43 22 bd
       0.048552554 -0.018310666 -0.08410893 -0.039615415
0001b0 9e e2 9c bc 8f 86 4b bc 58 b0 a3 bd 10 a4 cd bd
       -0.019151028 -0.012422218 -0.07992619 -0.10041058
0001c0 60 0c e2 bb 8c d1 eb 3c 59 19 11 3d 93 d5 c4 3c
       -0.006898448 0.028786443 0.035424564 0.024027621
0001d0 2b 76 b7 3c 1f 7d c4 bc 40 7d cc bc 14 0c 6a bd
       0.022395214 -0.023985444 -0.024962068 -0.057140425
0001e0 0d 92 f1 3c 5a fa 3e bd e6 15 1b 3c 42 60 4a bd
       0.029488588 -0.046625473 0.00946567 -0.049408205
0001f0 ea ef 0d bd 4e c4 3b bd 02 4a cd bd 0e a3 20 3d
       -0.034652628 -0.045841508 -0.100238815 0.039218
000200 ef d9 9b 3d fe 90 89 bd 65 5a 2d bd 15 6a 9f 3d
       0.07609927 -0.06717108 -0.042322535 0.077839054
000210 ef 3d 90 bd e5 e4 9d 3d 56 4a 18 3d 12 3b f3 bc
       -0.07043063 0.07709674 0.037180267 -0.029691253
000220 d6 6c 30 3d 90 ea ef bb a1 6b 84 3d 78 e7 8a 3c
       0.043072544 -0.007321663 0.06465841 0.016956076
000230 0a cc 2f 3d ca d5 50 bd 40 06 ab ba ba 63 30 3d
       0.042919196 -0.050985135 -0.0013048127 0.043063857
000240 1a ad 83 bd 0f f4 a3 3d 6f 1c 5c bd 02 c9 74 bd
       -0.06429501 0.08005535 -0.053738054 -0.05976201
000250 95 33 a4 3d 68 e7 29 bd 3b 6d 1f bd f8 36 ab bd
       0.08017651 -0.04148045 -0.03892253 -0.08360094
000260 39 e3 22 bd 05 42 88 3d d4 33 89 3c 5e e8 6b 3d
       -0.039767478 0.06653217 0.016748346 0.05759465
000270 e3 53 92 bd 02 1c b0 bd 00 cd da 3c 9f 3d 6b bd
       -0.07144906 -0.08599092 0.02670908 -0.057431813
000280 5c aa 94 bd ee 02 e0 bc 86 8c 9f bd 38 e0 1a bc
       -0.07259056 -0.027345147 -0.077904746 -0.009452872
000290 ea 5d 2b 3d a0 54 5f 3b 51 93 86 3d 3c 03 8c bc
       0.04183761 0.003407754 0.06571067 -0.017091386
0002a0 34 23 8f bd c0 ab 2e bc 2c 67 a0 3c b7 9b 9e 3d
       -0.06989136 -0.010661066 0.019580446 0.07744544
0002b0 ca 57 6c 3d 40 61 17 bd 58 29 d3 bc 32 8d 25 3d
       0.05770091 -0.03695798 -0.02577655 0.040417857
0002c0 08 a8 a5 bd 11 e4 3d bd c0 6e e7 3c 00 66 f2 ba
       -0.0808869 -0.04636008 0.028251052 -0.0018493533
0002d0 27 51 5f bd b9 c9 8b bd 61 01 9c bd 70 60 bf bc
       -0.054520752 -0.06825585 -0.076174505 -0.023361415
0002e0 d7 25 80 3d 30 2e b9 3c 60 d6 dd 3c a0 67 eb bb
       0.062572174 0.022605032 0.027079761 -0.007183984
0002f0 74 a5 82 bd e0 81 25 3b db 6b 85 3d 42 43 71 bd
       -0.06379214 0.0025254413 0.065147124 -0.058902033
000300 32 bb 45 3d e2 a1 5f bd 12 09 fa bc 9c bf 82 3c
       0.048274226 -0.054597743 -0.030521903 0.015960507
000310 20 db a0 bd 8f 89 95 3d 58 ae 3b bc 8d 5f 9b 3d
       -0.07854295 0.07301628 -0.011455141 0.07586584
000320 a4 40 ca bc 6e 05 72 3d 2e 37 17 3d 0c c2 e9 3c
       -0.024689026 0.05908721 0.036917858 0.028534912
000330 46 db 37 3d f2 95 a1 bd ae cd 22 3d c0 e0 4c bc
       0.04488685 -0.07889928 0.039746933 -0.012504756
000340 00 da d3 bc d8 5d 1a 3c 35 b7 96 3d 7a 65 73 bd
       -0.025860786 0.009421788 0.07359163 -0.059422947
000350 d4 f6 af bd bf dd 39 bd b0 9d 60 bc 4f 3d a1 3d
       -0.085920006 -0.04537749 -0.013709471 0.07873022
000360 80 91 2e 3b 29 ae 91 3d d6 f2 a3 bd 22 88 29 3d
       0.0026637018 0.071132965 -0.08005302 0.041389592
000370 46 8d 3f 3d 75 b0 69 bd 40 85 7f bc b9 eb a9 bd
       0.04676559 -0.05705305 -0.015595734 -0.08296914
000380 cd 54 92 3d 46 4c 22 3d ae e5 2d 3d 3d 87 ad 3d
       0.07145081 0.03962352 0.042455368 0.0847306
000390 03 96 b4 3d 2a cd 01 3d 00 1c f3 38 04 9a 94 bc
       0.08817675 0.0316898 0.00011592358 -0.018139847
0003a0 8f 1d a2 3d 9f 54 82 3d a0 8c 0f bd 27 af 13 bd
       0.07915794 0.063637964 -0.03504622 -0.03605571
0003b0 f0 b3 22 bc 60 fe 55 bb bd d5 a3 bd e8 7d 68 bd
       -0.009930596 -0.003265284 -0.07999752 -0.0567607
0003c0 80 1d 6c 3a c0 aa d9 3a cd 81 9f 3d 54 fd 9c bd
       0.00090070814 0.0016606674 0.077884294 -0.07665506
0003d0 f8 91 13 3c dd 6f ad bd 55 c0 84 3d df 93 85 bd
       0.00900697 -0.08468602 0.06481997 -0.06522345
0003e0 cd d2 9a 3d e2 c2 01 bd f2 3a 79 3d 08 f6 62 3c
       0.07559738 -0.031679995 0.06084723 0.013852604
0003f0 51 f8 74 bd 00 bd 5b bb 63 16 95 bd 94 59 b0 bd
       -0.059807125 -0.00335294 -0.072796606 -0.08610836

fc2.bias f4 [64]
000000 f9 81 15 3d 5a 87 94 bd 9e 32 81 bd 20 d7 0d 3c
       0.036500905 -0.07252379 -0.063084826 0.008657247
000010 8b e8 4e 3d d7 c4 09 bd 71 fb 68 3d ef bc 0b 3d
       0.05051474 -0.033634987 0.05688042 0.034115728
000020 6f b7 f7 3c 0e ca 5a 3c 78 8f 3f bc 50 ea 77 3d
       0.030238835 0.013353838 -0.01169192 0.060526192
000030 95 15 09 3d a1 df ca bc 4d 3f 54 bd 6f a0 7f 3d
       0.033467848 -0.024764838 -0.05181818 0.06240886
000040 e8 d1 81 bd 66 c8 6c bd 2e d7 8a 3b 81 2f 12 bd
       -0.063388646 -0.057808302 0.004237077 -0.035689835
000050 02 72 90 bc cf 72 7e 3c 6b a1 1d 3c 55 03 92 3d
       -0.017632488 0.015530302 0.009621005 0.07129542
000060 5a 28 de bc 36 a0 69 3d 4b d7 91 3d 83 f9 07 3d
       -0.02711885 0.057037555 0.07121142 0.033196937
000070 53 dc 5f 3d a4 fa 02 bc e5 64 9c bd da 6d 8d 3d
       0.054653477 -0.007994328 -0.076364316 0.06905718
000080 dd cd bf 3d be 60 e4 3d 50 9f c2 3c 36 fa 6d bd
       0.09365437 0.111512646 0.023757607 -0.058099948
000090 18 bc b1 bc 6c b7 ea bc a0 7f bd 3c d6 31 8c bd
       -0.021696135 -0.028651915 0.023132145 -0.06845443
0000a0 95 0a 96 bd 39 85 fd 3c 30 6f ed bc 50 ab 52 3d
       -0.07326237 0.030947315 -0.028983682 0.051432908
0000b0 4c f1 b9 bb ac 5e f9 bc 71 0c 17 bd 5c a3 30 bd
       -0.005674517 -0.03044065 -0.0368771 -0.04312454
0000c0 59 90 9f 3d 3f 1c 70 3d 00 c0 01 3b ca b8 60 39
       0.07791204 0.058620688 0.0019798279 0.00021431144
0000d0 ea 8e 95 bd 9b 00 99 bd 90 65 aa bd 60 6e 34 bb
       -0.07302649 -0.074708186 -0.08320153 -0.002753161
0000e0 05 4c ac 3d ba e4 3b 3d 1d f2 ba bd d8 7f 21 bc
       0.08412937 0.045872428 -0.09128211 -0.0098571405
0000f0 04 99 70 bd 43 3c 79 3c 00 00 cb bc 18 b4 b1 bc
       -0.058739677 0.015212121 -0.024780273 -0.02169232

fc3.weight f4 [10, 64]
000000 bd fa 12 bd e8 2c ac bc e6 4f fb 3d 70 f4 69 bc
       -0.035883654 -0.021017507 0.12271099 -0.01427947
000010 d6 43 db 3d d2 b1 98 3d 68 a2 84 3d 4c 96 36 bc
       0.10706298 0.074557915 0.06476289 -0.011144232
000020 80 37 99 bd 9e 40 99 3d 04 f4 7e 3d a1 bb dd bd
       -0.07481289 0.07483028 0.06224443 -0.10826803
000030 cb 62 3b 3d fc a8 fd 3d a6 5d f0 bd 2a 98 02 be
       0.045748513 0.12385747 -0.11736612 -0.12753358
000040 6b 1b 8b 3d a3 ce bd bd d4 62 9e 3c a8 bb 12 bd
       0.06792339 -0.092679285 0.019334234 -0.035823494
000050 a9 79 6f 3d c5 0a d2 3c d1 ab af 3b 3b 81 69 bd
       0.058465634 0.025639901 0.0053610583 -0.05700801
000060 e8 e1 e0 bd b6 4c f1 bd f6 f3 49 bd ce c7 90 bd
       -0.10980588 -0.117822096 -0.049304925 -0.0706936
000070 8a f4 92 3c 99 60 99 3d 34 fb a5 3d b2 30 e3 bd
       0.017938871 0.07489128 0.08104554 -0.11093272
000080 56 cf 2b bd 51 8b 35 3d 90 0b 15 bc 38 eb f6 bc
       -0.041945778 0.044322316 -0.009096995 -0.030141458
000090 65 d1 d3 bd af 4c 9a bd ee 1f d6 3d 4a 4f 1e 3d
       -0.10342673 -0.075341575 0.10455309 0.038649835
0000a0 83 64 8d 3d 8b bf c0 38 54 65 b0 3d b1 f1 d6 bc
       0.06903937 9.190951e-05 0.08613077 -0.026238294
0000b0 d3 4c 94 3d 81 0d da 3d 70 5c 08 3d 3e 94 85 bd
       0.072412156 0.10647107 0.03329128 -0.065224156
0000c0 22 50 73 bd 7b e9 82 bd da f8 fc 3d 3d c6 ac bb
       -0.059402592 -0.06392189 0.12352152 -0.0052726553
0000d0 53 0f e5 3d 28 1a 50 3d b2 05 ac 3d 9a f1 b5 3d
       0.111845635 0.050806195 0.08399524 0.088839725
0000e0 24 78 36 3d 9b d5 64 3c e9 a1 bb bd 34 b0 e9 bd
       0.04454817 0.013966943 -0.09161741 -0.11410561
0000f0 12 89 a8 bd 5e cd bd 3c 04 3e e4 bd 98 1e e0 bd
       -0.08229269 0.023169216 -0.11144641 -0.10943335
000100 02 95 6a 3d 78 61 e8 3c f4 be 91 3d 28 aa 34 bd
       0.05727101 0.02836679 0.071164995 -0.044107586
000110 f9 b4 9d 3d d0 6e df bd 01 b0 d5 bd 0e 68 81 bd
       0.077005334 -0.10909808 -0.10433961 -0.06318675
000120 f2 97 05 be 69 f3 d9 bd 49 1c 4c 3c 17 5a 03 bd
       -0.13046244 -0.1064213 0.012457916 -0.03206834
000130 d2 94 ec bd 33 57 9b bd e9 bc 84 bc 3d 1f dc bd
       -0.11551823 -0.07584991 -0.01620336 -0.10748146
000140 d3 c6 83 3d d8 4b a2 bd 2d 42 81 bd 68 d4 0d 3d
       0.06434407 -0.07924622 -0.0631145 0.034626395
000150 b2 ba 27 3d d5 0b d4 bc f1 40 9e 3d 45 3d fc bd
       0.04094953 -0.025884548 0.0772723 -0.12316374
000160 f6 70 aa bd 81 b4 c2 bc 5e 5b b1 bd 9b 92 f3 bd
       -0.08322327 -0.023767712 -0.08660005 -0.11893197
000170 e0 fe 08 be 91 80 ef 3d 10 f1 f7 3c 01 59 57 bd
       -0.13378477 0.11694444 0.030266315 -0.052575115
000180 5b cc 1d 3d 6c 95 07 be c8 75 8e bd a0 96 ec bb
       0.038524967 -0.13240594 -0.06956059 -0.0072201043
000190 15 19 4b bd b9 25 6c bb b8 54 eb 3c 87 10 d1 3c
       -0.049584467 -0.0036033227 0.02872692 0.025520576
0001a0 18 b6 5d bd 28 e0 cf bc 96 b4 ff 3d ad 06 0b be
       -0.054128736 -0.02537544 0.12485616 -0.13576765
0001b0 24 c3 84 bd ae f9 93 3c 30 2a 5d bd ac 7f 5d 3d
       -0.064825326 0.018063392 -0.05399531 0.054076836
0001c0 32 3e 15 bd 12 3f 01 3d 5e a8 c1 3d 4b a0 1c bd
       -0.036436267 0.03155429 0.094559416 -0.038238805
0001d0 28 5e e4 3d 0c 95 85 3d b2 a7 f8 bc 80 ab 8a 3c
       0.111507714 0.06522569 -0.0303534 0.01692748
0001e0 a6 1f f9 bd eb 4c 65 bb 37 01 0a 3e 9c 62 b6 3c
       -0.121642396 -0.0034988474 0.13477026 0.022263817
0001f0 e2 94 e9 3c 49 c2 99 bd 80 b4 61 3b 7c 00 73 3d
       0.028513376 -0.0750776 0.0034439862 0.059326634
000200 6b 4b f3 3c 92 23 92 3d 44 99 ae 3d 80 96 6b bd
       0.029699048 0.07135691 0.08525327 -0.057516575
000210 80 d2 91 3d 41 0f dd 3c 9b 87 e9 3c 21 94 65 bd
       0.07120228 0.026984813 0.028507045 -0.05604947
000220 e4 1a c7 3d 4b 12 cd 3d ee 61 1d bd ee b6 97 3d
       0.09721926 0.10013255 -0.03842347 0.07407938
000230 8f e1 bf bd e4 fd 4d bd d9 81 a9 bd a6 eb 14 bd
       -0.09369194 -0.050290957 -0.082767196 -0.036357544
000240 97 5d c0 3d 0d 02 69 3c b0 fd d9 3a 30 93 c8 bd
       0.09392851 0.01422168 0.0016631391 -0.09793699
000250 9a 5c b8 3c 5b ff 93 3d 2a a4 8c bd 12 68 4e bd
       0.022505093 0.072264396 -0.06867249 -0.050392218
000260 7c c8 d2 3d 56 5c 1c 3d e2 f5 0b bd 06 59 4f 3b
       0.102921456 0.038173996 -0.03417004 0.0031638755
000270 cb dd 02 bd a9 76 b0 3b 08 d8 0d 3d e4 cc 2e 3d
       -0.0319498 0.005385239 0.03462985 0.042675868
000280 e4 5e fb bd e6 77 0e be 4f f0 12 be 12 39 c8 3d
       -0.12273958 -0.13912925 -0.14349483 0.0977651
000290 25 3f 2b 3d 4e 2a cf bc 4f 61 a9 bc 8c c8 b6 bd
       0.041808266 -0.025288727 -0.020676283 -0.0892497
0002a0 b5 13 32 3c 21 81 76 bd dc e2 c2 bd a1 b6 9e bd
       0.010868956 -0.06018174 -0.09515926 -0.077496774
0002b0 81 a7 73 3d 29 8f cd 3d 18 25 80 3d 26 75 58 3c
       0.059485916 0.10037071 0.06257075 0.013211524
0002c0 13 5a 83 bd 21 22 b4 bd 6c 53 75 3d 51 7a 17 bd
       -0.06413665 -0.08795572 0.05989401 -0.036981884
0002d0 9b 41 f9 3c 80 db 71 bd 44 80 a1 3d 7e d7 c8 3d
       0.030426791 -0.059047222 0.07885793 0.09806727
0002e0 e4 24 a7 3c 30 c7 2d bc 64 52 84 3d 35 fc ea bd
       0.020403333 -0.010606572 0.06461027 -0.11473886
0002f0 6c e4 c5 3c 4d d0 0e 3d b0 d8 93 bc fe 4e cd 3d
       0.024156772 0.03486662 -0.01804766 0.10024832
000300 b1 21 0a bc 18 5b ef bc e8 83 9f bc 4c 22 7c bd
       -0.008430884 -0.029218242 -0.019472077 -0.061556146
000310 6f 4e 2a bd 9f 2b 25 bd 0e b6 04 3e 8a 5d 8d bd
       -0.041578706 -0.040324803 0.12960073 -0.06902607
000320 88 9e 01 3d 25 85 bf bd d3 2e 97 bd 6e 3f 1a 3d
       0.031645328 -0.09351567 -0.07381978 0.037658148
000330 aa f2 39 3d 5f 8f bb bd 94 bf 71 3d b6 be f5 3d
       0.045397438 -0.09158205 0.059020594 0.11999266
000340 c3 27 c3 bd 3b cd 3f 3d f8 44 69 bb 14 b9 2b 3d
       -0.09529068 0.046826582 -0.0035594087 0.04192455
000350 c2 dd c8 3d cc c7 6b bc 95 0a 00 3d c2 02 41 3d
       0.09807922 -0.014390897 0.03126009 0.04712177
000360 e4 a5 cd bd bc 77 aa 3d a0 b6 d1 3c f1 a4 39 bc
       -0.10041407 0.08323619 0.025599778 -0.011330829
000370 c9 86 39 3d ed aa 33 bd 0e 84 fa bd 37 f0 b4 3d
       0.045294557 -0.04386418 -0.12232219 0.0883488
000380 01 cf df 3c ed 03 0d 3e 13 16 d8 3d 84 0b ea bd
       0.027320387 0.13771029 0.10551085 -0.11427978
000390 82 3f 80 bd c7 22 99 bd 67 24 e2 bd a0 d2 a6 bd
       -0.06262113 -0.074773364 -0.110420994 -0.08145642
0003a0 4e 69 ec bd d7 48 ed 3d a4 0b f1 3d e3 59 9e 3d
       -0.11543523 0.11586159 0.117697984 0.07731988
0003b0 8e 96 a6 3d 03 1e f4 3d bc f7 62 bd 52 43 f4 3d
       0.08134185 0.11919787 -0.05541204 0.11926903
0003c0 42 35 86 bd 43 b3 ac bd 20 21 c0 3c ac 38 96 bd
       -0.06553127 -0.08432629 0.023453295 -0.07335028
0003d0 9b 32 78 3c d2 43 e6 bd 81 6b 5e bd 88 5a 64 3d
       0.015148784 -0.112434044 -0.054301742 0.0557504
0003e0 4c ea cc 3d c3 32 9c 3d 0a d1 0c 3c 82 2a c7 3c
       0.10005626 0.076268695 0.008594761 0.024312261
0003f0 60 f9 85 3d 49 bd f5 3c 30 7d 39 bc 00 2e 57 ba
       0.06541705 0.029997485 -0.011321351 -0.00082084537

fc3.bias f4 [10]
000000 1d 94 4e 3c 13 16 a8 3d 5b fe 8a 3d 8c 85 b0 bd
       0.012608555 0.08207335 0.06786796 -0.08619222
000010 5c 94 42 ba 91 93 5f bd 2a 09 ab bd 63 1d bd bd
       -0.000742262 -0.05458409 -0.08351357 -0.09234121
000020 db e3 94 3d 92 4e 58 3d
       0.072700225 0.052809305
